…
lr_policy: "step"
gamma: 0.1
power: 0.75
momentum: 0
weight_decay: 0.001
stepsize: 100000
snapshot: 150000
snapshot_prefix: "cnn_snapshot"
solver_mode: GPU
device_id: 0
type: "AdaGrad"
I0207 12:36:01.195018  7405 solver.cpp:81] Creating training net from train_net file: cnn_train_fine.prototxt
I0207 12:36:01.195446  7405 net.cpp:49] Initializing net from parameters: 
state {
  phase: TRAIN
}
layer {
  name: "data"
  type: "HDF5Data"
  top: "data"
  top: "label_fine"
  hdf5_data_param {
    source: "cifar_100_caffe_hdf5/train.txt"
    batch_size: 100
  }
}
layer {
  name: "conv1"
  type: "Convolution"
  bottom: "data"
  top: "conv1"
  param {
    lr_mult: 1
  }
  param {
    lr_mult: 2
  }
  convolution_param {
    num_output: 32
    pad: 2
    kernel_size: 5
    stride: 1
    weight_filler {
      type: "gaussian"
      std: 0.0001
    }
    bias_filler {
      type: "constant"
    }
  }
}
layer {
  name: "pool1"
  type: "Pooling"
  bottom: "conv1"
  top: "pool1"
  pooling_param {
    pool: MAX
    kernel_size: 3
    stride: 2
  }
}
layer {
  name: "relu1"
  type: "ReLU"
  bottom: "pool1"
  top: "pool1"
}
layer {
  name: "norm1"
  type: "LRN"
  bottom: "pool1"
  top: "norm1"
  lrn_param {
    local_size: 3
    alpha: 5e-05
    beta: 0.75
    norm_region: WITHIN_CHANNEL
  }
}
layer {
  name: "conv2"
  type: "Convolution"
  bottom: "norm1"
  top: "conv2"
  param {
    lr_mult: 1
  }
  param {
    lr_mult: 2
  }
  convolution_param {
    num_output: 32
    pad: 2
    kernel_size: 5
    stride: 1
    weight_filler {
      type: "gaussian"
      std: 0.01
    }
    bias_filler {
      type: "constant"
    }
  }
}
layer {
  name: "relu2"
  type: "ReLU"
  bottom: "conv2"
  top: "conv2"
}
layer {
  name: "pool2"
  type: "Pooling"
  bottom: "conv2"
  top: "pool2"
  pooling_param {
    pool: AVE
    kernel_size: 3
    stride: 2
  }
}
layer {
  name: "norm2"
  type: "LRN"
  bottom: "pool2"
  top: "norm2"
  lrn_param {
    local_size: 3
    alpha: 5e-05
    beta: 0.75
    norm_region: WITHIN_CHANNEL
  }
}
layer {
  name: "conv3"
  type: "Convolution"
  bottom: "norm2"
  top: "conv3"
  convolution_param {
    num_output: 64
    pad: 2
    kernel_size: 5
    stride: 1
    weight_filler {
      type: "gaussian"
      std: 0.01
    }
    bias_filler {
      type: "constant"
    }
  }
}
layer {
  name: "relu3"
  type: "ReLU"
  bottom: "conv3"
  top: "conv3"
}
layer {
  name: "pool3"
  type: "Pooling"
  bottom: "conv3"
  top: "pool3"
  pooling_param {
    pool: AVE
    kernel_size: 3
    stride: 2
  }
}
layer {
  name: "ip1"
  type: "InnerProduct"
  bottom: "pool3"
  top: "ip1"
  inner_product_param {
    num_output: 768
    weight_filler {
      type: "xavier"
    }
  }
}
layer {
  name: "sig1"
  type: "Sigmoid"
  bottom: "ip1"
  top: "ip1"
}
layer {
  name: "ip_f"
  type: "InnerProduct"
  bottom: "ip1"
  top: "ip_f"
  inner_product_param {
    num_output: 100
    weight_filler {
      type: "xavier"
    }
  }
}
layer {
  name: "accuracy_f"
  type: "Accuracy"
  bottom: "ip_f"
  bottom: "label_fine"
  top: "accuracy_f"
}
layer {
  name: "loss_f"
  type: "SoftmaxWithLoss"
  bottom: "ip_f"
  bottom: "label_fine"
  top: "loss_f"
}
I0207 12:36:01.195544  7405 layer_factory.hpp:77] Creating layer data
I0207 12:36:01.195557  7405 net.cpp:106] Creating Layer data
I0207 12:36:01.195564  7405 net.cpp:411] data -> data
I0207 12:36:01.195585  7405 net.cpp:411] data -> label_fine
I0207 12:36:01.195598  7405 hdf5_data_layer.cpp:79] Loading list of HDF5 filenames from: cifar_100_caffe_hdf5/train.txt
I0207 12:36:01.195621  7405 hdf5_data_layer.cpp:93] Number of HDF5 files: 1
I0207 12:36:01.196394  7405 hdf5.cpp:35] Datatype class: H5T_INTEGER
I0207 12:36:02.998654  7405 net.cpp:150] Setting up data
I0207 12:36:02.998706  7405 net.cpp:157] Top shape: 100 3 32 32 (307200)
I0207 12:36:02.998723  7405 net.cpp:157] Top shape: 100 (100)
I0207 12:36:02.998746  7405 net.cpp:165] Memory required for data: 1229200
I0207 12:36:02.998754  7405 layer_factory.hpp:77] Creating layer label_fine_data_1_split
I0207 12:36:02.998778  7405 net.cpp:106] Creating Layer label_fine_data_1_split
I0207 12:36:02.998785  7405 net.cpp:454] label_fine_data_1_split <- label_fine
I0207 12:36:02.998796  7405 net.cpp:411] label_fine_data_1_split -> label_fine_data_1_split_0
I0207 12:36:02.998816  7405 net.cpp:411] label_fine_data_1_split -> label_fine_data_1_split_1
I0207 12:36:02.998852  7405 net.cpp:150] Setting up label_fine_data_1_split
I0207 12:36:02.998858  7405 net.cpp:157] Top shape: 100 (100)
I0207 12:36:02.998863  7405 net.cpp:157] Top shape: 100 (100)
I0207 12:36:02.998867  7405 net.cpp:165] Memory required for data: 1230000
I0207 12:36:02.998870  7405 layer_factory.hpp:77] Creating layer conv1
I0207 12:36:02.998888  7405 net.cpp:106] Creating Layer conv1
I0207 12:36:02.998893  7405 net.cpp:454] conv1 <- data
I0207 12:36:02.998898  7405 net.cpp:411] conv1 -> conv1
I0207 12:36:03.000183  7405 net.cpp:150] Setting up conv1
I0207 12:36:03.000198  7405 net.cpp:157] Top shape: 100 32 32 32 (3276800)
I0207 12:36:03.000202  7405 net.cpp:165] Memory required for data: 14337200
I0207 12:36:03.000216  7405 layer_factory.hpp:77] Creating layer pool1
I0207 12:36:03.000224  7405 net.cpp:106] Creating Layer pool1
I0207 12:36:03.000229  7405 net.cpp:454] pool1 <- conv1
I0207 12:36:03.000234  7405 net.cpp:411] pool1 -> pool1
I0207 12:36:03.000279  7405 net.cpp:150] Setting up pool1
I0207 12:36:03.000286  7405 net.cpp:157] Top shape: 100 32 16 16 (819200)
I0207 12:36:03.000290  7405 net.cpp:165] Memory required for data: 17614000
I0207 12:36:03.000293  7405 layer_factory.hpp:77] Creating layer relu1
I0207 12:36:03.000300  7405 net.cpp:106] Creating Layer relu1
I0207 12:36:03.000304  7405 net.cpp:454] relu1 <- pool1
I0207 12:36:03.000309  7405 net.cpp:397] relu1 -> pool1 (in-place)
I0207 12:36:03.000318  7405 net.cpp:150] Setting up relu1
I0207 12:36:03.000322  7405 net.cpp:157] Top shape: 100 32 16 16 (819200)
I0207 12:36:03.000325  7405 net.cpp:165] Memory required for data: 20890800
I0207 12:36:03.000329  7405 layer_factory.hpp:77] Creating layer norm1
I0207 12:36:03.000335  7405 net.cpp:106] Creating Layer norm1
I0207 12:36:03.000339  7405 net.cpp:454] norm1 <- pool1
I0207 12:36:03.000344  7405 net.cpp:411] norm1 -> norm1
I0207 12:36:03.000423  7405 net.cpp:150] Setting up norm1
I0207 12:36:03.000430  7405 net.cpp:157] Top shape: 100 32 16 16 (819200)
I0207 12:36:03.000433  7405 net.cpp:165] Memory required for data: 24167600
I0207 12:36:03.000437  7405 layer_factory.hpp:77] Creating layer conv2
I0207 12:36:03.000447  7405 net.cpp:106] Creating Layer conv2
I0207 12:36:03.000452  7405 net.cpp:454] conv2 <- norm1
I0207 12:36:03.000457  7405 net.cpp:411] conv2 -> conv2
I0207 12:36:03.001243  7405 net.cpp:150] Setting up conv2
I0207 12:36:03.001251  7405 net.cpp:157] Top shape: 100 32 16 16 (819200)
I0207 12:36:03.001255  7405 net.cpp:165] Memory required for data: 27444400
I0207 12:36:03.001262  7405 layer_factory.hpp:77] Creating layer relu2
I0207 12:36:03.001268  7405 net.cpp:106] Creating Layer relu2
I0207 12:36:03.001272  7405 net.cpp:454] relu2 <- conv2
I0207 12:36:03.001277  7405 net.cpp:397] relu2 -> conv2 (in-place)
I0207 12:36:03.001284  7405 net.cpp:150] Setting up relu2
I0207 12:36:03.001288  7405 net.cpp:157] Top shape: 100 32 16 16 (819200)
I0207 12:36:03.001292  7405 net.cpp:165] Memory required for data: 30721200
I0207 12:36:03.001296  7405 layer_factory.hpp:77] Creating layer pool2
I0207 12:36:03.001302  7405 net.cpp:106] Creating Layer pool2
I0207 12:36:03.001307  7405 net.cpp:454] pool2 <- conv2
I0207 12:36:03.001310  7405 net.cpp:411] pool2 -> pool2
I0207 12:36:03.001325  7405 net.cpp:150] Setting up pool2
I0207 12:36:03.001332  7405 net.cpp:157] Top shape: 100 32 8 8 (204800)
I0207 12:36:03.001335  7405 net.cpp:165] Memory required for data: 31540400
I0207 12:36:03.001338  7405 layer_factory.hpp:77] Creating layer norm2
I0207 12:36:03.001349  7405 net.cpp:106] Creating Layer norm2
I0207 12:36:03.001358  7405 net.cpp:454] norm2 <- pool2
I0207 12:36:03.001364  7405 net.cpp:411] norm2 -> norm2
I0207 12:36:03.001447  7405 net.cpp:150] Setting up norm2
I0207 12:36:03.001459  7405 net.cpp:157] Top shape: 100 32 8 8 (204800)
I0207 12:36:03.001466  7405 net.cpp:165] Memory required for data: 32359600
I0207 12:36:03.001471  7405 layer_factory.hpp:77] Creating layer conv3
I0207 12:36:03.001484  7405 net.cpp:106] Creating Layer conv3
I0207 12:36:03.001489  7405 net.cpp:454] conv3 <- norm2
I0207 12:36:03.001498  7405 net.cpp:411] conv3 -> conv3
I0207 12:36:03.003006  7405 net.cpp:150] Setting up conv3
I0207 12:36:03.003018  7405 net.cpp:157] Top shape: 100 64 8 8 (409600)
I0207 12:36:03.003022  7405 net.cpp:165] Memory required for data: 33998000
I0207 12:36:03.003032  7405 layer_factory.hpp:77] Creating layer relu3
I0207 12:36:03.003039  7405 net.cpp:106] Creating Layer relu3
I0207 12:36:03.003043  7405 net.cpp:454] relu3 <- conv3
I0207 12:36:03.003048  7405 net.cpp:397] relu3 -> conv3 (in-place)
I0207 12:36:03.003056  7405 net.cpp:150] Setting up relu3
I0207 12:36:03.003062  7405 net.cpp:157] Top shape: 100 64 8 8 (409600)
I0207 12:36:03.003064  7405 net.cpp:165] Memory required for data: 35636400
I0207 12:36:03.003068  7405 layer_factory.hpp:77] Creating layer pool3
I0207 12:36:03.003074  7405 net.cpp:106] Creating Layer pool3
I0207 12:36:03.003077  7405 net.cpp:454] pool3 <- conv3
I0207 12:36:03.003083  7405 net.cpp:411] pool3 -> pool3
I0207 12:36:03.003101  7405 net.cpp:150] Setting up pool3
I0207 12:36:03.003108  7405 net.cpp:157] Top shape: 100 64 4 4 (102400)
I0207 12:36:03.003111  7405 net.cpp:165] Memory required for data: 36046000
I0207 12:36:03.003114  7405 layer_factory.hpp:77] Creating layer ip1
I0207 12:36:03.003123  7405 net.cpp:106] Creating Layer ip1
I0207 12:36:03.003128  7405 net.cpp:454] ip1 <- pool3
I0207 12:36:03.003134  7405 net.cpp:411] ip1 -> ip1
I0207 12:36:03.008456  7405 net.cpp:150] Setting up ip1
I0207 12:36:03.008474  7405 net.cpp:157] Top shape: 100 768 (76800)
I0207 12:36:03.008479  7405 net.cpp:165] Memory required for data: 36353200
I0207 12:36:03.008487  7405 layer_factory.hpp:77] Creating layer sig1
I0207 12:36:03.008496  7405 net.cpp:106] Creating Layer sig1
I0207 12:36:03.008499  7405 net.cpp:454] sig1 <- ip1
I0207 12:36:03.008507  7405 net.cpp:397] sig1 -> ip1 (in-place)
I0207 12:36:03.008513  7405 net.cpp:150] Setting up sig1
I0207 12:36:03.008519  7405 net.cpp:157] Top shape: 100 768 (76800)
I0207 12:36:03.008522  7405 net.cpp:165] Memory required for data: 36660400
I0207 12:36:03.008527  7405 layer_factory.hpp:77] Creating layer ip_f
I0207 12:36:03.008533  7405 net.cpp:106] Creating Layer ip_f
I0207 12:36:03.008536  7405 net.cpp:454] ip_f <- ip1
I0207 12:36:03.008543  7405 net.cpp:411] ip_f -> ip_f
I0207 12:36:03.009408  7405 net.cpp:150] Setting up ip_f
I0207 12:36:03.009420  7405 net.cpp:157] Top shape: 100 100 (10000)
I0207 12:36:03.009435  7405 net.cpp:165] Memory required for data: 36700400
I0207 12:36:03.009446  7405 layer_factory.hpp:77] Creating layer ip_f_ip_f_0_split
I0207 12:36:03.009455  7405 net.cpp:106] Creating Layer ip_f_ip_f_0_split
I0207 12:36:03.009460  7405 net.cpp:454] ip_f_ip_f_0_split <- ip_f
I0207 12:36:03.009475  7405 net.cpp:411] ip_f_ip_f_0_split -> ip_f_ip_f_0_split_0
I0207 12:36:03.009482  7405 net.cpp:411] ip_f_ip_f_0_split -> ip_f_ip_f_0_split_1
I0207 12:36:03.009510  7405 net.cpp:150] Setting up ip_f_ip_f_0_split
I0207 12:36:03.009516  7405 net.cpp:157] Top shape: 100 100 (10000)
I0207 12:36:03.009521  7405 net.cpp:157] Top shape: 100 100 (10000)
I0207 12:36:03.009524  7405 net.cpp:165] Memory required for data: 36780400
I0207 12:36:03.009527  7405 layer_factory.hpp:77] Creating layer accuracy_f
I0207 12:36:03.009537  7405 net.cpp:106] Creating Layer accuracy_f
I0207 12:36:03.009542  7405 net.cpp:454] accuracy_f <- ip_f_ip_f_0_split_0
I0207 12:36:03.009547  7405 net.cpp:454] accuracy_f <- label_fine_data_1_split_0
I0207 12:36:03.009552  7405 net.cpp:411] accuracy_f -> accuracy_f
…
I0207 12:36:03.010179  7405 net.cpp:270] This network produces output accuracy_f
I0207 12:36:03.010185  7405 net.cpp:270] This network produces output loss_f
I0207 12:36:03.010210  7405 net.cpp:283] Network initialization done.
I0207 12:36:03.010576  7405 solver.cpp:181] Creating test net (#0) specified by test_net file: cnn_test_fine.prototxt
I0207 12:36:03.010713  7405 net.cpp:49] Initializing net from parameters: 
state {
  phase: TEST
}
layer {
  name: "data"
  type: "HDF5Data"
  top: "data"
  top: "label_fine"
  hdf5_data_param {
    source: "cifar_100_caffe_hdf5/test.txt"
    batch_size: 120
  }
}
layer {
  name: "conv1"
  type: "Convolution"
  bottom: "data"
  top: "conv1"
  param {
    lr_mult: 1
  }
  param {
    lr_mult: 2
  }
  convolution_param {
    num_output: 32
    pad: 2
    kernel_size: 5
    stride: 1
    weight_filler {
      type: "gaussian"
      std: 0.0001
    }
    bias_filler {
      type: "constant"
    }
  }
}
layer {
  name: "pool1"
  type: "Pooling"
  bottom: "conv1"
  top: "pool1"
  pooling_param {
    pool: MAX
    kernel_size: 3
    stride: 2
  }
}
layer {
  name: "relu1"
  type: "ReLU"
  bottom: "pool1"
  top: "pool1"
}
layer {
  name: "norm1"
  type: "LRN"
  bottom: "pool1"
  top: "norm1"
  lrn_param {
    local_size: 3
    alpha: 5e-05
    beta: 0.75
    norm_region: WITHIN_CHANNEL
  }
}
layer {
  name: "conv2"
  type: "Convolution"
  bottom: "norm1"
  top: "conv2"
  param {
    lr_mult: 1
  }
  param {
    lr_mult: 2
  }
  convolution_param {
    num_output: 32
    pad: 2
    kernel_size: 5
    stride: 1
    weight_filler {
      type: "gaussian"
      std: 0.01
    }
    bias_filler {
      type: "constant"
    }
  }
}
layer {
  name: "relu2"
  type: "ReLU"
  bottom: "conv2"
  top: "conv2"
}
layer {
  name: "pool2"
  type: "Pooling"
  bottom: "conv2"
  top: "pool2"
  pooling_param {
    pool: AVE
    kernel_size: 3
    stride: 2
  }
}
layer {
  name: "norm2"
  type: "LRN"
  bottom: "pool2"
  top: "norm2"
  lrn_param {
    local_size: 3
    alpha: 5e-05
    beta: 0.75
    norm_region: WITHIN_CHANNEL
  }
}
layer {
  name: "conv3"
  type: "Convolution"
  bottom: "norm2"
  top: "conv3"
  convolution_param {
    num_output: 64
    pad: 2
    kernel_size: 5
    stride: 1
    weight_filler {
      type: "gaussian"
      std: 0.01
    }
    bias_filler {
      type: "constant"
    }
  }
}
layer {
  name: "relu3"
  type: "ReLU"
  bottom: "conv3"
  top: "conv3"
}
layer {
  name: "pool3"
  type: "Pooling"
  bottom: "conv3"
  top: "pool3"
  pooling_param {
    pool: AVE
    kernel_size: 3
    stride: 2
  }
}
layer {
  name: "ip1"
  type: "InnerProduct"
  bottom: "pool3"
  top: "ip1"
  inner_product_param {
    num_output: 768
    weight_filler {
      type: "xavier"
    }
  }
}
layer {
  name: "sig1"
  type: "Sigmoid"
  bottom: "ip1"
  top: "ip1"
}
layer {
  name: "ip_f"
  type: "InnerProduct"
  bottom: "ip1"
  top: "ip_f"
  inner_product_param {
    num_output: 100
    weight_filler {
      type: "xavier"
    }
  }
}
layer {
  name: "accuracy_f"
  type: "Accuracy"
  bottom: "ip_f"
  bottom: "label_fine"
  top: "accuracy_f"
}
layer {
  name: "loss_f"
  type: "SoftmaxWithLoss"
  bottom: "ip_f"
  bottom: "label_fine"
  top: "loss_f"
}
I0207 12:36:03.010802  7405 layer_factory.hpp:77] Creating layer data
I0207 12:36:03.010810  7405 net.cpp:106] Creating Layer data
I0207 12:36:03.010814  7405 net.cpp:411] data -> data
I0207 12:36:03.010823  7405 net.cpp:411] data -> label_fine
I0207 12:36:03.010829  7405 hdf5_data_layer.cpp:79] Loading list of HDF5 filenames from: cifar_100_caffe_hdf5/test.txt
I0207 12:36:03.010845  7405 hdf5_data_layer.cpp:93] Number of HDF5 files: 1
I0207 12:36:03.310748  7405 net.cpp:150] Setting up data
I0207 12:36:03.310784  7405 net.cpp:157] Top shape: 120 3 32 32 (368640)
I0207 12:36:03.310791  7405 net.cpp:157] Top shape: 120 (120)
I0207 12:36:03.310796  7405 net.cpp:165] Memory required for data: 1475040
I0207 12:36:03.310802  7405 layer_factory.hpp:77] Creating layer label_fine_data_1_split
I0207 12:36:03.310814  7405 net.cpp:106] Creating Layer label_fine_data_1_split
I0207 12:36:03.310819  7405 net.cpp:454] label_fine_data_1_split <- label_fine
I0207 12:36:03.310827  7405 net.cpp:411] label_fine_data_1_split -> label_fine_data_1_split_0
I0207 12:36:03.310837  7405 net.cpp:411] label_fine_data_1_split -> label_fine_data_1_split_1
I0207 12:36:03.310866  7405 net.cpp:150] Setting up label_fine_data_1_split
I0207 12:36:03.310873  7405 net.cpp:157] Top shape: 120 (120)
I0207 12:36:03.310876  7405 net.cpp:157] Top shape: 120 (120)
I0207 12:36:03.310880  7405 net.cpp:165] Memory required for data: 1476000
I0207 12:36:03.310884  7405 layer_factory.hpp:77] Creating layer conv1
I0207 12:36:03.310896  7405 net.cpp:106] Creating Layer conv1
I0207 12:36:03.310900  7405 net.cpp:454] conv1 <- data
I0207 12:36:03.310907  7405 net.cpp:411] conv1 -> conv1
I0207 12:36:03.311146  7405 net.cpp:150] Setting up conv1
I0207 12:36:03.311154  7405 net.cpp:157] Top shape: 120 32 32 32 (3932160)
I0207 12:36:03.311158  7405 net.cpp:165] Memory required for data: 17204640
I0207 12:36:03.311168  7405 layer_factory.hpp:77] Creating layer pool1
I0207 12:36:03.311175  7405 net.cpp:106] Creating Layer pool1
I0207 12:36:03.311179  7405 net.cpp:454] pool1 <- conv1
I0207 12:36:03.311184  7405 net.cpp:411] pool1 -> pool1
I0207 12:36:03.311211  7405 net.cpp:150] Setting up pool1
I0207 12:36:03.311216  7405 net.cpp:157] Top shape: 120 32 16 16 (983040)
I0207 12:36:03.311220  7405 net.cpp:165] Memory required for data: 21136800
I0207 12:36:03.311224  7405 layer_factory.hpp:77] Creating layer relu1
I0207 12:36:03.311230  7405 net.cpp:106] Creating Layer relu1
I0207 12:36:03.311234  7405 net.cpp:454] relu1 <- pool1
I0207 12:36:03.311239  7405 net.cpp:397] relu1 -> pool1 (in-place)
I0207 12:36:03.311244  7405 net.cpp:150] Setting up relu1
I0207 12:36:03.311256  7405 net.cpp:157] Top shape: 120 32 16 16 (983040)
I0207 12:36:03.311269  7405 net.cpp:165] Memory required for data: 25068960
I0207 12:36:03.311283  7405 layer_factory.hpp:77] Creating layer norm1
I0207 12:36:03.311290  7405 net.cpp:106] Creating Layer norm1
I0207 12:36:03.311295  7405 net.cpp:454] norm1 <- pool1
I0207 12:36:03.311300  7405 net.cpp:411] norm1 -> norm1
I0207 12:36:03.311373  7405 net.cpp:150] Setting up norm1
I0207 12:36:03.311380  7405 net.cpp:157] Top shape: 120 32 16 16 (983040)
I0207 12:36:03.311384  7405 net.cpp:165] Memory required for data: 29001120
I0207 12:36:03.311388  7405 layer_factory.hpp:77] Creating layer conv2
I0207 12:36:03.311395  7405 net.cpp:106] Creating Layer conv2
I0207 12:36:03.311399  7405 net.cpp:454] conv2 <- norm1
I0207 12:36:03.311405  7405 net.cpp:411] conv2 -> conv2
I0207 12:36:03.312186  7405 net.cpp:150] Setting up conv2
I0207 12:36:03.312192  7405 net.cpp:157] Top shape: 120 32 16 16 (983040)
I0207 12:36:03.312196  7405 net.cpp:165] Memory required for data: 32933280
I0207 12:36:03.312204  7405 layer_factory.hpp:77] Creating layer relu2
I0207 12:36:03.312211  7405 net.cpp:106] Creating Layer relu2
I0207 12:36:03.312213  7405 net.cpp:454] relu2 <- conv2
I0207 12:36:03.312218  7405 net.cpp:397] relu2 -> conv2 (in-place)
I0207 12:36:03.312224  7405 net.cpp:150] Setting up relu2
I0207 12:36:03.312229  7405 net.cpp:157] Top shape: 120 32 16 16 (983040)
I0207 12:36:03.312233  7405 net.cpp:165] Memory required for data: 36865440
I0207 12:36:03.312237  7405 layer_factory.hpp:77] Creating layer pool2
I0207 12:36:03.312242  7405 net.cpp:106] Creating Layer pool2
I0207 12:36:03.312247  7405 net.cpp:454] pool2 <- conv2
I0207 12:36:03.312252  7405 net.cpp:411] pool2 -> pool2
I0207 12:36:03.312265  7405 net.cpp:150] Setting up pool2
I0207 12:36:03.312270  7405 net.cpp:157] Top shape: 120 32 8 8 (245760)
I0207 12:36:03.312274  7405 net.cpp:165] Memory required for data: 37848480
I0207 12:36:03.312278  7405 layer_factory.hpp:77] Creating layer norm2
I0207 12:36:03.312283  7405 net.cpp:106] Creating Layer norm2
I0207 12:36:03.312288  7405 net.cpp:454] norm2 <- pool2
I0207 12:36:03.312291  7405 net.cpp:411] norm2 -> norm2
I0207 12:36:03.312352  7405 net.cpp:150] Setting up norm2
I0207 12:36:03.312358  7405 net.cpp:157] Top shape: 120 32 8 8 (245760)
I0207 12:36:03.312362  7405 net.cpp:165] Memory required for data: 38831520
I0207 12:36:03.312366  7405 layer_factory.hpp:77] Creating layer conv3
I0207 12:36:03.312373  7405 net.cpp:106] Creating Layer conv3
I0207 12:36:03.312377  7405 net.cpp:454] conv3 <- norm2
I0207 12:36:03.312383  7405 net.cpp:411] conv3 -> conv3
I0207 12:36:03.313784  7405 net.cpp:150] Setting up conv3
I0207 12:36:03.313792  7405 net.cpp:157] Top shape: 120 64 8 8 (491520)
I0207 12:36:03.313796  7405 net.cpp:165] Memory required for data: 40797600
I0207 12:36:03.313804  7405 layer_factory.hpp:77] Creating layer relu3
I0207 12:36:03.313810  7405 net.cpp:106] Creating Layer relu3
I0207 12:36:03.313814  7405 net.cpp:454] relu3 <- conv3
I0207 12:36:03.313818  7405 net.cpp:397] relu3 -> conv3 (in-place)
I0207 12:36:03.313824  7405 net.cpp:150] Setting up relu3
I0207 12:36:03.313829  7405 net.cpp:157] Top shape: 120 64 8 8 (491520)
I0207 12:36:03.313833  7405 net.cpp:165] Memory required for data: 42763680
I0207 12:36:03.313837  7405 layer_factory.hpp:77] Creating layer pool3
I0207 12:36:03.313841  7405 net.cpp:106] Creating Layer pool3
I0207 12:36:03.313844  7405 net.cpp:454] pool3 <- conv3
I0207 12:36:03.313849  7405 net.cpp:411] pool3 -> pool3
I0207 12:36:03.313866  7405 net.cpp:150] Setting up pool3
I0207 12:36:03.313871  7405 net.cpp:157] Top shape: 120 64 4 4 (122880)
I0207 12:36:03.313875  7405 net.cpp:165] Memory required for data: 43255200
I0207 12:36:03.313879  7405 layer_factory.hpp:77] Creating layer ip1
I0207 12:36:03.313885  7405 net.cpp:106] Creating Layer ip1
I0207 12:36:03.313889  7405 net.cpp:454] ip1 <- pool3
I0207 12:36:03.313894  7405 net.cpp:411] ip1 -> ip1
I0207 12:36:03.319145  7405 net.cpp:150] Setting up ip1
I0207 12:36:03.319170  7405 net.cpp:157] Top shape: 120 768 (92160)
I0207 12:36:03.319181  7405 net.cpp:165] Memory required for data: 43623840
I0207 12:36:03.319190  7405 layer_factory.hpp:77] Creating layer sig1
I0207 12:36:03.319197  7405 net.cpp:106] Creating Layer sig1
I0207 12:36:03.319202  7405 net.cpp:454] sig1 <- ip1
I0207 12:36:03.319208  7405 net.cpp:397] sig1 -> ip1 (in-place)
I0207 12:36:03.319216  7405 net.cpp:150] Setting up sig1
I0207 12:36:03.319221  7405 net.cpp:157] Top shape: 120 768 (92160)
I0207 12:36:03.319224  7405 net.cpp:165] Memory required for data: 43992480
I0207 12:36:03.319228  7405 layer_factory.hpp:77] Creating layer ip_f
I0207 12:36:03.319236  7405 net.cpp:106] Creating Layer ip_f
I0207 12:36:03.319239  7405 net.cpp:454] ip_f <- ip1
I0207 12:36:03.319244  7405 net.cpp:411] ip_f -> ip_f
I0207 12:36:03.319772  7405 net.cpp:150] Setting up ip_f
I0207 12:36:03.319779  7405 net.cpp:157] Top shape: 120 100 (12000)
I0207 12:36:03.319783  7405 net.cpp:165] Memory required for data: 44040480
I0207 12:36:03.319792  7405 layer_factory.hpp:77] Creating layer ip_f_ip_f_0_split
I0207 12:36:03.319802  7405 net.cpp:106] Creating Layer ip_f_ip_f_0_split
I0207 12:36:03.319805  7405 net.cpp:454] ip_f_ip_f_0_split <- ip_f
I0207 12:36:03.319811  7405 net.cpp:411] ip_f_ip_f_0_split -> ip_f_ip_f_0_split_0
I0207 12:36:03.319818  7405 net.cpp:411] ip_f_ip_f_0_split -> ip_f_ip_f_0_split_1
I0207 12:36:03.319844  7405 net.cpp:150] Setting up ip_f_ip_f_0_split
I0207 12:36:03.319850  7405 net.cpp:157] Top shape: 120 100 (12000)
I0207 12:36:03.319854  7405 net.cpp:157] Top shape: 120 100 (12000)
I0207 12:36:03.319859  7405 net.cpp:165] Memory required for data: 44136480
I0207 12:36:03.319862  7405 layer_factory.hpp:77] Creating layer accuracy_f
I0207 12:36:03.319869  7405 net.cpp:106] Creating Layer accuracy_f
I0207 12:36:03.319872  7405 net.cpp:454] accuracy_f <- ip_f_ip_f_0_split_0
I0207 12:36:03.319877  7405 net.cpp:454] accuracy_f <- label_fine_data_1_split_0
I0207 12:36:03.319883  7405 net.cpp:411] accuracy_f -> accuracy_f
…
