…
I0211 06:37:23.569980  3242 net.cpp:322] The NetState phase (0) differed from the phase (1) specified by a rule in layer cifar
I0211 06:37:23.570032  3242 net.cpp:322] The NetState phase (0) differed from the phase (1) specified by a rule in layer accuracy
I0211 06:37:23.570180  3242 net.cpp:49] Initializing net from parameters: 
name: "CIFAR100_quick"
state {
  phase: TRAIN
}
layer {
  name: "cifar"
  type: "Data"
  top: "data"
  top: "label"
  include {
    phase: TRAIN
  }
  data_param {
    source: "examples/fine_tune_cifar10/cifar10_train_lmdb"
    batch_size: 100
    backend: LMDB
  }
}
layer {
  name: "conv1"
  type: "Convolution"
  bottom: "data"
  top: "conv1"
  param {
    lr_mult: 1
  }
  param {
    lr_mult: 2
  }
  convolution_param {
    num_output: 32
    pad: 2
    kernel_size: 5
    stride: 1
    weight_filler {
      type: "gaussian"
      std: 0.0001
    }
    bias_filler {
      type: "constant"
    }
  }
}
layer {
  name: "pool1"
  type: "Pooling"
  bottom: "conv1"
  top: "pool1"
  pooling_param {
    pool: MAX
    kernel_size: 3
    stride: 2
  }
}
layer {
  name: "relu1"
  type: "ReLU"
  bottom: "pool1"
  top: "pool1"
}
layer {
  name: "conv2"
  type: "Convolution"
  bottom: "pool1"
  top: "conv2"
  param {
    lr_mult: 1
  }
  param {
    lr_mult: 2
  }
  convolution_param {
    num_output: 32
    pad: 2
    kernel_size: 5
    stride: 1
    weight_filler {
      type: "gaussian"
      std: 0.01
    }
    bias_filler {
      type: "constant"
    }
  }
}
layer {
  name: "relu2"
  type: "ReLU"
  bottom: "conv2"
  top: "conv2"
}
layer {
  name: "pool2"
  type: "Pooling"
  bottom: "conv2"
  top: "pool2"
  pooling_param {
    pool: AVE
    kernel_size: 3
    stride: 2
  }
}
layer {
  name: "conv3"
  type: "Convolution"
  bottom: "pool2"
  top: "conv3"
  param {
    lr_mult: 1
  }
  param {
    lr_mult: 2
  }
  convolution_param {
    num_output: 64
    pad: 2
    kernel_size: 5
    stride: 1
    weight_filler {
      type: "gaussian"
      std: 0.01
    }
    bias_filler {
      type: "constant"
    }
  }
}
layer {
  name: "relu3"
  type: "ReLU"
  bottom: "conv3"
  top: "conv3"
}
layer {
  name: "pool3"
  type: "Pooling"
  bottom: "conv3"
  top: "pool3"
  pooling_param {
    pool: AVE
    kernel_size: 3
    stride: 2
  }
}
layer {
  name: "ip1"
  type: "InnerProduct"
  bottom: "pool3"
  top: "ip1"
  param {
    lr_mult: 1
  }
  param {
    lr_mult: 2
  }
  inner_product_param {
    num_output: 64
    weight_filler {
      type: "gaussian"
      std: 0.1
    }
    bias_filler {
      type: "constant"
    }
  }
}
layer {
  name: "ip2"
  type: "InnerProduct"
  bottom: "ip1"
  top: "ip2"
  param {
    lr_mult: 1
  }
  param {
    lr_mult: 2
  }
  inner_product_param {
    num_output: 100
    weight_filler {
      type: "gaussian"
      std: 0.1
    }
    bias_filler {
      type: "constant"
    }
  }
}
layer {
  name: "loss"
  type: "SoftmaxWithLoss"
  bottom: "ip2"
  bottom: "label"
  top: "loss"
}
I0211 06:37:23.570358  3242 layer_factory.hpp:77] Creating layer cifar
I0211 06:37:23.570896  3242 net.cpp:106] Creating Layer cifar
I0211 06:37:23.570927  3242 net.cpp:411] cifar -> data
I0211 06:37:23.570974  3242 net.cpp:411] cifar -> label
I0211 06:37:23.571615  3245 db_lmdb.cpp:38] Opened lmdb examples/fine_tune_cifar10/cifar10_train_lmdb
I0211 06:37:23.625244  3242 data_layer.cpp:41] output data size: 100,3,32,32
I0211 06:37:23.632830  3242 net.cpp:150] Setting up cifar
I0211 06:37:23.632863  3242 net.cpp:157] Top shape: 100 3 32 32 (307200)
I0211 06:37:23.632912  3242 net.cpp:157] Top shape: 100 (100)
I0211 06:37:23.632922  3242 net.cpp:165] Memory required for data: 1229200
I0211 06:37:23.632947  3242 layer_factory.hpp:77] Creating layer conv1
I0211 06:37:23.632989  3242 net.cpp:106] Creating Layer conv1
I0211 06:37:23.633011  3242 net.cpp:454] conv1 <- data
I0211 06:37:23.633045  3242 net.cpp:411] conv1 -> conv1
I0211 06:37:23.634477  3242 net.cpp:150] Setting up conv1
I0211 06:37:23.634505  3242 net.cpp:157] Top shape: 100 32 32 32 (3276800)
I0211 06:37:23.634515  3242 net.cpp:165] Memory required for data: 14336400
I0211 06:37:23.634549  3242 layer_factory.hpp:77] Creating layer pool1
I0211 06:37:23.634579  3242 net.cpp:106] Creating Layer pool1
I0211 06:37:23.634590  3242 net.cpp:454] pool1 <- conv1
I0211 06:37:23.634608  3242 net.cpp:411] pool1 -> pool1
I0211 06:37:23.634716  3242 net.cpp:150] Setting up pool1
I0211 06:37:23.634742  3242 net.cpp:157] Top shape: 100 32 16 16 (819200)
I0211 06:37:23.634750  3242 net.cpp:165] Memory required for data: 17613200
I0211 06:37:23.634763  3242 layer_factory.hpp:77] Creating layer relu1
I0211 06:37:23.634778  3242 net.cpp:106] Creating Layer relu1
I0211 06:37:23.634788  3242 net.cpp:454] relu1 <- pool1
I0211 06:37:23.634805  3242 net.cpp:397] relu1 -> pool1 (in-place)
I0211 06:37:23.634826  3242 net.cpp:150] Setting up relu1
I0211 06:37:23.634847  3242 net.cpp:157] Top shape: 100 32 16 16 (819200)
I0211 06:37:23.634857  3242 net.cpp:165] Memory required for data: 20890000
I0211 06:37:23.634866  3242 layer_factory.hpp:77] Creating layer conv2
I0211 06:37:23.634892  3242 net.cpp:106] Creating Layer conv2
I0211 06:37:23.634910  3242 net.cpp:454] conv2 <- pool1
I0211 06:37:23.634933  3242 net.cpp:411] conv2 -> conv2
I0211 06:37:23.636464  3242 net.cpp:150] Setting up conv2
I0211 06:37:23.636487  3242 net.cpp:157] Top shape: 100 32 16 16 (819200)
I0211 06:37:23.636495  3242 net.cpp:165] Memory required for data: 24166800
I0211 06:37:23.636517  3242 layer_factory.hpp:77] Creating layer relu2
I0211 06:37:23.636530  3242 net.cpp:106] Creating Layer relu2
I0211 06:37:23.636539  3242 net.cpp:454] relu2 <- conv2
I0211 06:37:23.636553  3242 net.cpp:397] relu2 -> conv2 (in-place)
I0211 06:37:23.636569  3242 net.cpp:150] Setting up relu2
I0211 06:37:23.636580  3242 net.cpp:157] Top shape: 100 32 16 16 (819200)
I0211 06:37:23.636590  3242 net.cpp:165] Memory required for data: 27443600
I0211 06:37:23.636598  3242 layer_factory.hpp:77] Creating layer pool2
I0211 06:37:23.636616  3242 net.cpp:106] Creating Layer pool2
I0211 06:37:23.636626  3242 net.cpp:454] pool2 <- conv2
I0211 06:37:23.636639  3242 net.cpp:411] pool2 -> pool2
I0211 06:37:23.636679  3242 net.cpp:150] Setting up pool2
I0211 06:37:23.636700  3242 net.cpp:157] Top shape: 100 32 8 8 (204800)
I0211 06:37:23.636708  3242 net.cpp:165] Memory required for data: 28262800
I0211 06:37:23.636718  3242 layer_factory.hpp:77] Creating layer conv3
I0211 06:37:23.636742  3242 net.cpp:106] Creating Layer conv3
I0211 06:37:23.636764  3242 net.cpp:454] conv3 <- pool2
I0211 06:37:23.636780  3242 net.cpp:411] conv3 -> conv3
I0211 06:37:23.638644  3242 net.cpp:150] Setting up conv3
I0211 06:37:23.638669  3242 net.cpp:157] Top shape: 100 64 8 8 (409600)
I0211 06:37:23.638682  3242 net.cpp:165] Memory required for data: 29901200
I0211 06:37:23.638705  3242 layer_factory.hpp:77] Creating layer relu3
I0211 06:37:23.638725  3242 net.cpp:106] Creating Layer relu3
I0211 06:37:23.638743  3242 net.cpp:454] relu3 <- conv3
I0211 06:37:23.638758  3242 net.cpp:397] relu3 -> conv3 (in-place)
I0211 06:37:23.638774  3242 net.cpp:150] Setting up relu3
I0211 06:37:23.638792  3242 net.cpp:157] Top shape: 100 64 8 8 (409600)
I0211 06:37:23.638808  3242 net.cpp:165] Memory required for data: 31539600
I0211 06:37:23.638818  3242 layer_factory.hpp:77] Creating layer pool3
I0211 06:37:23.638836  3242 net.cpp:106] Creating Layer pool3
I0211 06:37:23.638847  3242 net.cpp:454] pool3 <- conv3
I0211 06:37:23.638864  3242 net.cpp:411] pool3 -> pool3
I0211 06:37:23.638916  3242 net.cpp:150] Setting up pool3
I0211 06:37:23.638949  3242 net.cpp:157] Top shape: 100 64 4 4 (102400)
I0211 06:37:23.638959  3242 net.cpp:165] Memory required for data: 31949200
I0211 06:37:23.638972  3242 layer_factory.hpp:77] Creating layer ip1
I0211 06:37:23.638999  3242 net.cpp:106] Creating Layer ip1
I0211 06:37:23.639017  3242 net.cpp:454] ip1 <- pool3
I0211 06:37:23.639046  3242 net.cpp:411] ip1 -> ip1
I0211 06:37:23.641260  3242 net.cpp:150] Setting up ip1
I0211 06:37:23.641284  3242 net.cpp:157] Top shape: 100 64 (6400)
I0211 06:37:23.641293  3242 net.cpp:165] Memory required for data: 31974800
I0211 06:37:23.641309  3242 layer_factory.hpp:77] Creating layer ip2
I0211 06:37:23.641325  3242 net.cpp:106] Creating Layer ip2
I0211 06:37:23.641335  3242 net.cpp:454] ip2 <- ip1
I0211 06:37:23.641355  3242 net.cpp:411] ip2 -> ip2
I0211 06:37:23.642145  3242 net.cpp:150] Setting up ip2
I0211 06:37:23.642169  3242 net.cpp:157] Top shape: 100 100 (10000)
I0211 06:37:23.642181  3242 net.cpp:165] Memory required for data: 32014800
I0211 06:37:23.642204  3242 layer_factory.hpp:77] Creating layer loss
I0211 06:37:23.642222  3242 net.cpp:106] Creating Layer loss
I0211 06:37:23.642241  3242 net.cpp:454] loss <- ip2
I0211 06:37:23.642252  3242 net.cpp:454] loss <- label
I0211 06:37:23.642283  3242 net.cpp:411] loss -> loss
I0211 06:37:23.642316  3242 layer_factory.hpp:77] Creating layer loss
…
I0211 06:37:23.643149  3242 solver.cpp:181] Creating test net (#0) specified by net file: examples/fine_tune_cifar10/cifar100_quick_train_test.prototxt
I0211 06:37:23.643215  3242 net.cpp:322] The NetState phase (1) differed from the phase (0) specified by a rule in layer cifar
I0211 06:37:23.643384  3242 net.cpp:49] Initializing net from parameters: 
name: "CIFAR100_quick"
state {
  phase: TEST
}
layer {
  name: "cifar"
  type: "Data"
  top: "data"
  top: "label"
  include {
    phase: TEST
  }
  data_param {
    source: "examples/fine_tune_cifar10/cifar10_test_lmdb"
    batch_size: 100
    backend: LMDB
  }
}
layer {
  name: "conv1"
  type: "Convolution"
  bottom: "data"
  top: "conv1"
  param {
    lr_mult: 1
  }
  param {
    lr_mult: 2
  }
  convolution_param {
    num_output: 32
    pad: 2
    kernel_size: 5
    stride: 1
    weight_filler {
      type: "gaussian"
      std: 0.0001
    }
    bias_filler {
      type: "constant"
    }
  }
}
layer {
  name: "pool1"
  type: "Pooling"
  bottom: "conv1"
  top: "pool1"
  pooling_param {
    pool: MAX
    kernel_size: 3
    stride: 2
  }
}
layer {
  name: "relu1"
  type: "ReLU"
  bottom: "pool1"
  top: "pool1"
}
layer {
  name: "conv2"
  type: "Convolution"
  bottom: "pool1"
  top: "conv2"
  param {
    lr_mult: 1
  }
  param {
    lr_mult: 2
  }
  convolution_param {
    num_output: 32
    pad: 2
    kernel_size: 5
    stride: 1
    weight_filler {
      type: "gaussian"
      std: 0.01
    }
    bias_filler {
      type: "constant"
    }
  }
}
layer {
  name: "relu2"
  type: "ReLU"
  bottom: "conv2"
  top: "conv2"
}
layer {
  name: "pool2"
  type: "Pooling"
  bottom: "conv2"
  top: "pool2"
  pooling_param {
    pool: AVE
    kernel_size: 3
    stride: 2
  }
}
layer {
  name: "conv3"
  type: "Convolution"
  bottom: "pool2"
  top: "conv3"
  param {
    lr_mult: 1
  }
  param {
    lr_mult: 2
  }
  convolution_param {
    num_output: 64
    pad: 2
    kernel_size: 5
    stride: 1
    weight_filler {
      type: "gaussian"
      std: 0.01
    }
    bias_filler {
      type: "constant"
    }
  }
}
layer {
  name: "relu3"
  type: "ReLU"
  bottom: "conv3"
  top: "conv3"
}
layer {
  name: "pool3"
  type: "Pooling"
  bottom: "conv3"
  top: "pool3"
  pooling_param {
    pool: AVE
    kernel_size: 3
    stride: 2
  }
}
layer {
  name: "ip1"
  type: "InnerProduct"
  bottom: "pool3"
  top: "ip1"
  param {
    lr_mult: 1
  }
  param {
    lr_mult: 2
  }
  inner_product_param {
    num_output: 64
    weight_filler {
      type: "gaussian"
      std: 0.1
    }
    bias_filler {
      type: "constant"
    }
  }
}
layer {
  name: "ip2"
  type: "InnerProduct"
  bottom: "ip1"
  top: "ip2"
  param {
    lr_mult: 1
  }
  param {
    lr_mult: 2
  }
  inner_product_param {
    num_output: 100
    weight_filler {
      type: "gaussian"
      std: 0.1
    }
    bias_filler {
      type: "constant"
    }
  }
}
layer {
  name: "accuracy"
  type: "Accuracy"
  bottom: "ip2"
  bottom: "label"
  top: "accuracy"
  include {
    phase: TEST
  }
}
layer {
  name: "loss"
  type: "SoftmaxWithLoss"
  bottom: "ip2"
  bottom: "label"
  top: "loss"
}
I0211 06:37:23.643564  3242 layer_factory.hpp:77] Creating layer cifar
I0211 06:37:23.643753  3242 net.cpp:106] Creating Layer cifar
I0211 06:37:23.643867  3242 net.cpp:411] cifar -> data
I0211 06:37:23.643890  3242 net.cpp:411] cifar -> label
I0211 06:37:23.644491  3247 db_lmdb.cpp:38] Opened lmdb examples/fine_tune_cifar10/cifar10_test_lmdb
I0211 06:37:23.644630  3242 data_layer.cpp:41] output data size: 100,3,32,32
I0211 06:37:23.649231  3242 net.cpp:150] Setting up cifar
I0211 06:37:23.649260  3242 net.cpp:157] Top shape: 100 3 32 32 (307200)
I0211 06:37:23.649273  3242 net.cpp:157] Top shape: 100 (100)
I0211 06:37:23.649281  3242 net.cpp:165] Memory required for data: 1229200
I0211 06:37:23.649292  3242 layer_factory.hpp:77] Creating layer label_cifar_1_split
I0211 06:37:23.649312  3242 net.cpp:106] Creating Layer label_cifar_1_split
I0211 06:37:23.649322  3242 net.cpp:454] label_cifar_1_split <- label
I0211 06:37:23.649339  3242 net.cpp:411] label_cifar_1_split -> label_cifar_1_split_0
I0211 06:37:23.649358  3242 net.cpp:411] label_cifar_1_split -> label_cifar_1_split_1
I0211 06:37:23.649432  3242 net.cpp:150] Setting up label_cifar_1_split
I0211 06:37:23.649454  3242 net.cpp:157] Top shape: 100 (100)
I0211 06:37:23.649466  3242 net.cpp:157] Top shape: 100 (100)
I0211 06:37:23.649474  3242 net.cpp:165] Memory required for data: 1230000
I0211 06:37:23.649484  3242 layer_factory.hpp:77] Creating layer conv1
I0211 06:37:23.649513  3242 net.cpp:106] Creating Layer conv1
I0211 06:37:23.649525  3242 net.cpp:454] conv1 <- data
I0211 06:37:23.649541  3242 net.cpp:411] conv1 -> conv1
I0211 06:37:23.649951  3242 net.cpp:150] Setting up conv1
I0211 06:37:23.649973  3242 net.cpp:157] Top shape: 100 32 32 32 (3276800)
I0211 06:37:23.649982  3242 net.cpp:165] Memory required for data: 14337200
I0211 06:37:23.650004  3242 layer_factory.hpp:77] Creating layer pool1
I0211 06:37:23.650027  3242 net.cpp:106] Creating Layer pool1
I0211 06:37:23.650044  3242 net.cpp:454] pool1 <- conv1
I0211 06:37:23.650058  3242 net.cpp:411] pool1 -> pool1
I0211 06:37:23.650598  3242 net.cpp:150] Setting up pool1
I0211 06:37:23.650620  3242 net.cpp:157] Top shape: 100 32 16 16 (819200)
I0211 06:37:23.650630  3242 net.cpp:165] Memory required for data: 17614000
I0211 06:37:23.650640  3242 layer_factory.hpp:77] Creating layer relu1
I0211 06:37:23.650674  3242 net.cpp:106] Creating Layer relu1
I0211 06:37:23.650686  3242 net.cpp:454] relu1 <- pool1
I0211 06:37:23.650697  3242 net.cpp:397] relu1 -> pool1 (in-place)
I0211 06:37:23.650713  3242 net.cpp:150] Setting up relu1
I0211 06:37:23.650727  3242 net.cpp:157] Top shape: 100 32 16 16 (819200)
I0211 06:37:23.650735  3242 net.cpp:165] Memory required for data: 20890800
I0211 06:37:23.650744  3242 layer_factory.hpp:77] Creating layer conv2
I0211 06:37:23.650779  3242 net.cpp:106] Creating Layer conv2
I0211 06:37:23.650799  3242 net.cpp:454] conv2 <- pool1
I0211 06:37:23.650817  3242 net.cpp:411] conv2 -> conv2
I0211 06:37:23.651859  3242 net.cpp:150] Setting up conv2
I0211 06:37:23.651882  3242 net.cpp:157] Top shape: 100 32 16 16 (819200)
I0211 06:37:23.651891  3242 net.cpp:165] Memory required for data: 24167600
I0211 06:37:23.651912  3242 layer_factory.hpp:77] Creating layer relu2
I0211 06:37:23.651931  3242 net.cpp:106] Creating Layer relu2
I0211 06:37:23.651942  3242 net.cpp:454] relu2 <- conv2
I0211 06:37:23.651954  3242 net.cpp:397] relu2 -> conv2 (in-place)
I0211 06:37:23.651970  3242 net.cpp:150] Setting up relu2
I0211 06:37:23.651983  3242 net.cpp:157] Top shape: 100 32 16 16 (819200)
I0211 06:37:23.651991  3242 net.cpp:165] Memory required for data: 27444400
I0211 06:37:23.652001  3242 layer_factory.hpp:77] Creating layer pool2
I0211 06:37:23.652019  3242 net.cpp:106] Creating Layer pool2
I0211 06:37:23.652029  3242 net.cpp:454] pool2 <- conv2
I0211 06:37:23.652042  3242 net.cpp:411] pool2 -> pool2
I0211 06:37:23.652079  3242 net.cpp:150] Setting up pool2
I0211 06:37:23.652099  3242 net.cpp:157] Top shape: 100 32 8 8 (204800)
I0211 06:37:23.652108  3242 net.cpp:165] Memory required for data: 28263600
I0211 06:37:23.652117  3242 layer_factory.hpp:77] Creating layer conv3
I0211 06:37:23.652145  3242 net.cpp:106] Creating Layer conv3
I0211 06:37:23.652158  3242 net.cpp:454] conv3 <- pool2
I0211 06:37:23.652175  3242 net.cpp:411] conv3 -> conv3
I0211 06:37:23.654382  3242 net.cpp:150] Setting up conv3
I0211 06:37:23.654414  3242 net.cpp:157] Top shape: 100 64 8 8 (409600)
I0211 06:37:23.654425  3242 net.cpp:165] Memory required for data: 29902000
I0211 06:37:23.654446  3242 layer_factory.hpp:77] Creating layer relu3
I0211 06:37:23.654466  3242 net.cpp:106] Creating Layer relu3
I0211 06:37:23.654487  3242 net.cpp:454] relu3 <- conv3
I0211 06:37:23.654501  3242 net.cpp:397] relu3 -> conv3 (in-place)
I0211 06:37:23.654516  3242 net.cpp:150] Setting up relu3
I0211 06:37:23.654527  3242 net.cpp:157] Top shape: 100 64 8 8 (409600)
I0211 06:37:23.654536  3242 net.cpp:165] Memory required for data: 31540400
I0211 06:37:23.654543  3242 layer_factory.hpp:77] Creating layer pool3
I0211 06:37:23.654554  3242 net.cpp:106] Creating Layer pool3
I0211 06:37:23.654563  3242 net.cpp:454] pool3 <- conv3
I0211 06:37:23.654579  3242 net.cpp:411] pool3 -> pool3
I0211 06:37:23.654629  3242 net.cpp:150] Setting up pool3
I0211 06:37:23.654659  3242 net.cpp:157] Top shape: 100 64 4 4 (102400)
I0211 06:37:23.654667  3242 net.cpp:165] Memory required for data: 31950000
I0211 06:37:23.654676  3242 layer_factory.hpp:77] Creating layer ip1
I0211 06:37:23.654690  3242 net.cpp:106] Creating Layer ip1
I0211 06:37:23.654706  3242 net.cpp:454] ip1 <- pool3
I0211 06:37:23.654723  3242 net.cpp:411] ip1 -> ip1
I0211 06:37:23.657768  3242 net.cpp:150] Setting up ip1
I0211 06:37:23.657790  3242 net.cpp:157] Top shape: 100 64 (6400)
I0211 06:37:23.657796  3242 net.cpp:165] Memory required for data: 31975600
I0211 06:37:23.657804  3242 layer_factory.hpp:77] Creating layer ip2
I0211 06:37:23.657822  3242 net.cpp:106] Creating Layer ip2
I0211 06:37:23.657832  3242 net.cpp:454] ip2 <- ip1
I0211 06:37:23.657846  3242 net.cpp:411] ip2 -> ip2
I0211 06:37:23.658321  3242 net.cpp:150] Setting up ip2
I0211 06:37:23.658340  3242 net.cpp:157] Top shape: 100 100 (10000)
I0211 06:37:23.658345  3242 net.cpp:165] Memory required for data: 32015600
I0211 06:37:23.658362  3242 layer_factory.hpp:77] Creating layer ip2_ip2_0_split
I0211 06:37:23.658416  3242 net.cpp:106] Creating Layer ip2_ip2_0_split
I0211 06:37:23.658437  3242 net.cpp:454] ip2_ip2_0_split <- ip2
I0211 06:37:23.658450  3242 net.cpp:411] ip2_ip2_0_split -> ip2_ip2_0_split_0
I0211 06:37:23.658474  3242 net.cpp:411] ip2_ip2_0_split -> ip2_ip2_0_split_1
I0211 06:37:23.658546  3242 net.cpp:150] Setting up ip2_ip2_0_split
I0211 06:37:23.658572  3242 net.cpp:157] Top shape: 100 100 (10000)
I0211 06:37:23.658593  3242 net.cpp:157] Top shape: 100 100 (10000)
I0211 06:37:23.658601  3242 net.cpp:165] Memory required for data: 32095600
I0211 06:37:23.658610  3242 layer_factory.hpp:77] Creating layer accuracy
I0211 06:37:23.658633  3242 net.cpp:106] Creating Layer accuracy
I0211 06:37:23.658651  3242 net.cpp:454] accuracy <- ip2_ip2_0_split_0
I0211 06:37:23.658663  3242 net.cpp:454] accuracy <- label_cifar_1_split_0
I0211 06:37:23.658675  3242 net.cpp:411] accuracy -> accuracy
…
