…
I0211 06:35:26.979372  3150 net.cpp:322] The NetState phase (0) differed from the phase (1) specified by a rule in layer cifar
I0211 06:35:26.979403  3150 net.cpp:322] The NetState phase (0) differed from the phase (1) specified by a rule in layer accuracy
I0211 06:35:26.979526  3150 net.cpp:49] Initializing net from parameters: 
name: "CIFAR10_quick"
state {
  phase: TRAIN
}
layer {
  name: "cifar"
  type: "Data"
  top: "data"
  top: "label"
  include {
    phase: TRAIN
  }
  data_param {
    source: "examples/cifar10/cifar10_train_lmdb"
    batch_size: 100
    backend: LMDB
  }
}
layer {
  name: "conv1"
  type: "Convolution"
  bottom: "data"
  top: "conv1"
  param {
    lr_mult: 1
  }
  param {
    lr_mult: 2
  }
  convolution_param {
    num_output: 32
    pad: 2
    kernel_size: 5
    stride: 1
    weight_filler {
      type: "gaussian"
      std: 0.0001
    }
    bias_filler {
      type: "constant"
    }
  }
}
layer {
  name: "pool1"
  type: "Pooling"
  bottom: "conv1"
  top: "pool1"
  pooling_param {
    pool: MAX
    kernel_size: 3
    stride: 2
  }
}
layer {
  name: "relu1"
  type: "ReLU"
  bottom: "pool1"
  top: "pool1"
}
layer {
  name: "conv2"
  type: "Convolution"
  bottom: "pool1"
  top: "conv2"
  param {
    lr_mult: 1
  }
  param {
    lr_mult: 2
  }
  convolution_param {
    num_output: 32
    pad: 2
    kernel_size: 5
    stride: 1
    weight_filler {
      type: "gaussian"
      std: 0.01
    }
    bias_filler {
      type: "constant"
    }
  }
}
layer {
  name: "relu2"
  type: "ReLU"
  bottom: "conv2"
  top: "conv2"
}
layer {
  name: "pool2"
  type: "Pooling"
  bottom: "conv2"
  top: "pool2"
  pooling_param {
    pool: AVE
    kernel_size: 3
    stride: 2
  }
}
layer {
  name: "conv3"
  type: "Convolution"
  bottom: "pool2"
  top: "conv3"
  param {
    lr_mult: 1
  }
  param {
    lr_mult: 2
  }
  convolution_param {
    num_output: 64
    pad: 2
    kernel_size: 5
    stride: 1
    weight_filler {
      type: "gaussian"
      std: 0.01
    }
    bias_filler {
      type: "constant"
    }
  }
}
layer {
  name: "relu3"
  type: "ReLU"
  bottom: "conv3"
  top: "conv3"
}
layer {
  name: "pool3"
  type: "Pooling"
  bottom: "conv3"
  top: "pool3"
  pooling_param {
    pool: AVE
    kernel_size: 3
    stride: 2
  }
}
layer {
  name: "ip1"
  type: "InnerProduct"
  bottom: "pool3"
  top: "ip1"
  param {
    lr_mult: 1
  }
  param {
    lr_mult: 2
  }
  inner_product_param {
    num_output: 64
    weight_filler {
      type: "gaussian"
      std: 0.1
    }
    bias_filler {
      type: "constant"
    }
  }
}
layer {
  name: "ip2"
  type: "InnerProduct"
  bottom: "ip1"
  top: "ip2"
  param {
    lr_mult: 1
  }
  param {
    lr_mult: 2
  }
  inner_product_param {
    num_output: 10
    weight_filler {
      type: "gaussian"
      std: 0.1
    }
    bias_filler {
      type: "constant"
    }
  }
}
layer {
  name: "loss"
  type: "SoftmaxWithLoss"
  bottom: "ip2"
  bottom: "label"
  top: "loss"
}
I0211 06:35:26.979624  3150 layer_factory.hpp:77] Creating layer cifar
I0211 06:35:26.980530  3150 net.cpp:106] Creating Layer cifar
I0211 06:35:26.980607  3150 net.cpp:411] cifar -> data
I0211 06:35:26.980648  3150 net.cpp:411] cifar -> label
I0211 06:35:26.981272  3156 db_lmdb.cpp:38] Opened lmdb examples/cifar10/cifar10_train_lmdb
I0211 06:35:26.991740  3150 data_layer.cpp:41] output data size: 100,3,32,32
I0211 06:35:26.994426  3150 net.cpp:150] Setting up cifar
I0211 06:35:26.994453  3150 net.cpp:157] Top shape: 100 3 32 32 (307200)
I0211 06:35:26.994462  3150 net.cpp:157] Top shape: 100 (100)
I0211 06:35:26.994493  3150 net.cpp:165] Memory required for data: 1229200
I0211 06:35:26.994506  3150 layer_factory.hpp:77] Creating layer conv1
I0211 06:35:26.994534  3150 net.cpp:106] Creating Layer conv1
I0211 06:35:26.994547  3150 net.cpp:454] conv1 <- data
I0211 06:35:26.994568  3150 net.cpp:411] conv1 -> conv1
I0211 06:35:26.995877  3150 net.cpp:150] Setting up conv1
I0211 06:35:26.995898  3150 net.cpp:157] Top shape: 100 32 32 32 (3276800)
I0211 06:35:26.995903  3150 net.cpp:165] Memory required for data: 14336400
I0211 06:35:26.995923  3150 layer_factory.hpp:77] Creating layer pool1
I0211 06:35:26.995944  3150 net.cpp:106] Creating Layer pool1
I0211 06:35:26.995950  3150 net.cpp:454] pool1 <- conv1
I0211 06:35:26.995961  3150 net.cpp:411] pool1 -> pool1
I0211 06:35:26.996060  3150 net.cpp:150] Setting up pool1
I0211 06:35:26.996076  3150 net.cpp:157] Top shape: 100 32 16 16 (819200)
I0211 06:35:26.996080  3150 net.cpp:165] Memory required for data: 17613200
I0211 06:35:26.996085  3150 layer_factory.hpp:77] Creating layer relu1
I0211 06:35:26.996093  3150 net.cpp:106] Creating Layer relu1
I0211 06:35:26.996099  3150 net.cpp:454] relu1 <- pool1
I0211 06:35:26.996106  3150 net.cpp:397] relu1 -> pool1 (in-place)
I0211 06:35:26.996124  3150 net.cpp:150] Setting up relu1
I0211 06:35:26.996131  3150 net.cpp:157] Top shape: 100 32 16 16 (819200)
I0211 06:35:26.996135  3150 net.cpp:165] Memory required for data: 20890000
I0211 06:35:26.996140  3150 layer_factory.hpp:77] Creating layer conv2
I0211 06:35:26.996162  3150 net.cpp:106] Creating Layer conv2
I0211 06:35:26.996173  3150 net.cpp:454] conv2 <- pool1
I0211 06:35:26.996182  3150 net.cpp:411] conv2 -> conv2
I0211 06:35:26.997799  3150 net.cpp:150] Setting up conv2
I0211 06:35:26.997824  3150 net.cpp:157] Top shape: 100 32 16 16 (819200)
I0211 06:35:26.997830  3150 net.cpp:165] Memory required for data: 24166800
I0211 06:35:26.997855  3150 layer_factory.hpp:77] Creating layer relu2
I0211 06:35:26.997869  3150 net.cpp:106] Creating Layer relu2
I0211 06:35:26.997877  3150 net.cpp:454] relu2 <- conv2
I0211 06:35:26.997889  3150 net.cpp:397] relu2 -> conv2 (in-place)
I0211 06:35:26.997905  3150 net.cpp:150] Setting up relu2
I0211 06:35:26.997917  3150 net.cpp:157] Top shape: 100 32 16 16 (819200)
I0211 06:35:26.997925  3150 net.cpp:165] Memory required for data: 27443600
I0211 06:35:26.997934  3150 layer_factory.hpp:77] Creating layer pool2
I0211 06:35:26.997947  3150 net.cpp:106] Creating Layer pool2
I0211 06:35:26.997957  3150 net.cpp:454] pool2 <- conv2
I0211 06:35:26.997975  3150 net.cpp:411] pool2 -> pool2
I0211 06:35:26.998013  3150 net.cpp:150] Setting up pool2
I0211 06:35:26.998040  3150 net.cpp:157] Top shape: 100 32 8 8 (204800)
I0211 06:35:26.998049  3150 net.cpp:165] Memory required for data: 28262800
I0211 06:35:26.998059  3150 layer_factory.hpp:77] Creating layer conv3
I0211 06:35:26.998078  3150 net.cpp:106] Creating Layer conv3
I0211 06:35:26.998088  3150 net.cpp:454] conv3 <- pool2
I0211 06:35:26.998108  3150 net.cpp:411] conv3 -> conv3
I0211 06:35:27.000047  3150 net.cpp:150] Setting up conv3
I0211 06:35:27.000074  3150 net.cpp:157] Top shape: 100 64 8 8 (409600)
I0211 06:35:27.000084  3150 net.cpp:165] Memory required for data: 29901200
I0211 06:35:27.000104  3150 layer_factory.hpp:77] Creating layer relu3
I0211 06:35:27.000125  3150 net.cpp:106] Creating Layer relu3
I0211 06:35:27.000135  3150 net.cpp:454] relu3 <- conv3
I0211 06:35:27.000154  3150 net.cpp:397] relu3 -> conv3 (in-place)
I0211 06:35:27.000170  3150 net.cpp:150] Setting up relu3
I0211 06:35:27.000185  3150 net.cpp:157] Top shape: 100 64 8 8 (409600)
I0211 06:35:27.000192  3150 net.cpp:165] Memory required for data: 31539600
I0211 06:35:27.000202  3150 layer_factory.hpp:77] Creating layer pool3
I0211 06:35:27.000216  3150 net.cpp:106] Creating Layer pool3
I0211 06:35:27.000226  3150 net.cpp:454] pool3 <- conv3
I0211 06:35:27.000243  3150 net.cpp:411] pool3 -> pool3
I0211 06:35:27.000285  3150 net.cpp:150] Setting up pool3
I0211 06:35:27.000306  3150 net.cpp:157] Top shape: 100 64 4 4 (102400)
I0211 06:35:27.000332  3150 net.cpp:165] Memory required for data: 31949200
I0211 06:35:27.000344  3150 layer_factory.hpp:77] Creating layer ip1
I0211 06:35:27.000375  3150 net.cpp:106] Creating Layer ip1
I0211 06:35:27.000387  3150 net.cpp:454] ip1 <- pool3
I0211 06:35:27.000406  3150 net.cpp:411] ip1 -> ip1
I0211 06:35:27.002687  3150 net.cpp:150] Setting up ip1
I0211 06:35:27.002713  3150 net.cpp:157] Top shape: 100 64 (6400)
I0211 06:35:27.002722  3150 net.cpp:165] Memory required for data: 31974800
I0211 06:35:27.002739  3150 layer_factory.hpp:77] Creating layer ip2
I0211 06:35:27.002755  3150 net.cpp:106] Creating Layer ip2
I0211 06:35:27.002765  3150 net.cpp:454] ip2 <- ip1
I0211 06:35:27.002779  3150 net.cpp:411] ip2 -> ip2
I0211 06:35:27.002919  3150 net.cpp:150] Setting up ip2
I0211 06:35:27.002940  3150 net.cpp:157] Top shape: 100 10 (1000)
I0211 06:35:27.002949  3150 net.cpp:165] Memory required for data: 31978800
I0211 06:35:27.002969  3150 layer_factory.hpp:77] Creating layer loss
I0211 06:35:27.002992  3150 net.cpp:106] Creating Layer loss
I0211 06:35:27.003005  3150 net.cpp:454] loss <- ip2
I0211 06:35:27.003015  3150 net.cpp:454] loss <- label
I0211 06:35:27.003031  3150 net.cpp:411] loss -> loss
I0211 06:35:27.003059  3150 layer_factory.hpp:77] Creating layer loss
…
I0211 06:35:27.003882  3150 solver.cpp:181] Creating test net (#0) specified by net file: examples/cifar10/cifar10_quick_train_test.prototxt
I0211 06:35:27.003957  3150 net.cpp:322] The NetState phase (1) differed from the phase (0) specified by a rule in layer cifar
I0211 06:35:27.004128  3150 net.cpp:49] Initializing net from parameters: 
name: "CIFAR10_quick"
state {
  phase: TEST
}
layer {
  name: "cifar"
  type: "Data"
  top: "data"
  top: "label"
  include {
    phase: TEST
  }
  data_param {
    source: "examples/cifar10/cifar10_test_lmdb"
    batch_size: 100
    backend: LMDB
  }
}
layer {
  name: "conv1"
  type: "Convolution"
  bottom: "data"
  top: "conv1"
  param {
    lr_mult: 1
  }
  param {
    lr_mult: 2
  }
  convolution_param {
    num_output: 32
    pad: 2
    kernel_size: 5
    stride: 1
    weight_filler {
      type: "gaussian"
      std: 0.0001
    }
    bias_filler {
      type: "constant"
    }
  }
}
layer {
  name: "pool1"
  type: "Pooling"
  bottom: "conv1"
  top: "pool1"
  pooling_param {
    pool: MAX
    kernel_size: 3
    stride: 2
  }
}
layer {
  name: "relu1"
  type: "ReLU"
  bottom: "pool1"
  top: "pool1"
}
layer {
  name: "conv2"
  type: "Convolution"
  bottom: "pool1"
  top: "conv2"
  param {
    lr_mult: 1
  }
  param {
    lr_mult: 2
  }
  convolution_param {
    num_output: 32
    pad: 2
    kernel_size: 5
    stride: 1
    weight_filler {
      type: "gaussian"
      std: 0.01
    }
    bias_filler {
      type: "constant"
    }
  }
}
layer {
  name: "relu2"
  type: "ReLU"
  bottom: "conv2"
  top: "conv2"
}
layer {
  name: "pool2"
  type: "Pooling"
  bottom: "conv2"
  top: "pool2"
  pooling_param {
    pool: AVE
    kernel_size: 3
    stride: 2
  }
}
layer {
  name: "conv3"
  type: "Convolution"
  bottom: "pool2"
  top: "conv3"
  param {
    lr_mult: 1
  }
  param {
    lr_mult: 2
  }
  convolution_param {
    num_output: 64
    pad: 2
    kernel_size: 5
    stride: 1
    weight_filler {
      type: "gaussian"
      std: 0.01
    }
    bias_filler {
      type: "constant"
    }
  }
}
layer {
  name: "relu3"
  type: "ReLU"
  bottom: "conv3"
  top: "conv3"
}
layer {
  name: "pool3"
  type: "Pooling"
  bottom: "conv3"
  top: "pool3"
  pooling_param {
    pool: AVE
    kernel_size: 3
    stride: 2
  }
}
layer {
  name: "ip1"
  type: "InnerProduct"
  bottom: "pool3"
  top: "ip1"
  param {
    lr_mult: 1
  }
  param {
    lr_mult: 2
  }
  inner_product_param {
    num_output: 64
    weight_filler {
      type: "gaussian"
      std: 0.1
    }
    bias_filler {
      type: "constant"
    }
  }
}
layer {
  name: "ip2"
  type: "InnerProduct"
  bottom: "ip1"
  top: "ip2"
  param {
    lr_mult: 1
  }
  param {
    lr_mult: 2
  }
  inner_product_param {
    num_output: 10
    weight_filler {
      type: "gaussian"
      std: 0.1
    }
    bias_filler {
      type: "constant"
    }
  }
}
layer {
  name: "accuracy"
  type: "Accuracy"
  bottom: "ip2"
  bottom: "label"
  top: "accuracy"
  include {
    phase: TEST
  }
}
layer {
  name: "loss"
  type: "SoftmaxWithLoss"
  bottom: "ip2"
  bottom: "label"
  top: "loss"
}
I0211 06:35:27.004309  3150 layer_factory.hpp:77] Creating layer cifar
I0211 06:35:27.004497  3150 net.cpp:106] Creating Layer cifar
I0211 06:35:27.004518  3150 net.cpp:411] cifar -> data
I0211 06:35:27.004539  3150 net.cpp:411] cifar -> label
I0211 06:35:27.005123  3158 db_lmdb.cpp:38] Opened lmdb examples/cifar10/cifar10_test_lmdb
I0211 06:35:27.005281  3150 data_layer.cpp:41] output data size: 100,3,32,32
I0211 06:35:27.008163  3150 net.cpp:150] Setting up cifar
I0211 06:35:27.008188  3150 net.cpp:157] Top shape: 100 3 32 32 (307200)
I0211 06:35:27.008200  3150 net.cpp:157] Top shape: 100 (100)
I0211 06:35:27.008209  3150 net.cpp:165] Memory required for data: 1229200
I0211 06:35:27.008224  3150 layer_factory.hpp:77] Creating layer label_cifar_1_split
I0211 06:35:27.008245  3150 net.cpp:106] Creating Layer label_cifar_1_split
I0211 06:35:27.008255  3150 net.cpp:454] label_cifar_1_split <- label
I0211 06:35:27.008280  3150 net.cpp:411] label_cifar_1_split -> label_cifar_1_split_0
I0211 06:35:27.008301  3150 net.cpp:411] label_cifar_1_split -> label_cifar_1_split_1
I0211 06:35:27.008411  3150 net.cpp:150] Setting up label_cifar_1_split
I0211 06:35:27.008432  3150 net.cpp:157] Top shape: 100 (100)
I0211 06:35:27.008445  3150 net.cpp:157] Top shape: 100 (100)
I0211 06:35:27.008452  3150 net.cpp:165] Memory required for data: 1230000
I0211 06:35:27.008461  3150 layer_factory.hpp:77] Creating layer conv1
I0211 06:35:27.008488  3150 net.cpp:106] Creating Layer conv1
I0211 06:35:27.008501  3150 net.cpp:454] conv1 <- data
I0211 06:35:27.008520  3150 net.cpp:411] conv1 -> conv1
I0211 06:35:27.008868  3150 net.cpp:150] Setting up conv1
I0211 06:35:27.008889  3150 net.cpp:157] Top shape: 100 32 32 32 (3276800)
I0211 06:35:27.008898  3150 net.cpp:165] Memory required for data: 14337200
I0211 06:35:27.008920  3150 layer_factory.hpp:77] Creating layer pool1
I0211 06:35:27.008939  3150 net.cpp:106] Creating Layer pool1
I0211 06:35:27.008952  3150 net.cpp:454] pool1 <- conv1
I0211 06:35:27.008965  3150 net.cpp:411] pool1 -> pool1
I0211 06:35:27.009032  3150 net.cpp:150] Setting up pool1
I0211 06:35:27.009052  3150 net.cpp:157] Top shape: 100 32 16 16 (819200)
I0211 06:35:27.009062  3150 net.cpp:165] Memory required for data: 17614000
I0211 06:35:27.009071  3150 layer_factory.hpp:77] Creating layer relu1
I0211 06:35:27.009085  3150 net.cpp:106] Creating Layer relu1
I0211 06:35:27.009114  3150 net.cpp:454] relu1 <- pool1
I0211 06:35:27.009136  3150 net.cpp:397] relu1 -> pool1 (in-place)
I0211 06:35:27.009155  3150 net.cpp:150] Setting up relu1
I0211 06:35:27.009166  3150 net.cpp:157] Top shape: 100 32 16 16 (819200)
I0211 06:35:27.009174  3150 net.cpp:165] Memory required for data: 20890800
I0211 06:35:27.009184  3150 layer_factory.hpp:77] Creating layer conv2
I0211 06:35:27.009202  3150 net.cpp:106] Creating Layer conv2
I0211 06:35:27.009212  3150 net.cpp:454] conv2 <- pool1
I0211 06:35:27.009239  3150 net.cpp:411] conv2 -> conv2
I0211 06:35:27.010356  3150 net.cpp:150] Setting up conv2
I0211 06:35:27.010378  3150 net.cpp:157] Top shape: 100 32 16 16 (819200)
I0211 06:35:27.010388  3150 net.cpp:165] Memory required for data: 24167600
I0211 06:35:27.010409  3150 layer_factory.hpp:77] Creating layer relu2
I0211 06:35:27.010422  3150 net.cpp:106] Creating Layer relu2
I0211 06:35:27.010435  3150 net.cpp:454] relu2 <- conv2
I0211 06:35:27.010454  3150 net.cpp:397] relu2 -> conv2 (in-place)
I0211 06:35:27.010470  3150 net.cpp:150] Setting up relu2
I0211 06:35:27.010485  3150 net.cpp:157] Top shape: 100 32 16 16 (819200)
I0211 06:35:27.010493  3150 net.cpp:165] Memory required for data: 27444400
I0211 06:35:27.010502  3150 layer_factory.hpp:77] Creating layer pool2
I0211 06:35:27.010515  3150 net.cpp:106] Creating Layer pool2
I0211 06:35:27.010525  3150 net.cpp:454] pool2 <- conv2
I0211 06:35:27.010542  3150 net.cpp:411] pool2 -> pool2
I0211 06:35:27.010581  3150 net.cpp:150] Setting up pool2
I0211 06:35:27.010601  3150 net.cpp:157] Top shape: 100 32 8 8 (204800)
I0211 06:35:27.010609  3150 net.cpp:165] Memory required for data: 28263600
I0211 06:35:27.010619  3150 layer_factory.hpp:77] Creating layer conv3
I0211 06:35:27.010645  3150 net.cpp:106] Creating Layer conv3
I0211 06:35:27.010658  3150 net.cpp:454] conv3 <- pool2
I0211 06:35:27.010679  3150 net.cpp:411] conv3 -> conv3
I0211 06:35:27.012536  3150 net.cpp:150] Setting up conv3
I0211 06:35:27.012560  3150 net.cpp:157] Top shape: 100 64 8 8 (409600)
I0211 06:35:27.012568  3150 net.cpp:165] Memory required for data: 29902000
I0211 06:35:27.012589  3150 layer_factory.hpp:77] Creating layer relu3
I0211 06:35:27.012603  3150 net.cpp:106] Creating Layer relu3
I0211 06:35:27.012612  3150 net.cpp:454] relu3 <- conv3
I0211 06:35:27.012629  3150 net.cpp:397] relu3 -> conv3 (in-place)
I0211 06:35:27.012645  3150 net.cpp:150] Setting up relu3
I0211 06:35:27.012660  3150 net.cpp:157] Top shape: 100 64 8 8 (409600)
I0211 06:35:27.012668  3150 net.cpp:165] Memory required for data: 31540400
I0211 06:35:27.012677  3150 layer_factory.hpp:77] Creating layer pool3
I0211 06:35:27.012689  3150 net.cpp:106] Creating Layer pool3
I0211 06:35:27.012706  3150 net.cpp:454] pool3 <- conv3
I0211 06:35:27.012724  3150 net.cpp:411] pool3 -> pool3
I0211 06:35:27.012771  3150 net.cpp:150] Setting up pool3
I0211 06:35:27.012794  3150 net.cpp:157] Top shape: 100 64 4 4 (102400)
I0211 06:35:27.012801  3150 net.cpp:165] Memory required for data: 31950000
I0211 06:35:27.012811  3150 layer_factory.hpp:77] Creating layer ip1
I0211 06:35:27.012831  3150 net.cpp:106] Creating Layer ip1
I0211 06:35:27.012842  3150 net.cpp:454] ip1 <- pool3
I0211 06:35:27.012861  3150 net.cpp:411] ip1 -> ip1
I0211 06:35:27.015558  3150 net.cpp:150] Setting up ip1
I0211 06:35:27.015581  3150 net.cpp:157] Top shape: 100 64 (6400)
I0211 06:35:27.015591  3150 net.cpp:165] Memory required for data: 31975600
I0211 06:35:27.015607  3150 layer_factory.hpp:77] Creating layer ip2
I0211 06:35:27.015629  3150 net.cpp:106] Creating Layer ip2
I0211 06:35:27.015640  3150 net.cpp:454] ip2 <- ip1
I0211 06:35:27.015653  3150 net.cpp:411] ip2 -> ip2
I0211 06:35:27.015794  3150 net.cpp:150] Setting up ip2
I0211 06:35:27.015815  3150 net.cpp:157] Top shape: 100 10 (1000)
I0211 06:35:27.015825  3150 net.cpp:165] Memory required for data: 31979600
I0211 06:35:27.015844  3150 layer_factory.hpp:77] Creating layer ip2_ip2_0_split
I0211 06:35:27.015858  3150 net.cpp:106] Creating Layer ip2_ip2_0_split
I0211 06:35:27.015889  3150 net.cpp:454] ip2_ip2_0_split <- ip2
I0211 06:35:27.015904  3150 net.cpp:411] ip2_ip2_0_split -> ip2_ip2_0_split_0
I0211 06:35:27.015921  3150 net.cpp:411] ip2_ip2_0_split -> ip2_ip2_0_split_1
I0211 06:35:27.015983  3150 net.cpp:150] Setting up ip2_ip2_0_split
I0211 06:35:27.016003  3150 net.cpp:157] Top shape: 100 10 (1000)
I0211 06:35:27.016016  3150 net.cpp:157] Top shape: 100 10 (1000)
I0211 06:35:27.016024  3150 net.cpp:165] Memory required for data: 31987600
I0211 06:35:27.016033  3150 layer_factory.hpp:77] Creating layer accuracy
I0211 06:35:27.016052  3150 net.cpp:106] Creating Layer accuracy
I0211 06:35:27.016062  3150 net.cpp:454] accuracy <- ip2_ip2_0_split_0
I0211 06:35:27.016073  3150 net.cpp:454] accuracy <- label_cifar_1_split_0
I0211 06:35:27.016093  3150 net.cpp:411] accuracy -> accuracy
…
