…
I0210 09:16:50.506463 31528 net.cpp:322] The NetState phase (0) differed from the phase (1) specified by a rule in layer accuracy
I0210 09:16:50.506630 31528 net.cpp:49] Initializing net from parameters: 
name: "CIFAR100_quick"
state {
  phase: TRAIN
}
layer {
  name: "cifar"
  type: "Data"
  top: "data"
  top: "label"
  include {
    phase: TRAIN
  }
  transform_param {
    mean_file: "examples/fine_tune_cifar10/mean.binaryproto"
  }
  data_param {
    source: "examples/fine_tune_cifar10/cifar10_train_lmdb"
    batch_size: 100
    backend: LMDB
  }
}
layer {
  name: "conv1"
  type: "Convolution"
  bottom: "data"
  top: "conv1"
  param {
    lr_mult: 0
  }
  param {
    lr_mult: 0
  }
  convolution_param {
    num_output: 32
    pad: 2
    kernel_size: 5
    stride: 1
    weight_filler {
      type: "gaussian"
      std: 0.0001
    }
    bias_filler {
      type: "constant"
    }
  }
}
layer {
  name: "pool1"
  type: "Pooling"
  bottom: "conv1"
  top: "pool1"
  pooling_param {
    pool: MAX
    kernel_size: 3
    stride: 2
  }
}
layer {
  name: "relu1"
  type: "ReLU"
  bottom: "pool1"
  top: "pool1"
}
layer {
  name: "conv2"
  type: "Convolution"
  bottom: "pool1"
  top: "conv2"
  param {
    lr_mult: 0
  }
  param {
    lr_mult: 0
  }
  convolution_param {
    num_output: 32
    pad: 2
    kernel_size: 5
    stride: 1
    weight_filler {
      type: "gaussian"
      std: 0.01
    }
    bias_filler {
      type: "constant"
    }
  }
}
layer {
  name: "relu2"
  type: "ReLU"
  bottom: "conv2"
  top: "conv2"
}
layer {
  name: "pool2"
  type: "Pooling"
  bottom: "conv2"
  top: "pool2"
  pooling_param {
    pool: AVE
    kernel_size: 3
    stride: 2
  }
}
layer {
  name: "conv3"
  type: "Convolution"
  bottom: "pool2"
  top: "conv3"
  param {
    lr_mult: 0
  }
  param {
    lr_mult: 0
  }
  convolution_param {
    num_output: 64
    pad: 2
    kernel_size: 5
    stride: 1
    weight_filler {
      type: "gaussian"
      std: 0.01
    }
    bias_filler {
      type: "constant"
    }
  }
}
layer {
  name: "relu3"
  type: "ReLU"
  bottom: "conv3"
  top: "conv3"
}
layer {
  name: "pool3"
  type: "Pooling"
  bottom: "conv3"
  top: "pool3"
  pooling_param {
    pool: AVE
    kernel_size: 3
    stride: 2
  }
}
layer {
  name: "ip1"
  type: "InnerProduct"
  bottom: "pool3"
  top: "ip1"
  param {
    lr_mult: 0
  }
  param {
    lr_mult: 0
  }
  inner_product_param {
    num_output: 64
    weight_filler {
      type: "gaussian"
      std: 0.1
    }
    bias_filler {
      type: "constant"
    }
  }
}
layer {
  name: "ip3"
  type: "InnerProduct"
  bottom: "ip1"
  top: "ip3"
  param {
    lr_mult: 2
  }
  param {
    lr_mult: 3
  }
  inner_product_param {
    num_output: 10
    weight_filler {
      type: "gaussian"
      std: 0.1
    }
    bias_filler {
      type: "constant"
    }
  }
}
layer {
  name: "loss"
  type: "SoftmaxWithLoss"
  bottom: "ip3"
  bottom: "label"
  top: "loss"
}
I0210 09:16:50.506783 31528 layer_factory.hpp:77] Creating layer cifar
I0210 09:16:50.507688 31528 net.cpp:106] Creating Layer cifar
I0210 09:16:50.507715 31528 net.cpp:411] cifar -> data
I0210 09:16:50.507766 31528 net.cpp:411] cifar -> label
I0210 09:16:50.507807 31528 data_transformer.cpp:25] Loading mean file from: examples/fine_tune_cifar10/mean.binaryproto
I0210 09:16:50.508343 31531 db_lmdb.cpp:38] Opened lmdb examples/fine_tune_cifar10/cifar10_train_lmdb
I0210 09:16:50.553841 31528 data_layer.cpp:41] output data size: 100,3,32,32
I0210 09:16:50.557871 31528 net.cpp:150] Setting up cifar
I0210 09:16:50.557941 31528 net.cpp:157] Top shape: 100 3 32 32 (307200)
I0210 09:16:50.557987 31528 net.cpp:157] Top shape: 100 (100)
I0210 09:16:50.558002 31528 net.cpp:165] Memory required for data: 1229200
I0210 09:16:50.558020 31528 layer_factory.hpp:77] Creating layer conv1
I0210 09:16:50.558060 31528 net.cpp:106] Creating Layer conv1
I0210 09:16:50.558080 31528 net.cpp:454] conv1 <- data
I0210 09:16:50.558106 31528 net.cpp:411] conv1 -> conv1
I0210 09:16:50.560669 31528 net.cpp:150] Setting up conv1
I0210 09:16:50.560698 31528 net.cpp:157] Top shape: 100 32 32 32 (3276800)
I0210 09:16:50.560708 31528 net.cpp:165] Memory required for data: 14336400
I0210 09:16:50.560741 31528 layer_factory.hpp:77] Creating layer pool1
I0210 09:16:50.560776 31528 net.cpp:106] Creating Layer pool1
I0210 09:16:50.560787 31528 net.cpp:454] pool1 <- conv1
I0210 09:16:50.560829 31528 net.cpp:411] pool1 -> pool1
I0210 09:16:50.560916 31528 net.cpp:150] Setting up pool1
I0210 09:16:50.560938 31528 net.cpp:157] Top shape: 100 32 16 16 (819200)
I0210 09:16:50.560947 31528 net.cpp:165] Memory required for data: 17613200
I0210 09:16:50.560956 31528 layer_factory.hpp:77] Creating layer relu1
I0210 09:16:50.560971 31528 net.cpp:106] Creating Layer relu1
I0210 09:16:50.560984 31528 net.cpp:454] relu1 <- pool1
I0210 09:16:50.561002 31528 net.cpp:397] relu1 -> pool1 (in-place)
I0210 09:16:50.561025 31528 net.cpp:150] Setting up relu1
I0210 09:16:50.561041 31528 net.cpp:157] Top shape: 100 32 16 16 (819200)
I0210 09:16:50.561053 31528 net.cpp:165] Memory required for data: 20890000
I0210 09:16:50.561061 31528 layer_factory.hpp:77] Creating layer conv2
I0210 09:16:50.561089 31528 net.cpp:106] Creating Layer conv2
I0210 09:16:50.561106 31528 net.cpp:454] conv2 <- pool1
I0210 09:16:50.561125 31528 net.cpp:411] conv2 -> conv2
I0210 09:16:50.562677 31528 net.cpp:150] Setting up conv2
I0210 09:16:50.562702 31528 net.cpp:157] Top shape: 100 32 16 16 (819200)
I0210 09:16:50.562712 31528 net.cpp:165] Memory required for data: 24166800
I0210 09:16:50.562734 31528 layer_factory.hpp:77] Creating layer relu2
I0210 09:16:50.562773 31528 net.cpp:106] Creating Layer relu2
I0210 09:16:50.562790 31528 net.cpp:454] relu2 <- conv2
I0210 09:16:50.562803 31528 net.cpp:397] relu2 -> conv2 (in-place)
I0210 09:16:50.562819 31528 net.cpp:150] Setting up relu2
I0210 09:16:50.562855 31528 net.cpp:157] Top shape: 100 32 16 16 (819200)
I0210 09:16:50.562873 31528 net.cpp:165] Memory required for data: 27443600
I0210 09:16:50.562885 31528 layer_factory.hpp:77] Creating layer pool2
I0210 09:16:50.562903 31528 net.cpp:106] Creating Layer pool2
I0210 09:16:50.562916 31528 net.cpp:454] pool2 <- conv2
I0210 09:16:50.562932 31528 net.cpp:411] pool2 -> pool2
I0210 09:16:50.562979 31528 net.cpp:150] Setting up pool2
I0210 09:16:50.563004 31528 net.cpp:157] Top shape: 100 32 8 8 (204800)
I0210 09:16:50.563012 31528 net.cpp:165] Memory required for data: 28262800
I0210 09:16:50.563021 31528 layer_factory.hpp:77] Creating layer conv3
I0210 09:16:50.563063 31528 net.cpp:106] Creating Layer conv3
I0210 09:16:50.563079 31528 net.cpp:454] conv3 <- pool2
I0210 09:16:50.563089 31528 net.cpp:411] conv3 -> conv3
I0210 09:16:50.564945 31528 net.cpp:150] Setting up conv3
I0210 09:16:50.564963 31528 net.cpp:157] Top shape: 100 64 8 8 (409600)
I0210 09:16:50.564970 31528 net.cpp:165] Memory required for data: 29901200
I0210 09:16:50.564982 31528 layer_factory.hpp:77] Creating layer relu3
I0210 09:16:50.564991 31528 net.cpp:106] Creating Layer relu3
I0210 09:16:50.565006 31528 net.cpp:454] relu3 <- conv3
I0210 09:16:50.565023 31528 net.cpp:397] relu3 -> conv3 (in-place)
I0210 09:16:50.565039 31528 net.cpp:150] Setting up relu3
I0210 09:16:50.565078 31528 net.cpp:157] Top shape: 100 64 8 8 (409600)
I0210 09:16:50.565093 31528 net.cpp:165] Memory required for data: 31539600
I0210 09:16:50.565104 31528 layer_factory.hpp:77] Creating layer pool3
I0210 09:16:50.565155 31528 net.cpp:106] Creating Layer pool3
I0210 09:16:50.565172 31528 net.cpp:454] pool3 <- conv3
I0210 09:16:50.565191 31528 net.cpp:411] pool3 -> pool3
I0210 09:16:50.565245 31528 net.cpp:150] Setting up pool3
I0210 09:16:50.565266 31528 net.cpp:157] Top shape: 100 64 4 4 (102400)
I0210 09:16:50.565274 31528 net.cpp:165] Memory required for data: 31949200
I0210 09:16:50.565284 31528 layer_factory.hpp:77] Creating layer ip1
I0210 09:16:50.565310 31528 net.cpp:106] Creating Layer ip1
I0210 09:16:50.565330 31528 net.cpp:454] ip1 <- pool3
I0210 09:16:50.565349 31528 net.cpp:411] ip1 -> ip1
I0210 09:16:50.567574 31528 net.cpp:150] Setting up ip1
I0210 09:16:50.567597 31528 net.cpp:157] Top shape: 100 64 (6400)
I0210 09:16:50.567603 31528 net.cpp:165] Memory required for data: 31974800
I0210 09:16:50.567611 31528 layer_factory.hpp:77] Creating layer ip3
I0210 09:16:50.567620 31528 net.cpp:106] Creating Layer ip3
I0210 09:16:50.567625 31528 net.cpp:454] ip3 <- ip1
I0210 09:16:50.567636 31528 net.cpp:411] ip3 -> ip3
I0210 09:16:50.567749 31528 net.cpp:150] Setting up ip3
I0210 09:16:50.567765 31528 net.cpp:157] Top shape: 100 10 (1000)
I0210 09:16:50.567770 31528 net.cpp:165] Memory required for data: 31978800
I0210 09:16:50.567781 31528 layer_factory.hpp:77] Creating layer loss
I0210 09:16:50.567795 31528 net.cpp:106] Creating Layer loss
I0210 09:16:50.567800 31528 net.cpp:454] loss <- ip3
I0210 09:16:50.567806 31528 net.cpp:454] loss <- label
I0210 09:16:50.567813 31528 net.cpp:411] loss -> loss
I0210 09:16:50.567829 31528 layer_factory.hpp:77] Creating layer loss
…
I0210 09:16:50.568521 31528 solver.cpp:181] Creating test net (#0) specified by net file: examples/fine_tune_cifar10/cifar100_quick_train_test.prototxt
I0210 09:16:50.568570 31528 net.cpp:322] The NetState phase (1) differed from the phase (0) specified by a rule in layer cifar
I0210 09:16:50.568717 31528 net.cpp:49] Initializing net from parameters: 
name: "CIFAR100_quick"
state {
  phase: TEST
}
layer {
  name: "cifar"
  type: "Data"
  top: "data"
  top: "label"
  include {
    phase: TEST
  }
  transform_param {
    mean_file: "examples/fine_tune_cifar10/mean.binaryproto"
  }
  data_param {
    source: "examples/fine_tune_cifar10/cifar10_test_lmdb"
    batch_size: 100
    backend: LMDB
  }
}
layer {
  name: "conv1"
  type: "Convolution"
  bottom: "data"
  top: "conv1"
  param {
    lr_mult: 0
  }
  param {
    lr_mult: 0
  }
  convolution_param {
    num_output: 32
    pad: 2
    kernel_size: 5
    stride: 1
    weight_filler {
      type: "gaussian"
      std: 0.0001
    }
    bias_filler {
      type: "constant"
    }
  }
}
layer {
  name: "pool1"
  type: "Pooling"
  bottom: "conv1"
  top: "pool1"
  pooling_param {
    pool: MAX
    kernel_size: 3
    stride: 2
  }
}
layer {
  name: "relu1"
  type: "ReLU"
  bottom: "pool1"
  top: "pool1"
}
layer {
  name: "conv2"
  type: "Convolution"
  bottom: "pool1"
  top: "conv2"
  param {
    lr_mult: 0
  }
  param {
    lr_mult: 0
  }
  convolution_param {
    num_output: 32
    pad: 2
    kernel_size: 5
    stride: 1
    weight_filler {
      type: "gaussian"
      std: 0.01
    }
    bias_filler {
      type: "constant"
    }
  }
}
layer {
  name: "relu2"
  type: "ReLU"
  bottom: "conv2"
  top: "conv2"
}
layer {
  name: "pool2"
  type: "Pooling"
  bottom: "conv2"
  top: "pool2"
  pooling_param {
    pool: AVE
    kernel_size: 3
    stride: 2
  }
}
layer {
  name: "conv3"
  type: "Convolution"
  bottom: "pool2"
  top: "conv3"
  param {
    lr_mult: 0
  }
  param {
    lr_mult: 0
  }
  convolution_param {
    num_output: 64
    pad: 2
    kernel_size: 5
    stride: 1
    weight_filler {
      type: "gaussian"
      std: 0.01
    }
    bias_filler {
      type: "constant"
    }
  }
}
layer {
  name: "relu3"
  type: "ReLU"
  bottom: "conv3"
  top: "conv3"
}
layer {
  name: "pool3"
  type: "Pooling"
  bottom: "conv3"
  top: "pool3"
  pooling_param {
    pool: AVE
    kernel_size: 3
    stride: 2
  }
}
layer {
  name: "ip1"
  type: "InnerProduct"
  bottom: "pool3"
  top: "ip1"
  param {
    lr_mult: 0
  }
  param {
    lr_mult: 0
  }
  inner_product_param {
    num_output: 64
    weight_filler {
      type: "gaussian"
      std: 0.1
    }
    bias_filler {
      type: "constant"
    }
  }
}
layer {
  name: "ip3"
  type: "InnerProduct"
  bottom: "ip1"
  top: "ip3"
  param {
    lr_mult: 2
  }
  param {
    lr_mult: 3
  }
  inner_product_param {
    num_output: 10
    weight_filler {
      type: "gaussian"
      std: 0.1
    }
    bias_filler {
      type: "constant"
    }
  }
}
layer {
  name: "accuracy"
  type: "Accuracy"
  bottom: "ip3"
  bottom: "label"
  top: "accuracy"
  include {
    phase: TEST
  }
}
layer {
  name: "loss"
  type: "SoftmaxWithLoss"
  bottom: "ip3"
  bottom: "label"
  top: "loss"
}
I0210 09:16:50.568828 31528 layer_factory.hpp:77] Creating layer cifar
I0210 09:16:50.568953 31528 net.cpp:106] Creating Layer cifar
I0210 09:16:50.568969 31528 net.cpp:411] cifar -> data
I0210 09:16:50.568980 31528 net.cpp:411] cifar -> label
I0210 09:16:50.568992 31528 data_transformer.cpp:25] Loading mean file from: examples/fine_tune_cifar10/mean.binaryproto
I0210 09:16:50.569596 31533 db_lmdb.cpp:38] Opened lmdb examples/fine_tune_cifar10/cifar10_test_lmdb
I0210 09:16:50.569712 31528 data_layer.cpp:41] output data size: 100,3,32,32
I0210 09:16:50.574439 31528 net.cpp:150] Setting up cifar
I0210 09:16:50.574463 31528 net.cpp:157] Top shape: 100 3 32 32 (307200)
I0210 09:16:50.574481 31528 net.cpp:157] Top shape: 100 (100)
I0210 09:16:50.574491 31528 net.cpp:165] Memory required for data: 1229200
I0210 09:16:50.574512 31528 layer_factory.hpp:77] Creating layer label_cifar_1_split
I0210 09:16:50.574534 31528 net.cpp:106] Creating Layer label_cifar_1_split
I0210 09:16:50.574548 31528 net.cpp:454] label_cifar_1_split <- label
I0210 09:16:50.574558 31528 net.cpp:411] label_cifar_1_split -> label_cifar_1_split_0
I0210 09:16:50.574579 31528 net.cpp:411] label_cifar_1_split -> label_cifar_1_split_1
I0210 09:16:50.574648 31528 net.cpp:150] Setting up label_cifar_1_split
I0210 09:16:50.574673 31528 net.cpp:157] Top shape: 100 (100)
I0210 09:16:50.574686 31528 net.cpp:157] Top shape: 100 (100)
I0210 09:16:50.574694 31528 net.cpp:165] Memory required for data: 1230000
I0210 09:16:50.574713 31528 layer_factory.hpp:77] Creating layer conv1
I0210 09:16:50.574736 31528 net.cpp:106] Creating Layer conv1
I0210 09:16:50.574749 31528 net.cpp:454] conv1 <- data
I0210 09:16:50.574761 31528 net.cpp:411] conv1 -> conv1
I0210 09:16:50.575116 31528 net.cpp:150] Setting up conv1
I0210 09:16:50.575140 31528 net.cpp:157] Top shape: 100 32 32 32 (3276800)
I0210 09:16:50.575150 31528 net.cpp:165] Memory required for data: 14337200
I0210 09:16:50.575198 31528 layer_factory.hpp:77] Creating layer pool1
I0210 09:16:50.575217 31528 net.cpp:106] Creating Layer pool1
I0210 09:16:50.575222 31528 net.cpp:454] pool1 <- conv1
I0210 09:16:50.575244 31528 net.cpp:411] pool1 -> pool1
I0210 09:16:50.575780 31528 net.cpp:150] Setting up pool1
I0210 09:16:50.575801 31528 net.cpp:157] Top shape: 100 32 16 16 (819200)
I0210 09:16:50.575810 31528 net.cpp:165] Memory required for data: 17614000
I0210 09:16:50.575820 31528 layer_factory.hpp:77] Creating layer relu1
I0210 09:16:50.575840 31528 net.cpp:106] Creating Layer relu1
I0210 09:16:50.575853 31528 net.cpp:454] relu1 <- pool1
I0210 09:16:50.575866 31528 net.cpp:397] relu1 -> pool1 (in-place)
I0210 09:16:50.575881 31528 net.cpp:150] Setting up relu1
I0210 09:16:50.575896 31528 net.cpp:157] Top shape: 100 32 16 16 (819200)
I0210 09:16:50.575906 31528 net.cpp:165] Memory required for data: 20890800
I0210 09:16:50.575916 31528 layer_factory.hpp:77] Creating layer conv2
I0210 09:16:50.575938 31528 net.cpp:106] Creating Layer conv2
I0210 09:16:50.575952 31528 net.cpp:454] conv2 <- pool1
I0210 09:16:50.575970 31528 net.cpp:411] conv2 -> conv2
I0210 09:16:50.577039 31528 net.cpp:150] Setting up conv2
I0210 09:16:50.577061 31528 net.cpp:157] Top shape: 100 32 16 16 (819200)
I0210 09:16:50.577075 31528 net.cpp:165] Memory required for data: 24167600
I0210 09:16:50.577096 31528 layer_factory.hpp:77] Creating layer relu2
I0210 09:16:50.577111 31528 net.cpp:106] Creating Layer relu2
I0210 09:16:50.577121 31528 net.cpp:454] relu2 <- conv2
I0210 09:16:50.577134 31528 net.cpp:397] relu2 -> conv2 (in-place)
I0210 09:16:50.577149 31528 net.cpp:150] Setting up relu2
I0210 09:16:50.577162 31528 net.cpp:157] Top shape: 100 32 16 16 (819200)
I0210 09:16:50.577172 31528 net.cpp:165] Memory required for data: 27444400
I0210 09:16:50.577181 31528 layer_factory.hpp:77] Creating layer pool2
I0210 09:16:50.577193 31528 net.cpp:106] Creating Layer pool2
I0210 09:16:50.577203 31528 net.cpp:454] pool2 <- conv2
I0210 09:16:50.577219 31528 net.cpp:411] pool2 -> pool2
I0210 09:16:50.577260 31528 net.cpp:150] Setting up pool2
I0210 09:16:50.577280 31528 net.cpp:157] Top shape: 100 32 8 8 (204800)
I0210 09:16:50.577289 31528 net.cpp:165] Memory required for data: 28263600
I0210 09:16:50.577299 31528 layer_factory.hpp:77] Creating layer conv3
I0210 09:16:50.577324 31528 net.cpp:106] Creating Layer conv3
I0210 09:16:50.577335 31528 net.cpp:454] conv3 <- pool2
I0210 09:16:50.577355 31528 net.cpp:411] conv3 -> conv3
I0210 09:16:50.579295 31528 net.cpp:150] Setting up conv3
I0210 09:16:50.579321 31528 net.cpp:157] Top shape: 100 64 8 8 (409600)
I0210 09:16:50.579331 31528 net.cpp:165] Memory required for data: 29902000
I0210 09:16:50.579351 31528 layer_factory.hpp:77] Creating layer relu3
I0210 09:16:50.579366 31528 net.cpp:106] Creating Layer relu3
I0210 09:16:50.579381 31528 net.cpp:454] relu3 <- conv3
I0210 09:16:50.579401 31528 net.cpp:397] relu3 -> conv3 (in-place)
I0210 09:16:50.579416 31528 net.cpp:150] Setting up relu3
I0210 09:16:50.579432 31528 net.cpp:157] Top shape: 100 64 8 8 (409600)
I0210 09:16:50.579440 31528 net.cpp:165] Memory required for data: 31540400
I0210 09:16:50.579449 31528 layer_factory.hpp:77] Creating layer pool3
I0210 09:16:50.579463 31528 net.cpp:106] Creating Layer pool3
I0210 09:16:50.579471 31528 net.cpp:454] pool3 <- conv3
I0210 09:16:50.579484 31528 net.cpp:411] pool3 -> pool3
I0210 09:16:50.579532 31528 net.cpp:150] Setting up pool3
I0210 09:16:50.579555 31528 net.cpp:157] Top shape: 100 64 4 4 (102400)
I0210 09:16:50.579563 31528 net.cpp:165] Memory required for data: 31950000
I0210 09:16:50.579573 31528 layer_factory.hpp:77] Creating layer ip1
I0210 09:16:50.579593 31528 net.cpp:106] Creating Layer ip1
I0210 09:16:50.579604 31528 net.cpp:454] ip1 <- pool3
I0210 09:16:50.579623 31528 net.cpp:411] ip1 -> ip1
I0210 09:16:50.582289 31528 net.cpp:150] Setting up ip1
I0210 09:16:50.582312 31528 net.cpp:157] Top shape: 100 64 (6400)
I0210 09:16:50.582321 31528 net.cpp:165] Memory required for data: 31975600
I0210 09:16:50.582356 31528 layer_factory.hpp:77] Creating layer ip3
I0210 09:16:50.582375 31528 net.cpp:106] Creating Layer ip3
I0210 09:16:50.582384 31528 net.cpp:454] ip3 <- ip1
I0210 09:16:50.582407 31528 net.cpp:411] ip3 -> ip3
I0210 09:16:50.582566 31528 net.cpp:150] Setting up ip3
I0210 09:16:50.582586 31528 net.cpp:157] Top shape: 100 10 (1000)
I0210 09:16:50.582594 31528 net.cpp:165] Memory required for data: 31979600
I0210 09:16:50.582617 31528 layer_factory.hpp:77] Creating layer ip3_ip3_0_split
I0210 09:16:50.582630 31528 net.cpp:106] Creating Layer ip3_ip3_0_split
I0210 09:16:50.582639 31528 net.cpp:454] ip3_ip3_0_split <- ip3
I0210 09:16:50.582653 31528 net.cpp:411] ip3_ip3_0_split -> ip3_ip3_0_split_0
I0210 09:16:50.582669 31528 net.cpp:411] ip3_ip3_0_split -> ip3_ip3_0_split_1
I0210 09:16:50.582733 31528 net.cpp:150] Setting up ip3_ip3_0_split
I0210 09:16:50.582756 31528 net.cpp:157] Top shape: 100 10 (1000)
I0210 09:16:50.582767 31528 net.cpp:157] Top shape: 100 10 (1000)
I0210 09:16:50.582777 31528 net.cpp:165] Memory required for data: 31987600
I0210 09:16:50.582787 31528 layer_factory.hpp:77] Creating layer accuracy
I0210 09:16:50.582804 31528 net.cpp:106] Creating Layer accuracy
I0210 09:16:50.582814 31528 net.cpp:454] accuracy <- ip3_ip3_0_split_0
I0210 09:16:50.582826 31528 net.cpp:454] accuracy <- label_cifar_1_split_0
I0210 09:16:50.582840 31528 net.cpp:411] accuracy -> accuracy
…
