…
I0208 09:13:04.958828 12482 net.cpp:257] The NetState phase (0) differed from the phase (1) specified by a rule in layer cifar
I0208 09:13:04.958861 12482 net.cpp:257] The NetState phase (0) differed from the phase (1) specified by a rule in layer accuracy
I0208 09:13:04.958992 12482 net.cpp:42] Initializing net from parameters:
name: "CIFAR100_quick"
state {
  phase: TRAIN
}
layer {
  name: "cifar"
  type: "Data"
  top: "data"
  top: "label"
  include {
    phase: TRAIN
  }
  transform_param {
    mean_file: "examples/cifar100/mean.binaryproto"
  }
  data_param {
    source: "examples/cifar100/cifar100_train_lmdb"
    batch_size: 100
    backend: LMDB
  }
}
layer {
  name: "conv1"
  type: "Convolution"
  bottom: "data"
  top: "conv1"
  param {
    lr_mult: 1
  }
  param {
    lr_mult: 2
  }
  convolution_param {
    num_output: 32
    pad: 2
    kernel_size: 5
    stride: 1
    weight_filler {
      type: "gaussian"
      std: 0.0001
    }
    bias_filler {
      type: "constant"
    }
  }
}
layer {
  name: "pool1"
  type: "Pooling"
  bottom: "conv1"
  top: "pool1"
  pooling_param {
    pool: MAX
    kernel_size: 3
    stride: 2
  }
}
layer {
  name: "relu1"
  type: "ReLU"
  bottom: "pool1"
  top: "pool1"
}
layer {
  name: "conv2"
  type: "Convolution"
  bottom: "pool1"
  top: "conv2"
  param {
    lr_mult: 1
  }
  param {
    lr_mult: 2
  }
  convolution_param {
    num_output: 32
    pad: 2
    kernel_size: 5
    stride: 1
    weight_filler {
      type: "gaussian"
      std: 0.01
    }
    bias_filler {
      type: "constant"
    }
  }
}
layer {
  name: "relu2"
  type: "ReLU"
  bottom: "conv2"
  top: "conv2"
}
layer {
  name: "pool2"
  type: "Pooling"
  bottom: "conv2"
  top: "pool2"
  pooling_param {
    pool: AVE
    kernel_size: 3
    stride: 2
  }
}
layer {
  name: "conv3"
  type: "Convolution"
  bottom: "pool2"
  top: "conv3"
  param {
    lr_mult: 1
  }
  param {
    lr_mult: 2
  }
  convolution_param {
    num_output: 64
    pad: 2
    kernel_size: 5
    stride: 1
    weight_filler {
      type: "gaussian"
      std: 0.01
    }
    bias_filler {
      type: "constant"
    }
  }
}
layer {
  name: "relu3"
  type: "ReLU"
  bottom: "conv3"
  top: "conv3"
}
layer {
  name: "pool3"
  type: "Pooling"
  bottom: "conv3"
  top: "pool3"
  pooling_param {
    pool: AVE
    kernel_size: 3
    stride: 2
  }
}
layer {
  name: "ip1"
  type: "InnerProduct"
  bottom: "pool3"
  top: "ip1"
  param {
    lr_mult: 1
  }
  param {
    lr_mult: 2
  }
  inner_product_param {
    num_output: 64
    weight_filler {
      type: "gaussian"
      std: 0.1
    }
    bias_filler {
      type: "constant"
    }
  }
}
layer {
  name: "ip2"
  type: "InnerProduct"
  bottom: "ip1"
  top: "ip2"
  param {
    lr_mult: 1
  }
  param {
    lr_mult: 2
  }
  inner_product_param {
    num_output: 100
    weight_filler {
      type: "gaussian"
      std: 0.1
    }
    bias_filler {
      type: "constant"
    }
  }
}
layer {
  name: "loss"
  type: "SoftmaxWithLoss"
  bottom: "ip2"
  bottom: "label"
  top: "loss"
}
I0208 09:13:04.959110 12482 layer_factory.hpp:74] Creating layer cifar
I0208 09:13:04.959137 12482 net.cpp:84] Creating Layer cifar
I0208 09:13:04.959148 12482 net.cpp:338] cifar -> data
I0208 09:13:04.959185 12482 net.cpp:338] cifar -> label
I0208 09:13:04.959199 12482 net.cpp:113] Setting up cifar
I0208 09:13:04.959283 12482 db.cpp:34] Opened lmdb examples/cifar100/cifar100_train_lmdb
I0208 09:13:04.959344 12482 data_layer.cpp:67] output data size: 100,3,32,32
I0208 09:13:04.959358 12482 data_transformer.cpp:22] Loading mean file from: examples/cifar100/mean.binaryproto
I0208 09:13:04.960041 12482 net.cpp:120] Top shape: 100 3 32 32 (307200)
I0208 09:13:04.960060 12482 net.cpp:120] Top shape: 100 (100)
I0208 09:13:04.960068 12482 layer_factory.hpp:74] Creating layer conv1
I0208 09:13:04.960083 12482 net.cpp:84] Creating Layer conv1
I0208 09:13:04.960089 12482 net.cpp:380] conv1 <- data
I0208 09:13:04.960103 12482 net.cpp:338] conv1 -> conv1
I0208 09:13:04.960119 12482 net.cpp:113] Setting up conv1
I0208 09:13:05.013253 12482 net.cpp:120] Top shape: 100 32 32 32 (3276800)
I0208 09:13:05.013310 12482 layer_factory.hpp:74] Creating layer pool1
I0208 09:13:05.013335 12482 net.cpp:84] Creating Layer pool1
I0208 09:13:05.013344 12482 net.cpp:380] pool1 <- conv1
I0208 09:13:05.013353 12482 net.cpp:338] pool1 -> pool1
I0208 09:13:05.013373 12482 net.cpp:113] Setting up pool1
I0208 09:13:05.013538 12482 net.cpp:120] Top shape: 100 32 16 16 (819200)
I0208 09:13:05.013556 12482 layer_factory.hpp:74] Creating layer relu1
I0208 09:13:05.013566 12482 net.cpp:84] Creating Layer relu1
I0208 09:13:05.013571 12482 net.cpp:380] relu1 <- pool1
I0208 09:13:05.013578 12482 net.cpp:327] relu1 -> pool1 (in-place)
I0208 09:13:05.013586 12482 net.cpp:113] Setting up relu1
I0208 09:13:05.013638 12482 net.cpp:120] Top shape: 100 32 16 16 (819200)
I0208 09:13:05.013653 12482 layer_factory.hpp:74] Creating layer conv2
I0208 09:13:05.013666 12482 net.cpp:84] Creating Layer conv2
I0208 09:13:05.013671 12482 net.cpp:380] conv2 <- pool1
I0208 09:13:05.013679 12482 net.cpp:338] conv2 -> conv2
I0208 09:13:05.013689 12482 net.cpp:113] Setting up conv2
I0208 09:13:05.014756 12482 net.cpp:120] Top shape: 100 32 16 16 (819200)
I0208 09:13:05.014780 12482 layer_factory.hpp:74] Creating layer relu2
I0208 09:13:05.014788 12482 net.cpp:84] Creating Layer relu2
I0208 09:13:05.014793 12482 net.cpp:380] relu2 <- conv2
I0208 09:13:05.014801 12482 net.cpp:327] relu2 -> conv2 (in-place)
I0208 09:13:05.014807 12482 net.cpp:113] Setting up relu2
I0208 09:13:05.014853 12482 net.cpp:120] Top shape: 100 32 16 16 (819200)
I0208 09:13:05.014866 12482 layer_factory.hpp:74] Creating layer pool2
I0208 09:13:05.014876 12482 net.cpp:84] Creating Layer pool2
I0208 09:13:05.014881 12482 net.cpp:380] pool2 <- conv2
I0208 09:13:05.014888 12482 net.cpp:338] pool2 -> pool2
I0208 09:13:05.014895 12482 net.cpp:113] Setting up pool2
I0208 09:13:05.015020 12482 net.cpp:120] Top shape: 100 32 8 8 (204800)
I0208 09:13:05.015038 12482 layer_factory.hpp:74] Creating layer conv3
I0208 09:13:05.015048 12482 net.cpp:84] Creating Layer conv3
I0208 09:13:05.015053 12482 net.cpp:380] conv3 <- pool2
I0208 09:13:05.015061 12482 net.cpp:338] conv3 -> conv3
I0208 09:13:05.015070 12482 net.cpp:113] Setting up conv3
I0208 09:13:05.016919 12482 net.cpp:120] Top shape: 100 64 8 8 (409600)
I0208 09:13:05.016942 12482 layer_factory.hpp:74] Creating layer relu3
I0208 09:13:05.016952 12482 net.cpp:84] Creating Layer relu3
I0208 09:13:05.016957 12482 net.cpp:380] relu3 <- conv3
I0208 09:13:05.016964 12482 net.cpp:327] relu3 -> conv3 (in-place)
I0208 09:13:05.016971 12482 net.cpp:113] Setting up relu3
I0208 09:13:05.017019 12482 net.cpp:120] Top shape: 100 64 8 8 (409600)
I0208 09:13:05.017032 12482 layer_factory.hpp:74] Creating layer pool3
I0208 09:13:05.017041 12482 net.cpp:84] Creating Layer pool3
I0208 09:13:05.017047 12482 net.cpp:380] pool3 <- conv3
I0208 09:13:05.017053 12482 net.cpp:338] pool3 -> pool3
I0208 09:13:05.017060 12482 net.cpp:113] Setting up pool3
I0208 09:13:05.017108 12482 net.cpp:120] Top shape: 100 64 4 4 (102400)
I0208 09:13:05.017122 12482 layer_factory.hpp:74] Creating layer ip1
I0208 09:13:05.017135 12482 net.cpp:84] Creating Layer ip1
I0208 09:13:05.017141 12482 net.cpp:380] ip1 <- pool3
I0208 09:13:05.017148 12482 net.cpp:338] ip1 -> ip1
I0208 09:13:05.017160 12482 net.cpp:113] Setting up ip1
I0208 09:13:05.019382 12482 net.cpp:120] Top shape: 100 64 (6400)
I0208 09:13:05.019403 12482 layer_factory.hpp:74] Creating layer ip2
I0208 09:13:05.019413 12482 net.cpp:84] Creating Layer ip2
I0208 09:13:05.019443 12482 net.cpp:380] ip2 <- ip1
I0208 09:13:05.019453 12482 net.cpp:338] ip2 -> ip2
I0208 09:13:05.019460 12482 net.cpp:113] Setting up ip2
I0208 09:13:05.019681 12482 net.cpp:120] Top shape: 100 100 (10000)
I0208 09:13:05.019698 12482 layer_factory.hpp:74] Creating layer loss
I0208 09:13:05.019711 12482 net.cpp:84] Creating Layer loss
I0208 09:13:05.019716 12482 net.cpp:380] loss <- ip2
I0208 09:13:05.019721 12482 net.cpp:380] loss <- label
I0208 09:13:05.019729 12482 net.cpp:338] loss -> loss
I0208 09:13:05.019739 12482 net.cpp:113] Setting up loss
I0208 09:13:05.019752 12482 layer_factory.hpp:74] Creating layer loss
…
I0208 09:13:05.020455 12482 solver.cpp:154] Creating test net (#0) specified by net file: examples/cifar100/cifar100_quick_train_test.prototxt
I0208 09:13:05.020508 12482 net.cpp:257] The NetState phase (1) differed from the phase (0) specified by a rule in layer cifar
I0208 09:13:05.020651 12482 net.cpp:42] Initializing net from parameters:
name: "CIFAR100_quick"
state {
  phase: TEST
}
layer {
  name: "cifar"
  type: "Data"
  top: "data"
  top: "label"
  include {
    phase: TEST
  }
  transform_param {
    mean_file: "examples/cifar100/mean.binaryproto"
  }
  data_param {
    source: "examples/cifar100/cifar100_test_lmdb"
    batch_size: 100
    backend: LMDB
  }
}
layer {
  name: "conv1"
  type: "Convolution"
  bottom: "data"
  top: "conv1"
  param {
    lr_mult: 1
  }
  param {
    lr_mult: 2
  }
  convolution_param {
    num_output: 32
    pad: 2
    kernel_size: 5
    stride: 1
    weight_filler {
      type: "gaussian"
      std: 0.0001
    }
    bias_filler {
      type: "constant"
    }
  }
}
layer {
  name: "pool1"
  type: "Pooling"
  bottom: "conv1"
  top: "pool1"
  pooling_param {
    pool: MAX
    kernel_size: 3
    stride: 2
  }
}
layer {
  name: "relu1"
  type: "ReLU"
  bottom: "pool1"
  top: "pool1"
}
layer {
  name: "conv2"
  type: "Convolution"
  bottom: "pool1"
  top: "conv2"
  param {
    lr_mult: 1
  }
  param {
    lr_mult: 2
  }
  convolution_param {
    num_output: 32
    pad: 2
    kernel_size: 5
    stride: 1
    weight_filler {
      type: "gaussian"
      std: 0.01
    }
    bias_filler {
      type: "constant"
    }
  }
}
layer {
  name: "relu2"
  type: "ReLU"
  bottom: "conv2"
  top: "conv2"
}
layer {
  name: "pool2"
  type: "Pooling"
  bottom: "conv2"
  top: "pool2"
  pooling_param {
    pool: AVE
    kernel_size: 3
    stride: 2
  }
}
layer {
  name: "conv3"
  type: "Convolution"
  bottom: "pool2"
  top: "conv3"
  param {
    lr_mult: 1
  }
  param {
    lr_mult: 2
  }
  convolution_param {
    num_output: 64
    pad: 2
    kernel_size: 5
    stride: 1
    weight_filler {
      type: "gaussian"
      std: 0.01
    }
    bias_filler {
      type: "constant"
    }
  }
}
layer {
  name: "relu3"
  type: "ReLU"
  bottom: "conv3"
  top: "conv3"
}
layer {
  name: "pool3"
  type: "Pooling"
  bottom: "conv3"
  top: "pool3"
  pooling_param {
    pool: AVE
    kernel_size: 3
    stride: 2
  }
}
layer {
  name: "ip1"
  type: "InnerProduct"
  bottom: "pool3"
  top: "ip1"
  param {
    lr_mult: 1
  }
  param {
    lr_mult: 2
  }
  inner_product_param {
    num_output: 64
    weight_filler {
      type: "gaussian"
      std: 0.1
    }
    bias_filler {
      type: "constant"
    }
  }
}
layer {
  name: "ip2"
  type: "InnerProduct"
  bottom: "ip1"
  top: "ip2"
  param {
    lr_mult: 1
  }
  param {
    lr_mult: 2
  }
  inner_product_param {
    num_output: 100
    weight_filler {
      type: "gaussian"
      std: 0.1
    }
    bias_filler {
      type: "constant"
    }
  }
}
layer {
  name: "accuracy"
  type: "Accuracy"
  bottom: "ip2"
  bottom: "label"
  top: "accuracy"
  include {
    phase: TEST
  }
}
layer {
  name: "loss"
  type: "SoftmaxWithLoss"
  bottom: "ip2"
  bottom: "label"
  top: "loss"
}
I0208 09:13:05.020766 12482 layer_factory.hpp:74] Creating layer cifar
I0208 09:13:05.020778 12482 net.cpp:84] Creating Layer cifar
I0208 09:13:05.020786 12482 net.cpp:338] cifar -> data
I0208 09:13:05.020795 12482 net.cpp:338] cifar -> label
I0208 09:13:05.020803 12482 net.cpp:113] Setting up cifar
I0208 09:13:05.020851 12482 db.cpp:34] Opened lmdb examples/cifar100/cifar100_test_lmdb
I0208 09:13:05.020877 12482 data_layer.cpp:67] output data size: 100,3,32,32
I0208 09:13:05.020885 12482 data_transformer.cpp:22] Loading mean file from: examples/cifar100/mean.binaryproto
I0208 09:13:05.021481 12482 net.cpp:120] Top shape: 100 3 32 32 (307200)
I0208 09:13:05.021497 12482 net.cpp:120] Top shape: 100 (100)
I0208 09:13:05.021503 12482 layer_factory.hpp:74] Creating layer label_cifar_1_split
I0208 09:13:05.021512 12482 net.cpp:84] Creating Layer label_cifar_1_split
I0208 09:13:05.021517 12482 net.cpp:380] label_cifar_1_split <- label
I0208 09:13:05.021523 12482 net.cpp:338] label_cifar_1_split -> label_cifar_1_split_0
I0208 09:13:05.021533 12482 net.cpp:338] label_cifar_1_split -> label_cifar_1_split_1
I0208 09:13:05.021539 12482 net.cpp:113] Setting up label_cifar_1_split
I0208 09:13:05.021551 12482 net.cpp:120] Top shape: 100 (100)
I0208 09:13:05.021556 12482 net.cpp:120] Top shape: 100 (100)
I0208 09:13:05.021561 12482 layer_factory.hpp:74] Creating layer conv1
I0208 09:13:05.021570 12482 net.cpp:84] Creating Layer conv1
I0208 09:13:05.021575 12482 net.cpp:380] conv1 <- data
I0208 09:13:05.021582 12482 net.cpp:338] conv1 -> conv1
I0208 09:13:05.021590 12482 net.cpp:113] Setting up conv1
I0208 09:13:05.021924 12482 net.cpp:120] Top shape: 100 32 32 32 (3276800)
I0208 09:13:05.021953 12482 layer_factory.hpp:74] Creating layer pool1
I0208 09:13:05.021962 12482 net.cpp:84] Creating Layer pool1
I0208 09:13:05.021967 12482 net.cpp:380] pool1 <- conv1
I0208 09:13:05.021975 12482 net.cpp:338] pool1 -> pool1
I0208 09:13:05.021982 12482 net.cpp:113] Setting up pool1
I0208 09:13:05.022140 12482 net.cpp:120] Top shape: 100 32 16 16 (819200)
I0208 09:13:05.022156 12482 layer_factory.hpp:74] Creating layer relu1
I0208 09:13:05.022166 12482 net.cpp:84] Creating Layer relu1
I0208 09:13:05.022171 12482 net.cpp:380] relu1 <- pool1
I0208 09:13:05.022177 12482 net.cpp:327] relu1 -> pool1 (in-place)
I0208 09:13:05.022183 12482 net.cpp:113] Setting up relu1
I0208 09:13:05.022231 12482 net.cpp:120] Top shape: 100 32 16 16 (819200)
I0208 09:13:05.022244 12482 layer_factory.hpp:74] Creating layer conv2
I0208 09:13:05.022253 12482 net.cpp:84] Creating Layer conv2
I0208 09:13:05.022258 12482 net.cpp:380] conv2 <- pool1
I0208 09:13:05.022265 12482 net.cpp:338] conv2 -> conv2
I0208 09:13:05.022274 12482 net.cpp:113] Setting up conv2
I0208 09:13:05.023363 12482 net.cpp:120] Top shape: 100 32 16 16 (819200)
I0208 09:13:05.023386 12482 layer_factory.hpp:74] Creating layer relu2
I0208 09:13:05.023399 12482 net.cpp:84] Creating Layer relu2
I0208 09:13:05.023406 12482 net.cpp:380] relu2 <- conv2
I0208 09:13:05.023427 12482 net.cpp:327] relu2 -> conv2 (in-place)
I0208 09:13:05.023434 12482 net.cpp:113] Setting up relu2
I0208 09:13:05.023494 12482 net.cpp:120] Top shape: 100 32 16 16 (819200)
I0208 09:13:05.023507 12482 layer_factory.hpp:74] Creating layer pool2
I0208 09:13:05.023517 12482 net.cpp:84] Creating Layer pool2
I0208 09:13:05.023522 12482 net.cpp:380] pool2 <- conv2
I0208 09:13:05.023529 12482 net.cpp:338] pool2 -> pool2
I0208 09:13:05.023535 12482 net.cpp:113] Setting up pool2
I0208 09:13:05.023591 12482 net.cpp:120] Top shape: 100 32 8 8 (204800)
I0208 09:13:05.023607 12482 layer_factory.hpp:74] Creating layer conv3
I0208 09:13:05.023617 12482 net.cpp:84] Creating Layer conv3
I0208 09:13:05.023622 12482 net.cpp:380] conv3 <- pool2
I0208 09:13:05.023628 12482 net.cpp:338] conv3 -> conv3
I0208 09:13:05.023638 12482 net.cpp:113] Setting up conv3
I0208 09:13:05.025606 12482 net.cpp:120] Top shape: 100 64 8 8 (409600)
I0208 09:13:05.025629 12482 layer_factory.hpp:74] Creating layer relu3
I0208 09:13:05.025637 12482 net.cpp:84] Creating Layer relu3
I0208 09:13:05.025642 12482 net.cpp:380] relu3 <- conv3
I0208 09:13:05.025650 12482 net.cpp:327] relu3 -> conv3 (in-place)
I0208 09:13:05.025655 12482 net.cpp:113] Setting up relu3
I0208 09:13:05.025804 12482 net.cpp:120] Top shape: 100 64 8 8 (409600)
I0208 09:13:05.025820 12482 layer_factory.hpp:74] Creating layer pool3
I0208 09:13:05.025828 12482 net.cpp:84] Creating Layer pool3
I0208 09:13:05.025833 12482 net.cpp:380] pool3 <- conv3
I0208 09:13:05.025842 12482 net.cpp:338] pool3 -> pool3
I0208 09:13:05.025851 12482 net.cpp:113] Setting up pool3
I0208 09:13:05.025910 12482 net.cpp:120] Top shape: 100 64 4 4 (102400)
I0208 09:13:05.025924 12482 layer_factory.hpp:74] Creating layer ip1
I0208 09:13:05.025933 12482 net.cpp:84] Creating Layer ip1
I0208 09:13:05.025938 12482 net.cpp:380] ip1 <- pool3
I0208 09:13:05.025944 12482 net.cpp:338] ip1 -> ip1
I0208 09:13:05.025952 12482 net.cpp:113] Setting up ip1
I0208 09:13:05.028147 12482 net.cpp:120] Top shape: 100 64 (6400)
I0208 09:13:05.028167 12482 layer_factory.hpp:74] Creating layer ip2
I0208 09:13:05.028174 12482 net.cpp:84] Creating Layer ip2
I0208 09:13:05.028179 12482 net.cpp:380] ip2 <- ip1
I0208 09:13:05.028189 12482 net.cpp:338] ip2 -> ip2
I0208 09:13:05.028198 12482 net.cpp:113] Setting up ip2
I0208 09:13:05.028424 12482 net.cpp:120] Top shape: 100 100 (10000)
I0208 09:13:05.028440 12482 layer_factory.hpp:74] Creating layer ip2_ip2_0_split
I0208 09:13:05.028448 12482 net.cpp:84] Creating Layer ip2_ip2_0_split
I0208 09:13:05.028452 12482 net.cpp:380] ip2_ip2_0_split <- ip2
I0208 09:13:05.028460 12482 net.cpp:338] ip2_ip2_0_split -> ip2_ip2_0_split_0
I0208 09:13:05.028466 12482 net.cpp:338] ip2_ip2_0_split -> ip2_ip2_0_split_1
I0208 09:13:05.028473 12482 net.cpp:113] Setting up ip2_ip2_0_split
I0208 09:13:05.028481 12482 net.cpp:120] Top shape: 100 100 (10000)
I0208 09:13:05.028486 12482 net.cpp:120] Top shape: 100 100 (10000)
I0208 09:13:05.028491 12482 layer_factory.hpp:74] Creating layer accuracy
I0208 09:13:05.028501 12482 net.cpp:84] Creating Layer accuracy
I0208 09:13:05.028504 12482 net.cpp:380] accuracy <- ip2_ip2_0_split_0
I0208 09:13:05.028509 12482 net.cpp:380] accuracy <- label_cifar_1_split_0
I0208 09:13:05.028518 12482 net.cpp:338] accuracy -> accuracy
I0208 09:13:05.028525 12482 net.cpp:113] Setting up accuracy
…
