…
I0208 09:14:27.840343 17395 net.cpp:257] The NetState phase (0) differed from the phase (1) specified by a rule in layer cifar
I0208 09:14:27.840378 17395 net.cpp:257] The NetState phase (0) differed from the phase (1) specified by a rule in layer accuracy
I0208 09:14:27.840515 17395 net.cpp:42] Initializing net from parameters:
name: "CIFAR100_quick"
state {
  phase: TRAIN
}
layer {
  name: "cifar"
  type: "Data"
  top: "data"
  top: "label"
  include {
    phase: TRAIN
  }
  transform_param {
    mean_file: "examples/cifar100/mean.binaryproto"
  }
  data_param {
    source: "examples/cifar100/cifar100_train_lmdb"
    batch_size: 100
    backend: LMDB
  }
}
layer {
  name: "conv1"
  type: "Convolution"
  bottom: "data"
  top: "conv1"
  param {
    lr_mult: 1
  }
  param {
    lr_mult: 2
  }
  convolution_param {
    num_output: 32
    pad: 2
    kernel_size: 5
    stride: 1
    weight_filler {
      type: "gaussian"
      std: 0.0001
    }
    bias_filler {
      type: "constant"
    }
  }
}
layer {
  name: "pool1"
  type: "Pooling"
  bottom: "conv1"
  top: "pool1"
  pooling_param {
    pool: MAX
    kernel_size: 3
    stride: 2
  }
}
layer {
  name: "relu1"
  type: "ReLU"
  bottom: "pool1"
  top: "pool1"
}
layer {
  name: "conv2"
  type: "Convolution"
  bottom: "pool1"
  top: "conv2"
  param {
    lr_mult: 1
  }
  param {
    lr_mult: 2
  }
  convolution_param {
    num_output: 32
    pad: 2
    kernel_size: 5
    stride: 1
    weight_filler {
      type: "gaussian"
      std: 0.01
    }
    bias_filler {
      type: "constant"
    }
  }
}
layer {
  name: "relu2"
  type: "ReLU"
  bottom: "conv2"
  top: "conv2"
}
layer {
  name: "pool2"
  type: "Pooling"
  bottom: "conv2"
  top: "pool2"
  pooling_param {
    pool: AVE
    kernel_size: 3
    stride: 2
  }
}
layer {
  name: "conv3"
  type: "Convolution"
  bottom: "pool2"
  top: "conv3"
  param {
    lr_mult: 1
  }
  param {
    lr_mult: 2
  }
  convolution_param {
    num_output: 64
    pad: 2
    kernel_size: 5
    stride: 1
    weight_filler {
      type: "gaussian"
      std: 0.01
    }
    bias_filler {
      type: "constant"
    }
  }
}
layer {
  name: "relu3"
  type: "ReLU"
  bottom: "conv3"
  top: "conv3"
}
layer {
  name: "pool3"
  type: "Pooling"
  bottom: "conv3"
  top: "pool3"
  pooling_param {
    pool: AVE
    kernel_size: 3
    stride: 2
  }
}
layer {
  name: "ip1"
  type: "InnerProduct"
  bottom: "pool3"
  top: "ip1"
  param {
    lr_mult: 1
  }
  param {
    lr_mult: 2
  }
  inner_product_param {
    num_output: 64
    weight_filler {
      type: "gaussian"
      std: 0.1
    }
    bias_filler {
      type: "constant"
    }
  }
}
layer {
  name: "ip2"
  type: "InnerProduct"
  bottom: "ip1"
  top: "ip2"
  param {
    lr_mult: 1
  }
  param {
    lr_mult: 2
  }
  inner_product_param {
    num_output: 100
    weight_filler {
      type: "gaussian"
      std: 0.1
    }
    bias_filler {
      type: "constant"
    }
  }
}
layer {
  name: "loss"
  type: "SoftmaxWithLoss"
  bottom: "ip2"
  bottom: "label"
  top: "loss"
}
I0208 09:14:27.840631 17395 layer_factory.hpp:74] Creating layer cifar
I0208 09:14:27.840657 17395 net.cpp:84] Creating Layer cifar
I0208 09:14:27.840668 17395 net.cpp:338] cifar -> data
I0208 09:14:27.840711 17395 net.cpp:338] cifar -> label
I0208 09:14:27.840725 17395 net.cpp:113] Setting up cifar
I0208 09:14:27.840811 17395 db.cpp:34] Opened lmdb examples/cifar100/cifar100_train_lmdb
I0208 09:14:27.840870 17395 data_layer.cpp:67] output data size: 100,3,32,32
I0208 09:14:27.840884 17395 data_transformer.cpp:22] Loading mean file from: examples/cifar100/mean.binaryproto
I0208 09:14:27.841558 17395 net.cpp:120] Top shape: 100 3 32 32 (307200)
I0208 09:14:27.841569 17395 net.cpp:120] Top shape: 100 (100)
I0208 09:14:27.841578 17395 layer_factory.hpp:74] Creating layer conv1
I0208 09:14:27.841593 17395 net.cpp:84] Creating Layer conv1
I0208 09:14:27.841598 17395 net.cpp:380] conv1 <- data
I0208 09:14:27.841655 17395 net.cpp:338] conv1 -> conv1
I0208 09:14:27.841673 17395 net.cpp:113] Setting up conv1
I0208 09:14:27.894855 17395 net.cpp:120] Top shape: 100 32 32 32 (3276800)
I0208 09:14:27.894912 17395 layer_factory.hpp:74] Creating layer pool1
I0208 09:14:27.894937 17395 net.cpp:84] Creating Layer pool1
I0208 09:14:27.894944 17395 net.cpp:380] pool1 <- conv1
I0208 09:14:27.894954 17395 net.cpp:338] pool1 -> pool1
I0208 09:14:27.894966 17395 net.cpp:113] Setting up pool1
I0208 09:14:27.895133 17395 net.cpp:120] Top shape: 100 32 16 16 (819200)
I0208 09:14:27.895149 17395 layer_factory.hpp:74] Creating layer relu1
I0208 09:14:27.895162 17395 net.cpp:84] Creating Layer relu1
I0208 09:14:27.895167 17395 net.cpp:380] relu1 <- pool1
I0208 09:14:27.895174 17395 net.cpp:327] relu1 -> pool1 (in-place)
I0208 09:14:27.895181 17395 net.cpp:113] Setting up relu1
I0208 09:14:27.895234 17395 net.cpp:120] Top shape: 100 32 16 16 (819200)
I0208 09:14:27.895247 17395 layer_factory.hpp:74] Creating layer conv2
I0208 09:14:27.895262 17395 net.cpp:84] Creating Layer conv2
I0208 09:14:27.895268 17395 net.cpp:380] conv2 <- pool1
I0208 09:14:27.895275 17395 net.cpp:338] conv2 -> conv2
I0208 09:14:27.895285 17395 net.cpp:113] Setting up conv2
I0208 09:14:27.896342 17395 net.cpp:120] Top shape: 100 32 16 16 (819200)
I0208 09:14:27.896363 17395 layer_factory.hpp:74] Creating layer relu2
I0208 09:14:27.896373 17395 net.cpp:84] Creating Layer relu2
I0208 09:14:27.896378 17395 net.cpp:380] relu2 <- conv2
I0208 09:14:27.896384 17395 net.cpp:327] relu2 -> conv2 (in-place)
I0208 09:14:27.896391 17395 net.cpp:113] Setting up relu2
I0208 09:14:27.896437 17395 net.cpp:120] Top shape: 100 32 16 16 (819200)
I0208 09:14:27.896451 17395 layer_factory.hpp:74] Creating layer pool2
I0208 09:14:27.896459 17395 net.cpp:84] Creating Layer pool2
I0208 09:14:27.896464 17395 net.cpp:380] pool2 <- conv2
I0208 09:14:27.896471 17395 net.cpp:338] pool2 -> pool2
I0208 09:14:27.896477 17395 net.cpp:113] Setting up pool2
I0208 09:14:27.896608 17395 net.cpp:120] Top shape: 100 32 8 8 (204800)
I0208 09:14:27.896625 17395 layer_factory.hpp:74] Creating layer conv3
I0208 09:14:27.896634 17395 net.cpp:84] Creating Layer conv3
I0208 09:14:27.896639 17395 net.cpp:380] conv3 <- pool2
I0208 09:14:27.896647 17395 net.cpp:338] conv3 -> conv3
I0208 09:14:27.896656 17395 net.cpp:113] Setting up conv3
I0208 09:14:27.898555 17395 net.cpp:120] Top shape: 100 64 8 8 (409600)
I0208 09:14:27.898578 17395 layer_factory.hpp:74] Creating layer relu3
I0208 09:14:27.898588 17395 net.cpp:84] Creating Layer relu3
I0208 09:14:27.898593 17395 net.cpp:380] relu3 <- conv3
I0208 09:14:27.898602 17395 net.cpp:327] relu3 -> conv3 (in-place)
I0208 09:14:27.898608 17395 net.cpp:113] Setting up relu3
I0208 09:14:27.898656 17395 net.cpp:120] Top shape: 100 64 8 8 (409600)
I0208 09:14:27.898669 17395 layer_factory.hpp:74] Creating layer pool3
I0208 09:14:27.898679 17395 net.cpp:84] Creating Layer pool3
I0208 09:14:27.898682 17395 net.cpp:380] pool3 <- conv3
I0208 09:14:27.898689 17395 net.cpp:338] pool3 -> pool3
I0208 09:14:27.898696 17395 net.cpp:113] Setting up pool3
I0208 09:14:27.898744 17395 net.cpp:120] Top shape: 100 64 4 4 (102400)
I0208 09:14:27.898757 17395 layer_factory.hpp:74] Creating layer ip1
I0208 09:14:27.898771 17395 net.cpp:84] Creating Layer ip1
I0208 09:14:27.898775 17395 net.cpp:380] ip1 <- pool3
I0208 09:14:27.898782 17395 net.cpp:338] ip1 -> ip1
I0208 09:14:27.898794 17395 net.cpp:113] Setting up ip1
I0208 09:14:27.900976 17395 net.cpp:120] Top shape: 100 64 (6400)
I0208 09:14:27.900995 17395 layer_factory.hpp:74] Creating layer ip2
I0208 09:14:27.901005 17395 net.cpp:84] Creating Layer ip2
I0208 09:14:27.901033 17395 net.cpp:380] ip2 <- ip1
I0208 09:14:27.901042 17395 net.cpp:338] ip2 -> ip2
I0208 09:14:27.901051 17395 net.cpp:113] Setting up ip2
I0208 09:14:27.901265 17395 net.cpp:120] Top shape: 100 100 (10000)
I0208 09:14:27.901283 17395 layer_factory.hpp:74] Creating layer loss
I0208 09:14:27.901294 17395 net.cpp:84] Creating Layer loss
I0208 09:14:27.901299 17395 net.cpp:380] loss <- ip2
I0208 09:14:27.901304 17395 net.cpp:380] loss <- label
I0208 09:14:27.901312 17395 net.cpp:338] loss -> loss
I0208 09:14:27.901321 17395 net.cpp:113] Setting up loss
I0208 09:14:27.901334 17395 layer_factory.hpp:74] Creating layer loss
…
I0208 09:14:27.902046 17395 solver.cpp:154] Creating test net (#0) specified by net file: examples/cifar100/cifar100_quick_train_test.prototxt
I0208 09:14:27.902132 17395 net.cpp:257] The NetState phase (1) differed from the phase (0) specified by a rule in layer cifar
I0208 09:14:27.902281 17395 net.cpp:42] Initializing net from parameters:
name: "CIFAR100_quick"
state {
  phase: TEST
}
layer {
  name: "cifar"
  type: "Data"
  top: "data"
  top: "label"
  include {
    phase: TEST
  }
  transform_param {
    mean_file: "examples/cifar100/mean.binaryproto"
  }
  data_param {
    source: "examples/cifar100/cifar100_test_lmdb"
    batch_size: 100
    backend: LMDB
  }
}
layer {
  name: "conv1"
  type: "Convolution"
  bottom: "data"
  top: "conv1"
  param {
    lr_mult: 1
  }
  param {
    lr_mult: 2
  }
  convolution_param {
    num_output: 32
    pad: 2
    kernel_size: 5
    stride: 1
    weight_filler {
      type: "gaussian"
      std: 0.0001
    }
    bias_filler {
      type: "constant"
    }
  }
}
layer {
  name: "pool1"
  type: "Pooling"
  bottom: "conv1"
  top: "pool1"
  pooling_param {
    pool: MAX
    kernel_size: 3
    stride: 2
  }
}
layer {
  name: "relu1"
  type: "ReLU"
  bottom: "pool1"
  top: "pool1"
}
layer {
  name: "conv2"
  type: "Convolution"
  bottom: "pool1"
  top: "conv2"
  param {
    lr_mult: 1
  }
  param {
    lr_mult: 2
  }
  convolution_param {
    num_output: 32
    pad: 2
    kernel_size: 5
    stride: 1
    weight_filler {
      type: "gaussian"
      std: 0.01
    }
    bias_filler {
      type: "constant"
    }
  }
}
layer {
  name: "relu2"
  type: "ReLU"
  bottom: "conv2"
  top: "conv2"
}
layer {
  name: "pool2"
  type: "Pooling"
  bottom: "conv2"
  top: "pool2"
  pooling_param {
    pool: AVE
    kernel_size: 3
    stride: 2
  }
}
layer {
  name: "conv3"
  type: "Convolution"
  bottom: "pool2"
  top: "conv3"
  param {
    lr_mult: 1
  }
  param {
    lr_mult: 2
  }
  convolution_param {
    num_output: 64
    pad: 2
    kernel_size: 5
    stride: 1
    weight_filler {
      type: "gaussian"
      std: 0.01
    }
    bias_filler {
      type: "constant"
    }
  }
}
layer {
  name: "relu3"
  type: "ReLU"
  bottom: "conv3"
  top: "conv3"
}
layer {
  name: "pool3"
  type: "Pooling"
  bottom: "conv3"
  top: "pool3"
  pooling_param {
    pool: AVE
    kernel_size: 3
    stride: 2
  }
}
layer {
  name: "ip1"
  type: "InnerProduct"
  bottom: "pool3"
  top: "ip1"
  param {
    lr_mult: 1
  }
  param {
    lr_mult: 2
  }
  inner_product_param {
    num_output: 64
    weight_filler {
      type: "gaussian"
      std: 0.1
    }
    bias_filler {
      type: "constant"
    }
  }
}
layer {
  name: "ip2"
  type: "InnerProduct"
  bottom: "ip1"
  top: "ip2"
  param {
    lr_mult: 1
  }
  param {
    lr_mult: 2
  }
  inner_product_param {
    num_output: 100
    weight_filler {
      type: "gaussian"
      std: 0.1
    }
    bias_filler {
      type: "constant"
    }
  }
}
layer {
  name: "accuracy"
  type: "Accuracy"
  bottom: "ip2"
  bottom: "label"
  top: "accuracy"
  include {
    phase: TEST
  }
}
layer {
  name: "loss"
  type: "SoftmaxWithLoss"
  bottom: "ip2"
  bottom: "label"
  top: "loss"
}
I0208 09:14:27.902390 17395 layer_factory.hpp:74] Creating layer cifar
I0208 09:14:27.902403 17395 net.cpp:84] Creating Layer cifar
I0208 09:14:27.902410 17395 net.cpp:338] cifar -> data
I0208 09:14:27.902420 17395 net.cpp:338] cifar -> label
I0208 09:14:27.902427 17395 net.cpp:113] Setting up cifar
I0208 09:14:27.902479 17395 db.cpp:34] Opened lmdb examples/cifar100/cifar100_test_lmdb
I0208 09:14:27.902505 17395 data_layer.cpp:67] output data size: 100,3,32,32
I0208 09:14:27.902513 17395 data_transformer.cpp:22] Loading mean file from: examples/cifar100/mean.binaryproto
I0208 09:14:27.903111 17395 net.cpp:120] Top shape: 100 3 32 32 (307200)
I0208 09:14:27.903121 17395 net.cpp:120] Top shape: 100 (100)
I0208 09:14:27.903126 17395 layer_factory.hpp:74] Creating layer label_cifar_1_split
I0208 09:14:27.903134 17395 net.cpp:84] Creating Layer label_cifar_1_split
I0208 09:14:27.903139 17395 net.cpp:380] label_cifar_1_split <- label
I0208 09:14:27.903148 17395 net.cpp:338] label_cifar_1_split -> label_cifar_1_split_0
I0208 09:14:27.903157 17395 net.cpp:338] label_cifar_1_split -> label_cifar_1_split_1
I0208 09:14:27.903164 17395 net.cpp:113] Setting up label_cifar_1_split
I0208 09:14:27.903175 17395 net.cpp:120] Top shape: 100 (100)
I0208 09:14:27.903180 17395 net.cpp:120] Top shape: 100 (100)
I0208 09:14:27.903185 17395 layer_factory.hpp:74] Creating layer conv1
I0208 09:14:27.903193 17395 net.cpp:84] Creating Layer conv1
I0208 09:14:27.903198 17395 net.cpp:380] conv1 <- data
I0208 09:14:27.903205 17395 net.cpp:338] conv1 -> conv1
I0208 09:14:27.903213 17395 net.cpp:113] Setting up conv1
I0208 09:14:27.903583 17395 net.cpp:120] Top shape: 100 32 32 32 (3276800)
I0208 09:14:27.903605 17395 layer_factory.hpp:74] Creating layer pool1
I0208 09:14:27.903614 17395 net.cpp:84] Creating Layer pool1
I0208 09:14:27.903619 17395 net.cpp:380] pool1 <- conv1
I0208 09:14:27.903628 17395 net.cpp:338] pool1 -> pool1
I0208 09:14:27.903635 17395 net.cpp:113] Setting up pool1
I0208 09:14:27.903781 17395 net.cpp:120] Top shape: 100 32 16 16 (819200)
I0208 09:14:27.903797 17395 layer_factory.hpp:74] Creating layer relu1
I0208 09:14:27.903806 17395 net.cpp:84] Creating Layer relu1
I0208 09:14:27.903811 17395 net.cpp:380] relu1 <- pool1
I0208 09:14:27.903820 17395 net.cpp:327] relu1 -> pool1 (in-place)
I0208 09:14:27.903827 17395 net.cpp:113] Setting up relu1
I0208 09:14:27.903884 17395 net.cpp:120] Top shape: 100 32 16 16 (819200)
I0208 09:14:27.903898 17395 layer_factory.hpp:74] Creating layer conv2
I0208 09:14:27.903906 17395 net.cpp:84] Creating Layer conv2
I0208 09:14:27.903910 17395 net.cpp:380] conv2 <- pool1
I0208 09:14:27.903918 17395 net.cpp:338] conv2 -> conv2
I0208 09:14:27.903925 17395 net.cpp:113] Setting up conv2
I0208 09:14:27.905052 17395 net.cpp:120] Top shape: 100 32 16 16 (819200)
I0208 09:14:27.905076 17395 layer_factory.hpp:74] Creating layer relu2
I0208 09:14:27.905086 17395 net.cpp:84] Creating Layer relu2
I0208 09:14:27.905092 17395 net.cpp:380] relu2 <- conv2
I0208 09:14:27.905112 17395 net.cpp:327] relu2 -> conv2 (in-place)
I0208 09:14:27.905119 17395 net.cpp:113] Setting up relu2
I0208 09:14:27.905179 17395 net.cpp:120] Top shape: 100 32 16 16 (819200)
I0208 09:14:27.905192 17395 layer_factory.hpp:74] Creating layer pool2
I0208 09:14:27.905202 17395 net.cpp:84] Creating Layer pool2
I0208 09:14:27.905206 17395 net.cpp:380] pool2 <- conv2
I0208 09:14:27.905213 17395 net.cpp:338] pool2 -> pool2
I0208 09:14:27.905220 17395 net.cpp:113] Setting up pool2
I0208 09:14:27.905275 17395 net.cpp:120] Top shape: 100 32 8 8 (204800)
I0208 09:14:27.905288 17395 layer_factory.hpp:74] Creating layer conv3
I0208 09:14:27.905300 17395 net.cpp:84] Creating Layer conv3
I0208 09:14:27.905305 17395 net.cpp:380] conv3 <- pool2
I0208 09:14:27.905313 17395 net.cpp:338] conv3 -> conv3
I0208 09:14:27.905321 17395 net.cpp:113] Setting up conv3
I0208 09:14:27.907317 17395 net.cpp:120] Top shape: 100 64 8 8 (409600)
I0208 09:14:27.907341 17395 layer_factory.hpp:74] Creating layer relu3
I0208 09:14:27.907348 17395 net.cpp:84] Creating Layer relu3
I0208 09:14:27.907353 17395 net.cpp:380] relu3 <- conv3
I0208 09:14:27.907359 17395 net.cpp:327] relu3 -> conv3 (in-place)
I0208 09:14:27.907366 17395 net.cpp:113] Setting up relu3
I0208 09:14:27.907508 17395 net.cpp:120] Top shape: 100 64 8 8 (409600)
I0208 09:14:27.907526 17395 layer_factory.hpp:74] Creating layer pool3
I0208 09:14:27.907533 17395 net.cpp:84] Creating Layer pool3
I0208 09:14:27.907537 17395 net.cpp:380] pool3 <- conv3
I0208 09:14:27.907544 17395 net.cpp:338] pool3 -> pool3
I0208 09:14:27.907552 17395 net.cpp:113] Setting up pool3
I0208 09:14:27.907610 17395 net.cpp:120] Top shape: 100 64 4 4 (102400)
I0208 09:14:27.907626 17395 layer_factory.hpp:74] Creating layer ip1
I0208 09:14:27.907634 17395 net.cpp:84] Creating Layer ip1
I0208 09:14:27.907639 17395 net.cpp:380] ip1 <- pool3
I0208 09:14:27.907646 17395 net.cpp:338] ip1 -> ip1
I0208 09:14:27.907655 17395 net.cpp:113] Setting up ip1
I0208 09:14:27.909833 17395 net.cpp:120] Top shape: 100 64 (6400)
I0208 09:14:27.909852 17395 layer_factory.hpp:74] Creating layer ip2
I0208 09:14:27.909863 17395 net.cpp:84] Creating Layer ip2
I0208 09:14:27.909868 17395 net.cpp:380] ip2 <- ip1
I0208 09:14:27.909878 17395 net.cpp:338] ip2 -> ip2
I0208 09:14:27.909885 17395 net.cpp:113] Setting up ip2
I0208 09:14:27.910147 17395 net.cpp:120] Top shape: 100 100 (10000)
I0208 09:14:27.910167 17395 layer_factory.hpp:74] Creating layer ip2_ip2_0_split
I0208 09:14:27.910174 17395 net.cpp:84] Creating Layer ip2_ip2_0_split
I0208 09:14:27.910179 17395 net.cpp:380] ip2_ip2_0_split <- ip2
I0208 09:14:27.910187 17395 net.cpp:338] ip2_ip2_0_split -> ip2_ip2_0_split_0
I0208 09:14:27.910194 17395 net.cpp:338] ip2_ip2_0_split -> ip2_ip2_0_split_1
I0208 09:14:27.910202 17395 net.cpp:113] Setting up ip2_ip2_0_split
I0208 09:14:27.910208 17395 net.cpp:120] Top shape: 100 100 (10000)
I0208 09:14:27.910213 17395 net.cpp:120] Top shape: 100 100 (10000)
I0208 09:14:27.910218 17395 layer_factory.hpp:74] Creating layer accuracy
I0208 09:14:27.910226 17395 net.cpp:84] Creating Layer accuracy
I0208 09:14:27.910231 17395 net.cpp:380] accuracy <- ip2_ip2_0_split_0
I0208 09:14:27.910236 17395 net.cpp:380] accuracy <- label_cifar_1_split_0
I0208 09:14:27.910245 17395 net.cpp:338] accuracy -> accuracy
I0208 09:14:27.910254 17395 net.cpp:113] Setting up accuracy
…
