…
I0210 15:43:05.091884 32680 net.cpp:322] The NetState phase (0) differed from the phase (1) specified by a rule in layer cifar
I0210 15:43:05.091915 32680 net.cpp:322] The NetState phase (0) differed from the phase (1) specified by a rule in layer accuracy
I0210 15:43:05.092074 32680 net.cpp:49] Initializing net from parameters: 
name: "CIFAR100_quick"
state {
  phase: TRAIN
}
layer {
  name: "cifar"
  type: "Data"
  top: "data"
  top: "label"
  include {
    phase: TRAIN
  }
  transform_param {
    mirror: true
    crop_size: 31
  }
  data_param {
    source: "examples/GCN_cifar100/GCN_cifar100_train_lmdb"
    batch_size: 100
    backend: LMDB
  }
}
layer {
  name: "conv1"
  type: "Convolution"
  bottom: "data"
  top: "conv1"
  param {
    lr_mult: 1
  }
  param {
    lr_mult: 2
  }
  convolution_param {
    num_output: 32
    pad: 2
    kernel_size: 5
    stride: 1
    weight_filler {
      type: "gaussian"
      std: 0.0001
    }
    bias_filler {
      type: "constant"
    }
  }
}
layer {
  name: "pool1"
  type: "Pooling"
  bottom: "conv1"
  top: "pool1"
  pooling_param {
    pool: MAX
    kernel_size: 3
    stride: 2
  }
}
layer {
  name: "relu1"
  type: "ReLU"
  bottom: "pool1"
  top: "pool1"
}
layer {
  name: "conv2"
  type: "Convolution"
  bottom: "pool1"
  top: "conv2"
  param {
    lr_mult: 1
  }
  param {
    lr_mult: 2
  }
  convolution_param {
    num_output: 32
    pad: 2
    kernel_size: 5
    stride: 1
    weight_filler {
      type: "gaussian"
      std: 0.01
    }
    bias_filler {
      type: "constant"
    }
  }
}
layer {
  name: "relu2"
  type: "ReLU"
  bottom: "conv2"
  top: "conv2"
}
layer {
  name: "pool2"
  type: "Pooling"
  bottom: "conv2"
  top: "pool2"
  pooling_param {
    pool: AVE
    kernel_size: 3
    stride: 2
  }
}
layer {
  name: "conv3"
  type: "Convolution"
  bottom: "pool2"
  top: "conv3"
  param {
    lr_mult: 1
  }
  param {
    lr_mult: 2
  }
  convolution_param {
    num_output: 64
    pad: 2
    kernel_size: 5
    stride: 1
    weight_filler {
      type: "gaussian"
      std: 0.01
    }
    bias_filler {
      type: "constant"
    }
  }
}
layer {
  name: "relu3"
  type: "ReLU"
  bottom: "conv3"
  top: "conv3"
}
layer {
  name: "pool3"
  type: "Pooling"
  bottom: "conv3"
  top: "pool3"
  pooling_param {
    pool: AVE
    kernel_size: 3
    stride: 2
  }
}
layer {
  name: "ip1"
  type: "InnerProduct"
  bottom: "pool3"
  top: "ip1"
  param {
    lr_mult: 1
  }
  param {
    lr_mult: 2
  }
  inner_product_param {
    num_output: 64
    weight_filler {
      type: "gaussian"
      std: 0.1
    }
    bias_filler {
      type: "constant"
    }
  }
}
layer {
  name: "ip2"
  type: "InnerProduct"
  bottom: "ip1"
  top: "ip2"
  param {
    lr_mult: 1
  }
  param {
    lr_mult: 2
  }
  inner_product_param {
    num_output: 100
    weight_filler {
      type: "gaussian"
      std: 0.1
    }
    bias_filler {
      type: "constant"
    }
  }
}
layer {
  name: "loss"
  type: "SoftmaxWithLoss"
  bottom: "ip2"
  bottom: "label"
  top: "loss"
}
I0210 15:43:05.092231 32680 layer_factory.hpp:77] Creating layer cifar
I0210 15:43:05.092783 32680 net.cpp:106] Creating Layer cifar
I0210 15:43:05.092816 32680 net.cpp:411] cifar -> data
I0210 15:43:05.092885 32680 net.cpp:411] cifar -> label
I0210 15:43:05.093452 32683 db_lmdb.cpp:38] Opened lmdb examples/GCN_cifar100/GCN_cifar100_train_lmdb
I0210 15:43:05.145526 32680 data_layer.cpp:41] output data size: 100,3,31,31
I0210 15:43:05.153111 32680 net.cpp:150] Setting up cifar
I0210 15:43:05.153165 32680 net.cpp:157] Top shape: 100 3 31 31 (288300)
I0210 15:43:05.153192 32680 net.cpp:157] Top shape: 100 (100)
I0210 15:43:05.153203 32680 net.cpp:165] Memory required for data: 1153600
I0210 15:43:05.153218 32680 layer_factory.hpp:77] Creating layer conv1
I0210 15:43:05.153270 32680 net.cpp:106] Creating Layer conv1
I0210 15:43:05.153290 32680 net.cpp:454] conv1 <- data
I0210 15:43:05.153321 32680 net.cpp:411] conv1 -> conv1
I0210 15:43:05.154765 32680 net.cpp:150] Setting up conv1
I0210 15:43:05.154789 32680 net.cpp:157] Top shape: 100 32 31 31 (3075200)
I0210 15:43:05.154798 32680 net.cpp:165] Memory required for data: 13454400
I0210 15:43:05.154834 32680 layer_factory.hpp:77] Creating layer pool1
I0210 15:43:05.154865 32680 net.cpp:106] Creating Layer pool1
I0210 15:43:05.154903 32680 net.cpp:454] pool1 <- conv1
I0210 15:43:05.154929 32680 net.cpp:411] pool1 -> pool1
I0210 15:43:05.155000 32680 net.cpp:150] Setting up pool1
I0210 15:43:05.155025 32680 net.cpp:157] Top shape: 100 32 15 15 (720000)
I0210 15:43:05.155036 32680 net.cpp:165] Memory required for data: 16334400
I0210 15:43:05.155046 32680 layer_factory.hpp:77] Creating layer relu1
I0210 15:43:05.155063 32680 net.cpp:106] Creating Layer relu1
I0210 15:43:05.155076 32680 net.cpp:454] relu1 <- pool1
I0210 15:43:05.155088 32680 net.cpp:397] relu1 -> pool1 (in-place)
I0210 15:43:05.155112 32680 net.cpp:150] Setting up relu1
I0210 15:43:05.155133 32680 net.cpp:157] Top shape: 100 32 15 15 (720000)
I0210 15:43:05.155143 32680 net.cpp:165] Memory required for data: 19214400
I0210 15:43:05.155153 32680 layer_factory.hpp:77] Creating layer conv2
I0210 15:43:05.155201 32680 net.cpp:106] Creating Layer conv2
I0210 15:43:05.155220 32680 net.cpp:454] conv2 <- pool1
I0210 15:43:05.155241 32680 net.cpp:411] conv2 -> conv2
I0210 15:43:05.156752 32680 net.cpp:150] Setting up conv2
I0210 15:43:05.156777 32680 net.cpp:157] Top shape: 100 32 15 15 (720000)
I0210 15:43:05.156787 32680 net.cpp:165] Memory required for data: 22094400
I0210 15:43:05.156808 32680 layer_factory.hpp:77] Creating layer relu2
I0210 15:43:05.156831 32680 net.cpp:106] Creating Layer relu2
I0210 15:43:05.156848 32680 net.cpp:454] relu2 <- conv2
I0210 15:43:05.156865 32680 net.cpp:397] relu2 -> conv2 (in-place)
I0210 15:43:05.156885 32680 net.cpp:150] Setting up relu2
I0210 15:43:05.156911 32680 net.cpp:157] Top shape: 100 32 15 15 (720000)
I0210 15:43:05.156920 32680 net.cpp:165] Memory required for data: 24974400
I0210 15:43:05.156930 32680 layer_factory.hpp:77] Creating layer pool2
I0210 15:43:05.156945 32680 net.cpp:106] Creating Layer pool2
I0210 15:43:05.156955 32680 net.cpp:454] pool2 <- conv2
I0210 15:43:05.156980 32680 net.cpp:411] pool2 -> pool2
I0210 15:43:05.157033 32680 net.cpp:150] Setting up pool2
I0210 15:43:05.157058 32680 net.cpp:157] Top shape: 100 32 7 7 (156800)
I0210 15:43:05.157068 32680 net.cpp:165] Memory required for data: 25601600
I0210 15:43:05.157078 32680 layer_factory.hpp:77] Creating layer conv3
I0210 15:43:05.157099 32680 net.cpp:106] Creating Layer conv3
I0210 15:43:05.157112 32680 net.cpp:454] conv3 <- pool2
I0210 15:43:05.157132 32680 net.cpp:411] conv3 -> conv3
I0210 15:43:05.159073 32680 net.cpp:150] Setting up conv3
I0210 15:43:05.159096 32680 net.cpp:157] Top shape: 100 64 7 7 (313600)
I0210 15:43:05.159104 32680 net.cpp:165] Memory required for data: 26856000
I0210 15:43:05.159126 32680 layer_factory.hpp:77] Creating layer relu3
I0210 15:43:05.159167 32680 net.cpp:106] Creating Layer relu3
I0210 15:43:05.159183 32680 net.cpp:454] relu3 <- conv3
I0210 15:43:05.159203 32680 net.cpp:397] relu3 -> conv3 (in-place)
I0210 15:43:05.159222 32680 net.cpp:150] Setting up relu3
I0210 15:43:05.159238 32680 net.cpp:157] Top shape: 100 64 7 7 (313600)
I0210 15:43:05.159246 32680 net.cpp:165] Memory required for data: 28110400
I0210 15:43:05.159260 32680 layer_factory.hpp:77] Creating layer pool3
I0210 15:43:05.159276 32680 net.cpp:106] Creating Layer pool3
I0210 15:43:05.159286 32680 net.cpp:454] pool3 <- conv3
I0210 15:43:05.159306 32680 net.cpp:411] pool3 -> pool3
I0210 15:43:05.159365 32680 net.cpp:150] Setting up pool3
I0210 15:43:05.159385 32680 net.cpp:157] Top shape: 100 64 3 3 (57600)
I0210 15:43:05.159394 32680 net.cpp:165] Memory required for data: 28340800
I0210 15:43:05.159404 32680 layer_factory.hpp:77] Creating layer ip1
I0210 15:43:05.159433 32680 net.cpp:106] Creating Layer ip1
I0210 15:43:05.159453 32680 net.cpp:454] ip1 <- pool3
I0210 15:43:05.159473 32680 net.cpp:411] ip1 -> ip1
I0210 15:43:05.160758 32680 net.cpp:150] Setting up ip1
I0210 15:43:05.160784 32680 net.cpp:157] Top shape: 100 64 (6400)
I0210 15:43:05.160794 32680 net.cpp:165] Memory required for data: 28366400
I0210 15:43:05.160809 32680 layer_factory.hpp:77] Creating layer ip2
I0210 15:43:05.160826 32680 net.cpp:106] Creating Layer ip2
I0210 15:43:05.160835 32680 net.cpp:454] ip2 <- ip1
I0210 15:43:05.160851 32680 net.cpp:411] ip2 -> ip2
I0210 15:43:05.161651 32680 net.cpp:150] Setting up ip2
I0210 15:43:05.161675 32680 net.cpp:157] Top shape: 100 100 (10000)
I0210 15:43:05.161685 32680 net.cpp:165] Memory required for data: 28406400
I0210 15:43:05.161706 32680 layer_factory.hpp:77] Creating layer loss
I0210 15:43:05.161725 32680 net.cpp:106] Creating Layer loss
I0210 15:43:05.161736 32680 net.cpp:454] loss <- ip2
I0210 15:43:05.161747 32680 net.cpp:454] loss <- label
I0210 15:43:05.161762 32680 net.cpp:411] loss -> loss
I0210 15:43:05.161792 32680 layer_factory.hpp:77] Creating layer loss
…
I0210 15:43:05.162660 32680 solver.cpp:181] Creating test net (#0) specified by net file: examples/GCN_cifar100/GCN_cifar100_quick_train_test.prototxt
I0210 15:43:05.162734 32680 net.cpp:322] The NetState phase (1) differed from the phase (0) specified by a rule in layer cifar
I0210 15:43:05.162906 32680 net.cpp:49] Initializing net from parameters: 
name: "CIFAR100_quick"
state {
  phase: TEST
}
layer {
  name: "cifar"
  type: "Data"
  top: "data"
  top: "label"
  include {
    phase: TEST
  }
  transform_param {
    mirror: true
    crop_size: 31
  }
  data_param {
    source: "examples/GCN_cifar100/GCN_cifar100_test_lmdb"
    batch_size: 100
    backend: LMDB
  }
}
layer {
  name: "conv1"
  type: "Convolution"
  bottom: "data"
  top: "conv1"
  param {
    lr_mult: 1
  }
  param {
    lr_mult: 2
  }
  convolution_param {
    num_output: 32
    pad: 2
    kernel_size: 5
    stride: 1
    weight_filler {
      type: "gaussian"
      std: 0.0001
    }
    bias_filler {
      type: "constant"
    }
  }
}
layer {
  name: "pool1"
  type: "Pooling"
  bottom: "conv1"
  top: "pool1"
  pooling_param {
    pool: MAX
    kernel_size: 3
    stride: 2
  }
}
layer {
  name: "relu1"
  type: "ReLU"
  bottom: "pool1"
  top: "pool1"
}
layer {
  name: "conv2"
  type: "Convolution"
  bottom: "pool1"
  top: "conv2"
  param {
    lr_mult: 1
  }
  param {
    lr_mult: 2
  }
  convolution_param {
    num_output: 32
    pad: 2
    kernel_size: 5
    stride: 1
    weight_filler {
      type: "gaussian"
      std: 0.01
    }
    bias_filler {
      type: "constant"
    }
  }
}
layer {
  name: "relu2"
  type: "ReLU"
  bottom: "conv2"
  top: "conv2"
}
layer {
  name: "pool2"
  type: "Pooling"
  bottom: "conv2"
  top: "pool2"
  pooling_param {
    pool: AVE
    kernel_size: 3
    stride: 2
  }
}
layer {
  name: "conv3"
  type: "Convolution"
  bottom: "pool2"
  top: "conv3"
  param {
    lr_mult: 1
  }
  param {
    lr_mult: 2
  }
  convolution_param {
    num_output: 64
    pad: 2
    kernel_size: 5
    stride: 1
    weight_filler {
      type: "gaussian"
      std: 0.01
    }
    bias_filler {
      type: "constant"
    }
  }
}
layer {
  name: "relu3"
  type: "ReLU"
  bottom: "conv3"
  top: "conv3"
}
layer {
  name: "pool3"
  type: "Pooling"
  bottom: "conv3"
  top: "pool3"
  pooling_param {
    pool: AVE
    kernel_size: 3
    stride: 2
  }
}
layer {
  name: "ip1"
  type: "InnerProduct"
  bottom: "pool3"
  top: "ip1"
  param {
    lr_mult: 1
  }
  param {
    lr_mult: 2
  }
  inner_product_param {
    num_output: 64
    weight_filler {
      type: "gaussian"
      std: 0.1
    }
    bias_filler {
      type: "constant"
    }
  }
}
layer {
  name: "ip2"
  type: "InnerProduct"
  bottom: "ip1"
  top: "ip2"
  param {
    lr_mult: 1
  }
  param {
    lr_mult: 2
  }
  inner_product_param {
    num_output: 100
    weight_filler {
      type: "gaussian"
      std: 0.1
    }
    bias_filler {
      type: "constant"
    }
  }
}
layer {
  name: "accuracy"
  type: "Accuracy"
  bottom: "ip2"
  bottom: "label"
  top: "accuracy"
  include {
    phase: TEST
  }
}
layer {
  name: "loss"
  type: "SoftmaxWithLoss"
  bottom: "ip2"
  bottom: "label"
  top: "loss"
}
I0210 15:43:05.163092 32680 layer_factory.hpp:77] Creating layer cifar
I0210 15:43:05.163305 32680 net.cpp:106] Creating Layer cifar
I0210 15:43:05.163380 32680 net.cpp:411] cifar -> data
I0210 15:43:05.163406 32680 net.cpp:411] cifar -> label
I0210 15:43:05.164315 32685 db_lmdb.cpp:38] Opened lmdb examples/GCN_cifar100/GCN_cifar100_test_lmdb
I0210 15:43:05.164443 32680 data_layer.cpp:41] output data size: 100,3,31,31
I0210 15:43:05.169373 32680 net.cpp:150] Setting up cifar
I0210 15:43:05.169405 32680 net.cpp:157] Top shape: 100 3 31 31 (288300)
I0210 15:43:05.169420 32680 net.cpp:157] Top shape: 100 (100)
I0210 15:43:05.169430 32680 net.cpp:165] Memory required for data: 1153600
I0210 15:43:05.169440 32680 layer_factory.hpp:77] Creating layer label_cifar_1_split
I0210 15:43:05.169461 32680 net.cpp:106] Creating Layer label_cifar_1_split
I0210 15:43:05.169471 32680 net.cpp:454] label_cifar_1_split <- label
I0210 15:43:05.169486 32680 net.cpp:411] label_cifar_1_split -> label_cifar_1_split_0
I0210 15:43:05.169504 32680 net.cpp:411] label_cifar_1_split -> label_cifar_1_split_1
I0210 15:43:05.169572 32680 net.cpp:150] Setting up label_cifar_1_split
I0210 15:43:05.169595 32680 net.cpp:157] Top shape: 100 (100)
I0210 15:43:05.169607 32680 net.cpp:157] Top shape: 100 (100)
I0210 15:43:05.169615 32680 net.cpp:165] Memory required for data: 1154400
I0210 15:43:05.169625 32680 layer_factory.hpp:77] Creating layer conv1
I0210 15:43:05.169652 32680 net.cpp:106] Creating Layer conv1
I0210 15:43:05.169666 32680 net.cpp:454] conv1 <- data
I0210 15:43:05.169685 32680 net.cpp:411] conv1 -> conv1
I0210 15:43:05.170078 32680 net.cpp:150] Setting up conv1
I0210 15:43:05.170099 32680 net.cpp:157] Top shape: 100 32 31 31 (3075200)
I0210 15:43:05.170109 32680 net.cpp:165] Memory required for data: 13455200
I0210 15:43:05.170131 32680 layer_factory.hpp:77] Creating layer pool1
I0210 15:43:05.170147 32680 net.cpp:106] Creating Layer pool1
I0210 15:43:05.170157 32680 net.cpp:454] pool1 <- conv1
I0210 15:43:05.170176 32680 net.cpp:411] pool1 -> pool1
I0210 15:43:05.170339 32680 net.cpp:150] Setting up pool1
I0210 15:43:05.170364 32680 net.cpp:157] Top shape: 100 32 15 15 (720000)
I0210 15:43:05.170392 32680 net.cpp:165] Memory required for data: 16335200
I0210 15:43:05.170403 32680 layer_factory.hpp:77] Creating layer relu1
I0210 15:43:05.170419 32680 net.cpp:106] Creating Layer relu1
I0210 15:43:05.170428 32680 net.cpp:454] relu1 <- pool1
I0210 15:43:05.170441 32680 net.cpp:397] relu1 -> pool1 (in-place)
I0210 15:43:05.170456 32680 net.cpp:150] Setting up relu1
I0210 15:43:05.170472 32680 net.cpp:157] Top shape: 100 32 15 15 (720000)
I0210 15:43:05.170481 32680 net.cpp:165] Memory required for data: 19215200
I0210 15:43:05.170491 32680 layer_factory.hpp:77] Creating layer conv2
I0210 15:43:05.170516 32680 net.cpp:106] Creating Layer conv2
I0210 15:43:05.170534 32680 net.cpp:454] conv2 <- pool1
I0210 15:43:05.170555 32680 net.cpp:411] conv2 -> conv2
I0210 15:43:05.171604 32680 net.cpp:150] Setting up conv2
I0210 15:43:05.171627 32680 net.cpp:157] Top shape: 100 32 15 15 (720000)
I0210 15:43:05.171635 32680 net.cpp:165] Memory required for data: 22095200
I0210 15:43:05.171655 32680 layer_factory.hpp:77] Creating layer relu2
I0210 15:43:05.171674 32680 net.cpp:106] Creating Layer relu2
I0210 15:43:05.171684 32680 net.cpp:454] relu2 <- conv2
I0210 15:43:05.171699 32680 net.cpp:397] relu2 -> conv2 (in-place)
I0210 15:43:05.171713 32680 net.cpp:150] Setting up relu2
I0210 15:43:05.171733 32680 net.cpp:157] Top shape: 100 32 15 15 (720000)
I0210 15:43:05.171743 32680 net.cpp:165] Memory required for data: 24975200
I0210 15:43:05.171752 32680 layer_factory.hpp:77] Creating layer pool2
I0210 15:43:05.171766 32680 net.cpp:106] Creating Layer pool2
I0210 15:43:05.171775 32680 net.cpp:454] pool2 <- conv2
I0210 15:43:05.171793 32680 net.cpp:411] pool2 -> pool2
I0210 15:43:05.171838 32680 net.cpp:150] Setting up pool2
I0210 15:43:05.171857 32680 net.cpp:157] Top shape: 100 32 7 7 (156800)
I0210 15:43:05.171866 32680 net.cpp:165] Memory required for data: 25602400
I0210 15:43:05.171875 32680 layer_factory.hpp:77] Creating layer conv3
I0210 15:43:05.171905 32680 net.cpp:106] Creating Layer conv3
I0210 15:43:05.171918 32680 net.cpp:454] conv3 <- pool2
I0210 15:43:05.171936 32680 net.cpp:411] conv3 -> conv3
I0210 15:43:05.173792 32680 net.cpp:150] Setting up conv3
I0210 15:43:05.173816 32680 net.cpp:157] Top shape: 100 64 7 7 (313600)
I0210 15:43:05.173831 32680 net.cpp:165] Memory required for data: 26856800
I0210 15:43:05.173852 32680 layer_factory.hpp:77] Creating layer relu3
I0210 15:43:05.173867 32680 net.cpp:106] Creating Layer relu3
I0210 15:43:05.173882 32680 net.cpp:454] relu3 <- conv3
I0210 15:43:05.173895 32680 net.cpp:397] relu3 -> conv3 (in-place)
I0210 15:43:05.173915 32680 net.cpp:150] Setting up relu3
I0210 15:43:05.173930 32680 net.cpp:157] Top shape: 100 64 7 7 (313600)
I0210 15:43:05.173939 32680 net.cpp:165] Memory required for data: 28111200
I0210 15:43:05.173949 32680 layer_factory.hpp:77] Creating layer pool3
I0210 15:43:05.173962 32680 net.cpp:106] Creating Layer pool3
I0210 15:43:05.173972 32680 net.cpp:454] pool3 <- conv3
I0210 15:43:05.173990 32680 net.cpp:411] pool3 -> pool3
I0210 15:43:05.174037 32680 net.cpp:150] Setting up pool3
I0210 15:43:05.174062 32680 net.cpp:157] Top shape: 100 64 3 3 (57600)
I0210 15:43:05.174072 32680 net.cpp:165] Memory required for data: 28341600
I0210 15:43:05.174082 32680 layer_factory.hpp:77] Creating layer ip1
I0210 15:43:05.174098 32680 net.cpp:106] Creating Layer ip1
I0210 15:43:05.174108 32680 net.cpp:454] ip1 <- pool3
I0210 15:43:05.174126 32680 net.cpp:411] ip1 -> ip1
I0210 15:43:05.175477 32680 net.cpp:150] Setting up ip1
I0210 15:43:05.175498 32680 net.cpp:157] Top shape: 100 64 (6400)
I0210 15:43:05.175508 32680 net.cpp:165] Memory required for data: 28367200
I0210 15:43:05.175524 32680 layer_factory.hpp:77] Creating layer ip2
I0210 15:43:05.175549 32680 net.cpp:106] Creating Layer ip2
I0210 15:43:05.175560 32680 net.cpp:454] ip2 <- ip1
I0210 15:43:05.175576 32680 net.cpp:411] ip2 -> ip2
I0210 15:43:05.175902 32680 net.cpp:150] Setting up ip2
I0210 15:43:05.175925 32680 net.cpp:157] Top shape: 100 100 (10000)
I0210 15:43:05.175933 32680 net.cpp:165] Memory required for data: 28407200
I0210 15:43:05.175973 32680 layer_factory.hpp:77] Creating layer ip2_ip2_0_split
I0210 15:43:05.175988 32680 net.cpp:106] Creating Layer ip2_ip2_0_split
I0210 15:43:05.175998 32680 net.cpp:454] ip2_ip2_0_split <- ip2
I0210 15:43:05.176012 32680 net.cpp:411] ip2_ip2_0_split -> ip2_ip2_0_split_0
I0210 15:43:05.176033 32680 net.cpp:411] ip2_ip2_0_split -> ip2_ip2_0_split_1
I0210 15:43:05.176100 32680 net.cpp:150] Setting up ip2_ip2_0_split
I0210 15:43:05.176115 32680 net.cpp:157] Top shape: 100 100 (10000)
I0210 15:43:05.176126 32680 net.cpp:157] Top shape: 100 100 (10000)
I0210 15:43:05.176134 32680 net.cpp:165] Memory required for data: 28487200
I0210 15:43:05.176142 32680 layer_factory.hpp:77] Creating layer accuracy
I0210 15:43:05.176162 32680 net.cpp:106] Creating Layer accuracy
I0210 15:43:05.176170 32680 net.cpp:454] accuracy <- ip2_ip2_0_split_0
I0210 15:43:05.176182 32680 net.cpp:454] accuracy <- label_cifar_1_split_0
I0210 15:43:05.176198 32680 net.cpp:411] accuracy -> accuracy
…
