…
I0212 12:06:52.320531  4120 net.cpp:322] The NetState phase (0) differed from the phase (1) specified by a rule in layer accuracy
I0212 12:06:52.320642  4120 net.cpp:49] Initializing net from parameters: 
name: "CIFAR100_quick"
state {
  phase: TRAIN
}
layer {
  name: "cifar"
  type: "Data"
  top: "data"
  top: "label"
  include {
    phase: TRAIN
  }
  transform_param {
    mirror: true
    crop_size: 31
    mean_file: "examples/GCN100_cifar100/GCN100_mean.binaryproto"
  }
  data_param {
    source: "examples/GCN100_cifar100/GCN100_cifar100_train_lmdb"
    scale: 0.00390625
    batch_size: 100
    backend: LMDB
  }
}
layer {
  name: "conv1"
  type: "Convolution"
  bottom: "data"
  top: "conv1"
  param {
    lr_mult: 1
  }
  param {
    lr_mult: 2
  }
  convolution_param {
    num_output: 32
    pad: 2
    kernel_size: 5
    stride: 1
    weight_filler {
      type: "gaussian"
      std: 0.0001
    }
    bias_filler {
      type: "constant"
    }
  }
}
layer {
  name: "pool1"
  type: "Pooling"
  bottom: "conv1"
  top: "pool1"
  pooling_param {
    pool: MAX
    kernel_size: 3
    stride: 2
  }
}
layer {
  name: "relu1"
  type: "ReLU"
  bottom: "pool1"
  top: "pool1"
}
layer {
  name: "conv2"
  type: "Convolution"
  bottom: "pool1"
  top: "conv2"
  param {
    lr_mult: 1
  }
  param {
    lr_mult: 2
  }
  convolution_param {
    num_output: 32
    pad: 2
    kernel_size: 5
    stride: 1
    weight_filler {
      type: "gaussian"
      std: 0.01
    }
    bias_filler {
      type: "constant"
    }
  }
}
layer {
  name: "relu2"
  type: "ReLU"
  bottom: "conv2"
  top: "conv2"
}
layer {
  name: "pool2"
  type: "Pooling"
  bottom: "conv2"
  top: "pool2"
  pooling_param {
    pool: AVE
    kernel_size: 3
    stride: 2
  }
}
layer {
  name: "conv3"
  type: "Convolution"
  bottom: "pool2"
  top: "conv3"
  param {
    lr_mult: 1
  }
  param {
    lr_mult: 2
  }
  convolution_param {
    num_output: 64
    pad: 2
    kernel_size: 5
    stride: 1
    weight_filler {
      type: "gaussian"
      std: 0.01
    }
    bias_filler {
      type: "constant"
    }
  }
}
layer {
  name: "relu3"
  type: "ReLU"
  bottom: "conv3"
  top: "conv3"
}
layer {
  name: "pool3"
  type: "Pooling"
  bottom: "conv3"
  top: "pool3"
  pooling_param {
    pool: AVE
    kernel_size: 3
    stride: 2
  }
}
layer {
  name: "ip1"
  type: "InnerProduct"
  bottom: "pool3"
  top: "ip1"
  param {
    lr_mult: 1
  }
  param {
    lr_mult: 2
  }
  inner_product_param {
    num_output: 64
    weight_filler {
      type: "gaussian"
      std: 0.1
    }
    bias_filler {
      type: "constant"
    }
  }
}
layer {
  name: "ip2"
  type: "InnerProduct"
  bottom: "ip1"
  top: "ip2"
  param {
    lr_mult: 1
  }
  param {
    lr_mult: 2
  }
  inner_product_param {
    num_output: 100
    weight_filler {
      type: "gaussian"
      std: 0.1
    }
    bias_filler {
      type: "constant"
    }
  }
}
layer {
  name: "loss"
  type: "SoftmaxWithLoss"
  bottom: "ip2"
  bottom: "label"
  top: "loss"
}
I0212 12:06:52.320720  4120 layer_factory.hpp:77] Creating layer cifar
I0212 12:06:52.321252  4120 net.cpp:106] Creating Layer cifar
I0212 12:06:52.321267  4120 net.cpp:411] cifar -> data
I0212 12:06:52.321292  4120 net.cpp:411] cifar -> label
I0212 12:06:52.321934  4126 db_lmdb.cpp:38] Opened lmdb examples/GCN100_cifar100/GCN100_cifar100_train_lmdb
I0212 12:06:52.321315  4120 data_transformer.cpp:25] Loading mean file from: examples/GCN100_cifar100/GCN100_mean.binaryproto
I0212 12:06:52.344941  4120 data_layer.cpp:41] output data size: 100,3,31,31
I0212 12:06:52.347116  4120 net.cpp:150] Setting up cifar
I0212 12:06:52.347185  4120 net.cpp:157] Top shape: 100 3 31 31 (288300)
I0212 12:06:52.347208  4120 net.cpp:157] Top shape: 100 (100)
I0212 12:06:52.347223  4120 net.cpp:165] Memory required for data: 1153600
I0212 12:06:52.347242  4120 layer_factory.hpp:77] Creating layer conv1
I0212 12:06:52.347285  4120 net.cpp:106] Creating Layer conv1
I0212 12:06:52.347295  4120 net.cpp:454] conv1 <- data
I0212 12:06:52.347313  4120 net.cpp:411] conv1 -> conv1
I0212 12:06:52.348059  4120 net.cpp:150] Setting up conv1
I0212 12:06:52.348080  4120 net.cpp:157] Top shape: 100 32 31 31 (3075200)
I0212 12:06:52.348083  4120 net.cpp:165] Memory required for data: 13454400
I0212 12:06:52.348096  4120 layer_factory.hpp:77] Creating layer pool1
I0212 12:06:52.348106  4120 net.cpp:106] Creating Layer pool1
I0212 12:06:52.348111  4120 net.cpp:454] pool1 <- conv1
I0212 12:06:52.348117  4120 net.cpp:411] pool1 -> pool1
I0212 12:06:52.348255  4120 net.cpp:150] Setting up pool1
I0212 12:06:52.348263  4120 net.cpp:157] Top shape: 100 32 15 15 (720000)
I0212 12:06:52.348275  4120 net.cpp:165] Memory required for data: 16334400
I0212 12:06:52.348278  4120 layer_factory.hpp:77] Creating layer relu1
I0212 12:06:52.348283  4120 net.cpp:106] Creating Layer relu1
I0212 12:06:52.348284  4120 net.cpp:454] relu1 <- pool1
I0212 12:06:52.348289  4120 net.cpp:397] relu1 -> pool1 (in-place)
I0212 12:06:52.348300  4120 net.cpp:150] Setting up relu1
I0212 12:06:52.348306  4120 net.cpp:157] Top shape: 100 32 15 15 (720000)
I0212 12:06:52.348309  4120 net.cpp:165] Memory required for data: 19214400
I0212 12:06:52.348314  4120 layer_factory.hpp:77] Creating layer conv2
I0212 12:06:52.348326  4120 net.cpp:106] Creating Layer conv2
I0212 12:06:52.348332  4120 net.cpp:454] conv2 <- pool1
I0212 12:06:52.348340  4120 net.cpp:411] conv2 -> conv2
I0212 12:06:52.349545  4120 net.cpp:150] Setting up conv2
I0212 12:06:52.349560  4120 net.cpp:157] Top shape: 100 32 15 15 (720000)
I0212 12:06:52.349563  4120 net.cpp:165] Memory required for data: 22094400
I0212 12:06:52.349570  4120 layer_factory.hpp:77] Creating layer relu2
I0212 12:06:52.349575  4120 net.cpp:106] Creating Layer relu2
I0212 12:06:52.349581  4120 net.cpp:454] relu2 <- conv2
I0212 12:06:52.349589  4120 net.cpp:397] relu2 -> conv2 (in-place)
I0212 12:06:52.349597  4120 net.cpp:150] Setting up relu2
I0212 12:06:52.349603  4120 net.cpp:157] Top shape: 100 32 15 15 (720000)
I0212 12:06:52.349609  4120 net.cpp:165] Memory required for data: 24974400
I0212 12:06:52.349613  4120 layer_factory.hpp:77] Creating layer pool2
I0212 12:06:52.349622  4120 net.cpp:106] Creating Layer pool2
I0212 12:06:52.349627  4120 net.cpp:454] pool2 <- conv2
I0212 12:06:52.349634  4120 net.cpp:411] pool2 -> pool2
I0212 12:06:52.349661  4120 net.cpp:150] Setting up pool2
I0212 12:06:52.349670  4120 net.cpp:157] Top shape: 100 32 7 7 (156800)
I0212 12:06:52.349674  4120 net.cpp:165] Memory required for data: 25601600
I0212 12:06:52.349680  4120 layer_factory.hpp:77] Creating layer conv3
I0212 12:06:52.349694  4120 net.cpp:106] Creating Layer conv3
I0212 12:06:52.349701  4120 net.cpp:454] conv3 <- pool2
I0212 12:06:52.349714  4120 net.cpp:411] conv3 -> conv3
I0212 12:06:52.351363  4120 net.cpp:150] Setting up conv3
I0212 12:06:52.351382  4120 net.cpp:157] Top shape: 100 64 7 7 (313600)
I0212 12:06:52.351387  4120 net.cpp:165] Memory required for data: 26856000
I0212 12:06:52.351398  4120 layer_factory.hpp:77] Creating layer relu3
I0212 12:06:52.351407  4120 net.cpp:106] Creating Layer relu3
I0212 12:06:52.351411  4120 net.cpp:454] relu3 <- conv3
I0212 12:06:52.351418  4120 net.cpp:397] relu3 -> conv3 (in-place)
I0212 12:06:52.351428  4120 net.cpp:150] Setting up relu3
I0212 12:06:52.351433  4120 net.cpp:157] Top shape: 100 64 7 7 (313600)
I0212 12:06:52.351438  4120 net.cpp:165] Memory required for data: 28110400
I0212 12:06:52.351440  4120 layer_factory.hpp:77] Creating layer pool3
I0212 12:06:52.351464  4120 net.cpp:106] Creating Layer pool3
I0212 12:06:52.351475  4120 net.cpp:454] pool3 <- conv3
I0212 12:06:52.351480  4120 net.cpp:411] pool3 -> pool3
I0212 12:06:52.351505  4120 net.cpp:150] Setting up pool3
I0212 12:06:52.351511  4120 net.cpp:157] Top shape: 100 64 3 3 (57600)
I0212 12:06:52.351516  4120 net.cpp:165] Memory required for data: 28340800
I0212 12:06:52.351519  4120 layer_factory.hpp:77] Creating layer ip1
I0212 12:06:52.351531  4120 net.cpp:106] Creating Layer ip1
I0212 12:06:52.351536  4120 net.cpp:454] ip1 <- pool3
I0212 12:06:52.351542  4120 net.cpp:411] ip1 -> ip1
I0212 12:06:52.352700  4120 net.cpp:150] Setting up ip1
I0212 12:06:52.352710  4120 net.cpp:157] Top shape: 100 64 (6400)
I0212 12:06:52.352711  4120 net.cpp:165] Memory required for data: 28366400
I0212 12:06:52.352716  4120 layer_factory.hpp:77] Creating layer ip2
I0212 12:06:52.352726  4120 net.cpp:106] Creating Layer ip2
I0212 12:06:52.352730  4120 net.cpp:454] ip2 <- ip1
I0212 12:06:52.352736  4120 net.cpp:411] ip2 -> ip2
I0212 12:06:52.353353  4120 net.cpp:150] Setting up ip2
I0212 12:06:52.353363  4120 net.cpp:157] Top shape: 100 100 (10000)
I0212 12:06:52.353364  4120 net.cpp:165] Memory required for data: 28406400
I0212 12:06:52.353374  4120 layer_factory.hpp:77] Creating layer loss
I0212 12:06:52.353382  4120 net.cpp:106] Creating Layer loss
I0212 12:06:52.353385  4120 net.cpp:454] loss <- ip2
I0212 12:06:52.353389  4120 net.cpp:454] loss <- label
I0212 12:06:52.353394  4120 net.cpp:411] loss -> loss
I0212 12:06:52.353406  4120 layer_factory.hpp:77] Creating layer loss
…
I0212 12:06:52.353965  4120 net.cpp:322] The NetState phase (1) differed from the phase (0) specified by a rule in layer cifar
I0212 12:06:52.354068  4120 net.cpp:49] Initializing net from parameters: 
name: "CIFAR100_quick"
state {
  phase: TEST
}
layer {
  name: "cifar"
  type: "Data"
  top: "data"
  top: "label"
  include {
    phase: TEST
  }
  transform_param {
    mirror: true
    crop_size: 31
    mean_file: "examples/GCN100_cifar100/GCN100_mean.binaryproto"
  }
  data_param {
    source: "examples/GCN100_cifar100/GCN100_cifar100_test_lmdb"
    scale: 0.00390625
    batch_size: 100
    backend: LMDB
  }
}
layer {
  name: "conv1"
  type: "Convolution"
  bottom: "data"
  top: "conv1"
  param {
    lr_mult: 1
  }
  param {
    lr_mult: 2
  }
  convolution_param {
    num_output: 32
    pad: 2
    kernel_size: 5
    stride: 1
    weight_filler {
      type: "gaussian"
      std: 0.0001
    }
    bias_filler {
      type: "constant"
    }
  }
}
layer {
  name: "pool1"
  type: "Pooling"
  bottom: "conv1"
  top: "pool1"
  pooling_param {
    pool: MAX
    kernel_size: 3
    stride: 2
  }
}
layer {
  name: "relu1"
  type: "ReLU"
  bottom: "pool1"
  top: "pool1"
}
layer {
  name: "conv2"
  type: "Convolution"
  bottom: "pool1"
  top: "conv2"
  param {
    lr_mult: 1
  }
  param {
    lr_mult: 2
  }
  convolution_param {
    num_output: 32
    pad: 2
    kernel_size: 5
    stride: 1
    weight_filler {
      type: "gaussian"
      std: 0.01
    }
    bias_filler {
      type: "constant"
    }
  }
}
layer {
  name: "relu2"
  type: "ReLU"
  bottom: "conv2"
  top: "conv2"
}
layer {
  name: "pool2"
  type: "Pooling"
  bottom: "conv2"
  top: "pool2"
  pooling_param {
    pool: AVE
    kernel_size: 3
    stride: 2
  }
}
layer {
  name: "conv3"
  type: "Convolution"
  bottom: "pool2"
  top: "conv3"
  param {
    lr_mult: 1
  }
  param {
    lr_mult: 2
  }
  convolution_param {
    num_output: 64
    pad: 2
    kernel_size: 5
    stride: 1
    weight_filler {
      type: "gaussian"
      std: 0.01
    }
    bias_filler {
      type: "constant"
    }
  }
}
layer {
  name: "relu3"
  type: "ReLU"
  bottom: "conv3"
  top: "conv3"
}
layer {
  name: "pool3"
  type: "Pooling"
  bottom: "conv3"
  top: "pool3"
  pooling_param {
    pool: AVE
    kernel_size: 3
    stride: 2
  }
}
layer {
  name: "ip1"
  type: "InnerProduct"
  bottom: "pool3"
  top: "ip1"
  param {
    lr_mult: 1
  }
  param {
    lr_mult: 2
  }
  inner_product_param {
    num_output: 64
    weight_filler {
      type: "gaussian"
      std: 0.1
    }
    bias_filler {
      type: "constant"
    }
  }
}
layer {
  name: "ip2"
  type: "InnerProduct"
  bottom: "ip1"
  top: "ip2"
  param {
    lr_mult: 1
  }
  param {
    lr_mult: 2
  }
  inner_product_param {
    num_output: 100
    weight_filler {
      type: "gaussian"
      std: 0.1
    }
    bias_filler {
      type: "constant"
    }
  }
}
layer {
  name: "accuracy"
  type: "Accuracy"
  bottom: "ip2"
  bottom: "label"
  top: "accuracy"
  include {
    phase: TEST
  }
}
layer {
  name: "loss"
  type: "SoftmaxWithLoss"
  bottom: "ip2"
  bottom: "label"
  top: "loss"
}
I0212 12:06:52.354202  4120 layer_factory.hpp:77] Creating layer cifar
I0212 12:06:52.354348  4120 net.cpp:106] Creating Layer cifar
I0212 12:06:52.354358  4120 net.cpp:411] cifar -> data
I0212 12:06:52.354369  4120 net.cpp:411] cifar -> label
I0212 12:06:52.354379  4120 data_transformer.cpp:25] Loading mean file from: examples/GCN100_cifar100/GCN100_mean.binaryproto
I0212 12:06:52.355484  4128 db_lmdb.cpp:38] Opened lmdb examples/GCN100_cifar100/GCN100_cifar100_test_lmdb
I0212 12:06:52.355626  4120 data_layer.cpp:41] output data size: 100,3,31,31
I0212 12:06:52.358736  4120 net.cpp:150] Setting up cifar
I0212 12:06:52.358757  4120 net.cpp:157] Top shape: 100 3 31 31 (288300)
I0212 12:06:52.358764  4120 net.cpp:157] Top shape: 100 (100)
I0212 12:06:52.358769  4120 net.cpp:165] Memory required for data: 1153600
I0212 12:06:52.358775  4120 layer_factory.hpp:77] Creating layer label_cifar_1_split
I0212 12:06:52.358795  4120 net.cpp:106] Creating Layer label_cifar_1_split
I0212 12:06:52.358801  4120 net.cpp:454] label_cifar_1_split <- label
I0212 12:06:52.358809  4120 net.cpp:411] label_cifar_1_split -> label_cifar_1_split_0
I0212 12:06:52.358820  4120 net.cpp:411] label_cifar_1_split -> label_cifar_1_split_1
I0212 12:06:52.358939  4120 net.cpp:150] Setting up label_cifar_1_split
I0212 12:06:52.358952  4120 net.cpp:157] Top shape: 100 (100)
I0212 12:06:52.358957  4120 net.cpp:157] Top shape: 100 (100)
I0212 12:06:52.358960  4120 net.cpp:165] Memory required for data: 1154400
I0212 12:06:52.358964  4120 layer_factory.hpp:77] Creating layer conv1
I0212 12:06:52.358979  4120 net.cpp:106] Creating Layer conv1
I0212 12:06:52.358984  4120 net.cpp:454] conv1 <- data
I0212 12:06:52.358992  4120 net.cpp:411] conv1 -> conv1
I0212 12:06:52.359364  4120 net.cpp:150] Setting up conv1
I0212 12:06:52.359375  4120 net.cpp:157] Top shape: 100 32 31 31 (3075200)
I0212 12:06:52.359380  4120 net.cpp:165] Memory required for data: 13455200
I0212 12:06:52.359408  4120 layer_factory.hpp:77] Creating layer pool1
I0212 12:06:52.359417  4120 net.cpp:106] Creating Layer pool1
I0212 12:06:52.359421  4120 net.cpp:454] pool1 <- conv1
I0212 12:06:52.359427  4120 net.cpp:411] pool1 -> pool1
I0212 12:06:52.359474  4120 net.cpp:150] Setting up pool1
I0212 12:06:52.359483  4120 net.cpp:157] Top shape: 100 32 15 15 (720000)
I0212 12:06:52.359485  4120 net.cpp:165] Memory required for data: 16335200
I0212 12:06:52.359489  4120 layer_factory.hpp:77] Creating layer relu1
I0212 12:06:52.359496  4120 net.cpp:106] Creating Layer relu1
I0212 12:06:52.359499  4120 net.cpp:454] relu1 <- pool1
I0212 12:06:52.359506  4120 net.cpp:397] relu1 -> pool1 (in-place)
I0212 12:06:52.359514  4120 net.cpp:150] Setting up relu1
I0212 12:06:52.359519  4120 net.cpp:157] Top shape: 100 32 15 15 (720000)
I0212 12:06:52.359522  4120 net.cpp:165] Memory required for data: 19215200
I0212 12:06:52.359526  4120 layer_factory.hpp:77] Creating layer conv2
I0212 12:06:52.359539  4120 net.cpp:106] Creating Layer conv2
I0212 12:06:52.359541  4120 net.cpp:454] conv2 <- pool1
I0212 12:06:52.359549  4120 net.cpp:411] conv2 -> conv2
I0212 12:06:52.360867  4120 net.cpp:150] Setting up conv2
I0212 12:06:52.360878  4120 net.cpp:157] Top shape: 100 32 15 15 (720000)
I0212 12:06:52.360882  4120 net.cpp:165] Memory required for data: 22095200
I0212 12:06:52.360893  4120 layer_factory.hpp:77] Creating layer relu2
I0212 12:06:52.360901  4120 net.cpp:106] Creating Layer relu2
I0212 12:06:52.360906  4120 net.cpp:454] relu2 <- conv2
I0212 12:06:52.360913  4120 net.cpp:397] relu2 -> conv2 (in-place)
I0212 12:06:52.360919  4120 net.cpp:150] Setting up relu2
I0212 12:06:52.360925  4120 net.cpp:157] Top shape: 100 32 15 15 (720000)
I0212 12:06:52.360929  4120 net.cpp:165] Memory required for data: 24975200
I0212 12:06:52.360932  4120 layer_factory.hpp:77] Creating layer pool2
I0212 12:06:52.360939  4120 net.cpp:106] Creating Layer pool2
I0212 12:06:52.360944  4120 net.cpp:454] pool2 <- conv2
I0212 12:06:52.360950  4120 net.cpp:411] pool2 -> pool2
I0212 12:06:52.360976  4120 net.cpp:150] Setting up pool2
I0212 12:06:52.360985  4120 net.cpp:157] Top shape: 100 32 7 7 (156800)
I0212 12:06:52.360990  4120 net.cpp:165] Memory required for data: 25602400
I0212 12:06:52.360992  4120 layer_factory.hpp:77] Creating layer conv3
I0212 12:06:52.361007  4120 net.cpp:106] Creating Layer conv3
I0212 12:06:52.361011  4120 net.cpp:454] conv3 <- pool2
I0212 12:06:52.361019  4120 net.cpp:411] conv3 -> conv3
I0212 12:06:52.363371  4120 net.cpp:150] Setting up conv3
I0212 12:06:52.363384  4120 net.cpp:157] Top shape: 100 64 7 7 (313600)
I0212 12:06:52.363389  4120 net.cpp:165] Memory required for data: 26856800
I0212 12:06:52.363399  4120 layer_factory.hpp:77] Creating layer relu3
I0212 12:06:52.363406  4120 net.cpp:106] Creating Layer relu3
I0212 12:06:52.363410  4120 net.cpp:454] relu3 <- conv3
I0212 12:06:52.363418  4120 net.cpp:397] relu3 -> conv3 (in-place)
I0212 12:06:52.363426  4120 net.cpp:150] Setting up relu3
I0212 12:06:52.363431  4120 net.cpp:157] Top shape: 100 64 7 7 (313600)
I0212 12:06:52.363435  4120 net.cpp:165] Memory required for data: 28111200
I0212 12:06:52.363438  4120 layer_factory.hpp:77] Creating layer pool3
I0212 12:06:52.363445  4120 net.cpp:106] Creating Layer pool3
I0212 12:06:52.363448  4120 net.cpp:454] pool3 <- conv3
I0212 12:06:52.363456  4120 net.cpp:411] pool3 -> pool3
I0212 12:06:52.363481  4120 net.cpp:150] Setting up pool3
I0212 12:06:52.363488  4120 net.cpp:157] Top shape: 100 64 3 3 (57600)
I0212 12:06:52.363492  4120 net.cpp:165] Memory required for data: 28341600
I0212 12:06:52.363497  4120 layer_factory.hpp:77] Creating layer ip1
I0212 12:06:52.363508  4120 net.cpp:106] Creating Layer ip1
I0212 12:06:52.363513  4120 net.cpp:454] ip1 <- pool3
I0212 12:06:52.363520  4120 net.cpp:411] ip1 -> ip1
I0212 12:06:52.365135  4120 net.cpp:150] Setting up ip1
I0212 12:06:52.365144  4120 net.cpp:157] Top shape: 100 64 (6400)
I0212 12:06:52.365149  4120 net.cpp:165] Memory required for data: 28367200
I0212 12:06:52.365172  4120 layer_factory.hpp:77] Creating layer ip2
I0212 12:06:52.365183  4120 net.cpp:106] Creating Layer ip2
I0212 12:06:52.365187  4120 net.cpp:454] ip2 <- ip1
I0212 12:06:52.365195  4120 net.cpp:411] ip2 -> ip2
I0212 12:06:52.365577  4120 net.cpp:150] Setting up ip2
I0212 12:06:52.365586  4120 net.cpp:157] Top shape: 100 100 (10000)
I0212 12:06:52.365589  4120 net.cpp:165] Memory required for data: 28407200
I0212 12:06:52.365599  4120 layer_factory.hpp:77] Creating layer ip2_ip2_0_split
I0212 12:06:52.365608  4120 net.cpp:106] Creating Layer ip2_ip2_0_split
I0212 12:06:52.365612  4120 net.cpp:454] ip2_ip2_0_split <- ip2
I0212 12:06:52.365618  4120 net.cpp:411] ip2_ip2_0_split -> ip2_ip2_0_split_0
I0212 12:06:52.365628  4120 net.cpp:411] ip2_ip2_0_split -> ip2_ip2_0_split_1
I0212 12:06:52.365665  4120 net.cpp:150] Setting up ip2_ip2_0_split
I0212 12:06:52.365674  4120 net.cpp:157] Top shape: 100 100 (10000)
I0212 12:06:52.365679  4120 net.cpp:157] Top shape: 100 100 (10000)
I0212 12:06:52.365681  4120 net.cpp:165] Memory required for data: 28487200
I0212 12:06:52.365685  4120 layer_factory.hpp:77] Creating layer accuracy
I0212 12:06:52.365700  4120 net.cpp:106] Creating Layer accuracy
I0212 12:06:52.365703  4120 net.cpp:454] accuracy <- ip2_ip2_0_split_0
I0212 12:06:52.365708  4120 net.cpp:454] accuracy <- label_cifar_1_split_0
I0212 12:06:52.365715  4120 net.cpp:411] accuracy -> accuracy
…
