…
I0211 01:15:39.513617  2260 net.cpp:322] The NetState phase (0) differed from the phase (1) specified by a rule in layer cifar
I0211 01:15:39.513648  2260 net.cpp:322] The NetState phase (0) differed from the phase (1) specified by a rule in layer accuracy
I0211 01:15:39.513784  2260 net.cpp:49] Initializing net from parameters: 
name: "CIFAR100_quick"
state {
  phase: TRAIN
}
layer {
  name: "cifar"
  type: "Data"
  top: "data"
  top: "label"
  include {
    phase: TRAIN
  }
  transform_param {
    mirror: true
    crop_size: 31
  }
  data_param {
    source: "examples/GCN_cifar100/cifar100_train_lmdb"
    batch_size: 100
    backend: LMDB
  }
}
layer {
  name: "conv1"
  type: "Convolution"
  bottom: "data"
  top: "conv1"
  param {
    lr_mult: 1
  }
  param {
    lr_mult: 2
  }
  convolution_param {
    num_output: 32
    pad: 2
    kernel_size: 5
    stride: 1
    weight_filler {
      type: "gaussian"
      std: 0.0001
    }
    bias_filler {
      type: "constant"
    }
  }
}
layer {
  name: "pool1"
  type: "Pooling"
  bottom: "conv1"
  top: "pool1"
  pooling_param {
    pool: MAX
    kernel_size: 3
    stride: 2
  }
}
layer {
  name: "relu1"
  type: "ReLU"
  bottom: "pool1"
  top: "pool1"
}
layer {
  name: "conv2"
  type: "Convolution"
  bottom: "pool1"
  top: "conv2"
  param {
    lr_mult: 1
  }
  param {
    lr_mult: 2
  }
  convolution_param {
    num_output: 32
    pad: 2
    kernel_size: 5
    stride: 1
    weight_filler {
      type: "gaussian"
      std: 0.01
    }
    bias_filler {
      type: "constant"
    }
  }
}
layer {
  name: "relu2"
  type: "ReLU"
  bottom: "conv2"
  top: "conv2"
}
layer {
  name: "pool2"
  type: "Pooling"
  bottom: "conv2"
  top: "pool2"
  pooling_param {
    pool: AVE
    kernel_size: 3
    stride: 2
  }
}
layer {
  name: "conv3"
  type: "Convolution"
  bottom: "pool2"
  top: "conv3"
  param {
    lr_mult: 1
  }
  param {
    lr_mult: 2
  }
  convolution_param {
    num_output: 64
    pad: 2
    kernel_size: 5
    stride: 1
    weight_filler {
      type: "gaussian"
      std: 0.01
    }
    bias_filler {
      type: "constant"
    }
  }
}
layer {
  name: "relu3"
  type: "ReLU"
  bottom: "conv3"
  top: "conv3"
}
layer {
  name: "pool3"
  type: "Pooling"
  bottom: "conv3"
  top: "pool3"
  pooling_param {
    pool: AVE
    kernel_size: 3
    stride: 2
  }
}
layer {
  name: "ip1"
  type: "InnerProduct"
  bottom: "pool3"
  top: "ip1"
  param {
    lr_mult: 1
  }
  param {
    lr_mult: 2
  }
  inner_product_param {
    num_output: 64
    weight_filler {
      type: "gaussian"
      std: 0.1
    }
    bias_filler {
      type: "constant"
    }
  }
}
layer {
  name: "ip2"
  type: "InnerProduct"
  bottom: "ip1"
  top: "ip2"
  param {
    lr_mult: 1
  }
  param {
    lr_mult: 2
  }
  inner_product_param {
    num_output: 100
    weight_filler {
      type: "gaussian"
      std: 0.1
    }
    bias_filler {
      type: "constant"
    }
  }
}
layer {
  name: "loss"
  type: "SoftmaxWithLoss"
  bottom: "ip2"
  bottom: "label"
  top: "loss"
}
I0211 01:15:39.513890  2260 layer_factory.hpp:77] Creating layer cifar
I0211 01:15:39.514437  2260 net.cpp:106] Creating Layer cifar
I0211 01:15:39.514519  2260 net.cpp:411] cifar -> data
I0211 01:15:39.514559  2260 net.cpp:411] cifar -> label
I0211 01:15:39.515177  2263 db_lmdb.cpp:38] Opened lmdb examples/GCN_cifar100/cifar100_train_lmdb
I0211 01:15:39.559634  2260 data_layer.cpp:41] output data size: 100,3,31,31
I0211 01:15:39.568089  2260 net.cpp:150] Setting up cifar
I0211 01:15:39.568145  2260 net.cpp:157] Top shape: 100 3 31 31 (288300)
I0211 01:15:39.568162  2260 net.cpp:157] Top shape: 100 (100)
I0211 01:15:39.568171  2260 net.cpp:165] Memory required for data: 1153600
I0211 01:15:39.568210  2260 layer_factory.hpp:77] Creating layer conv1
I0211 01:15:39.568275  2260 net.cpp:106] Creating Layer conv1
I0211 01:15:39.568307  2260 net.cpp:454] conv1 <- data
I0211 01:15:39.568353  2260 net.cpp:411] conv1 -> conv1
I0211 01:15:39.569815  2260 net.cpp:150] Setting up conv1
I0211 01:15:39.569834  2260 net.cpp:157] Top shape: 100 32 31 31 (3075200)
I0211 01:15:39.569840  2260 net.cpp:165] Memory required for data: 13454400
I0211 01:15:39.569860  2260 layer_factory.hpp:77] Creating layer pool1
I0211 01:15:39.569882  2260 net.cpp:106] Creating Layer pool1
I0211 01:15:39.569888  2260 net.cpp:454] pool1 <- conv1
I0211 01:15:39.569895  2260 net.cpp:411] pool1 -> pool1
I0211 01:15:39.570051  2260 net.cpp:150] Setting up pool1
I0211 01:15:39.570073  2260 net.cpp:157] Top shape: 100 32 15 15 (720000)
I0211 01:15:39.570082  2260 net.cpp:165] Memory required for data: 16334400
I0211 01:15:39.570092  2260 layer_factory.hpp:77] Creating layer relu1
I0211 01:15:39.570106  2260 net.cpp:106] Creating Layer relu1
I0211 01:15:39.570118  2260 net.cpp:454] relu1 <- pool1
I0211 01:15:39.570132  2260 net.cpp:397] relu1 -> pool1 (in-place)
I0211 01:15:39.570152  2260 net.cpp:150] Setting up relu1
I0211 01:15:39.570174  2260 net.cpp:157] Top shape: 100 32 15 15 (720000)
I0211 01:15:39.570183  2260 net.cpp:165] Memory required for data: 19214400
I0211 01:15:39.570194  2260 layer_factory.hpp:77] Creating layer conv2
I0211 01:15:39.570226  2260 net.cpp:106] Creating Layer conv2
I0211 01:15:39.570245  2260 net.cpp:454] conv2 <- pool1
I0211 01:15:39.570266  2260 net.cpp:411] conv2 -> conv2
I0211 01:15:39.571810  2260 net.cpp:150] Setting up conv2
I0211 01:15:39.571840  2260 net.cpp:157] Top shape: 100 32 15 15 (720000)
I0211 01:15:39.571849  2260 net.cpp:165] Memory required for data: 22094400
I0211 01:15:39.571873  2260 layer_factory.hpp:77] Creating layer relu2
I0211 01:15:39.571890  2260 net.cpp:106] Creating Layer relu2
I0211 01:15:39.571900  2260 net.cpp:454] relu2 <- conv2
I0211 01:15:39.571913  2260 net.cpp:397] relu2 -> conv2 (in-place)
I0211 01:15:39.571931  2260 net.cpp:150] Setting up relu2
I0211 01:15:39.571946  2260 net.cpp:157] Top shape: 100 32 15 15 (720000)
I0211 01:15:39.571955  2260 net.cpp:165] Memory required for data: 24974400
I0211 01:15:39.571990  2260 layer_factory.hpp:77] Creating layer pool2
I0211 01:15:39.572012  2260 net.cpp:106] Creating Layer pool2
I0211 01:15:39.572022  2260 net.cpp:454] pool2 <- conv2
I0211 01:15:39.572041  2260 net.cpp:411] pool2 -> pool2
I0211 01:15:39.572103  2260 net.cpp:150] Setting up pool2
I0211 01:15:39.572125  2260 net.cpp:157] Top shape: 100 32 7 7 (156800)
I0211 01:15:39.572134  2260 net.cpp:165] Memory required for data: 25601600
I0211 01:15:39.572147  2260 layer_factory.hpp:77] Creating layer conv3
I0211 01:15:39.572173  2260 net.cpp:106] Creating Layer conv3
I0211 01:15:39.572186  2260 net.cpp:454] conv3 <- pool2
I0211 01:15:39.572203  2260 net.cpp:411] conv3 -> conv3
I0211 01:15:39.574045  2260 net.cpp:150] Setting up conv3
I0211 01:15:39.574067  2260 net.cpp:157] Top shape: 100 64 7 7 (313600)
I0211 01:15:39.574077  2260 net.cpp:165] Memory required for data: 26856000
I0211 01:15:39.574098  2260 layer_factory.hpp:77] Creating layer relu3
I0211 01:15:39.574121  2260 net.cpp:106] Creating Layer relu3
I0211 01:15:39.574133  2260 net.cpp:454] relu3 <- conv3
I0211 01:15:39.574148  2260 net.cpp:397] relu3 -> conv3 (in-place)
I0211 01:15:39.574165  2260 net.cpp:150] Setting up relu3
I0211 01:15:39.574177  2260 net.cpp:157] Top shape: 100 64 7 7 (313600)
I0211 01:15:39.574189  2260 net.cpp:165] Memory required for data: 28110400
I0211 01:15:39.574198  2260 layer_factory.hpp:77] Creating layer pool3
I0211 01:15:39.574214  2260 net.cpp:106] Creating Layer pool3
I0211 01:15:39.574236  2260 net.cpp:454] pool3 <- conv3
I0211 01:15:39.574251  2260 net.cpp:411] pool3 -> pool3
I0211 01:15:39.574342  2260 net.cpp:150] Setting up pool3
I0211 01:15:39.574363  2260 net.cpp:157] Top shape: 100 64 3 3 (57600)
I0211 01:15:39.574375  2260 net.cpp:165] Memory required for data: 28340800
I0211 01:15:39.574385  2260 layer_factory.hpp:77] Creating layer ip1
I0211 01:15:39.574431  2260 net.cpp:106] Creating Layer ip1
I0211 01:15:39.574450  2260 net.cpp:454] ip1 <- pool3
I0211 01:15:39.574470  2260 net.cpp:411] ip1 -> ip1
I0211 01:15:39.575783  2260 net.cpp:150] Setting up ip1
I0211 01:15:39.575801  2260 net.cpp:157] Top shape: 100 64 (6400)
I0211 01:15:39.575806  2260 net.cpp:165] Memory required for data: 28366400
I0211 01:15:39.575814  2260 layer_factory.hpp:77] Creating layer ip2
I0211 01:15:39.575824  2260 net.cpp:106] Creating Layer ip2
I0211 01:15:39.575834  2260 net.cpp:454] ip2 <- ip1
I0211 01:15:39.575845  2260 net.cpp:411] ip2 -> ip2
I0211 01:15:39.576612  2260 net.cpp:150] Setting up ip2
I0211 01:15:39.576632  2260 net.cpp:157] Top shape: 100 100 (10000)
I0211 01:15:39.576637  2260 net.cpp:165] Memory required for data: 28406400
I0211 01:15:39.576648  2260 layer_factory.hpp:77] Creating layer loss
I0211 01:15:39.576659  2260 net.cpp:106] Creating Layer loss
I0211 01:15:39.576664  2260 net.cpp:454] loss <- ip2
I0211 01:15:39.576670  2260 net.cpp:454] loss <- label
I0211 01:15:39.576678  2260 net.cpp:411] loss -> loss
I0211 01:15:39.576694  2260 layer_factory.hpp:77] Creating layer loss
…
I0211 01:15:39.577409  2260 solver.cpp:181] Creating test net (#0) specified by net file: examples/GCN_cifar100/GCN_cifar100_quick_train_test.prototxt
I0211 01:15:39.577481  2260 net.cpp:322] The NetState phase (1) differed from the phase (0) specified by a rule in layer cifar
I0211 01:15:39.577633  2260 net.cpp:49] Initializing net from parameters: 
name: "CIFAR100_quick"
state {
  phase: TEST
}
layer {
  name: "cifar"
  type: "Data"
  top: "data"
  top: "label"
  include {
    phase: TEST
  }
  transform_param {
    mirror: true
    crop_size: 31
  }
  data_param {
    source: "examples/GCN_cifar100/cifar100_test_lmdb"
    batch_size: 100
    backend: LMDB
  }
}
layer {
  name: "conv1"
  type: "Convolution"
  bottom: "data"
  top: "conv1"
  param {
    lr_mult: 1
  }
  param {
    lr_mult: 2
  }
  convolution_param {
    num_output: 32
    pad: 2
    kernel_size: 5
    stride: 1
    weight_filler {
      type: "gaussian"
      std: 0.0001
    }
    bias_filler {
      type: "constant"
    }
  }
}
layer {
  name: "pool1"
  type: "Pooling"
  bottom: "conv1"
  top: "pool1"
  pooling_param {
    pool: MAX
    kernel_size: 3
    stride: 2
  }
}
layer {
  name: "relu1"
  type: "ReLU"
  bottom: "pool1"
  top: "pool1"
}
layer {
  name: "conv2"
  type: "Convolution"
  bottom: "pool1"
  top: "conv2"
  param {
    lr_mult: 1
  }
  param {
    lr_mult: 2
  }
  convolution_param {
    num_output: 32
    pad: 2
    kernel_size: 5
    stride: 1
    weight_filler {
      type: "gaussian"
      std: 0.01
    }
    bias_filler {
      type: "constant"
    }
  }
}
layer {
  name: "relu2"
  type: "ReLU"
  bottom: "conv2"
  top: "conv2"
}
layer {
  name: "pool2"
  type: "Pooling"
  bottom: "conv2"
  top: "pool2"
  pooling_param {
    pool: AVE
    kernel_size: 3
    stride: 2
  }
}
layer {
  name: "conv3"
  type: "Convolution"
  bottom: "pool2"
  top: "conv3"
  param {
    lr_mult: 1
  }
  param {
    lr_mult: 2
  }
  convolution_param {
    num_output: 64
    pad: 2
    kernel_size: 5
    stride: 1
    weight_filler {
      type: "gaussian"
      std: 0.01
    }
    bias_filler {
      type: "constant"
    }
  }
}
layer {
  name: "relu3"
  type: "ReLU"
  bottom: "conv3"
  top: "conv3"
}
layer {
  name: "pool3"
  type: "Pooling"
  bottom: "conv3"
  top: "pool3"
  pooling_param {
    pool: AVE
    kernel_size: 3
    stride: 2
  }
}
layer {
  name: "ip1"
  type: "InnerProduct"
  bottom: "pool3"
  top: "ip1"
  param {
    lr_mult: 1
  }
  param {
    lr_mult: 2
  }
  inner_product_param {
    num_output: 64
    weight_filler {
      type: "gaussian"
      std: 0.1
    }
    bias_filler {
      type: "constant"
    }
  }
}
layer {
  name: "ip2"
  type: "InnerProduct"
  bottom: "ip1"
  top: "ip2"
  param {
    lr_mult: 1
  }
  param {
    lr_mult: 2
  }
  inner_product_param {
    num_output: 100
    weight_filler {
      type: "gaussian"
      std: 0.1
    }
    bias_filler {
      type: "constant"
    }
  }
}
layer {
  name: "accuracy"
  type: "Accuracy"
  bottom: "ip2"
  bottom: "label"
  top: "accuracy"
  include {
    phase: TEST
  }
}
layer {
  name: "loss"
  type: "SoftmaxWithLoss"
  bottom: "ip2"
  bottom: "label"
  top: "loss"
}
I0211 01:15:39.577745  2260 layer_factory.hpp:77] Creating layer cifar
I0211 01:15:39.578222  2260 net.cpp:106] Creating Layer cifar
I0211 01:15:39.578260  2260 net.cpp:411] cifar -> data
I0211 01:15:39.578291  2260 net.cpp:411] cifar -> label
I0211 01:15:39.578984  2265 db_lmdb.cpp:38] Opened lmdb examples/GCN_cifar100/cifar100_test_lmdb
I0211 01:15:39.579110  2260 data_layer.cpp:41] output data size: 100,3,31,31
I0211 01:15:39.585217  2260 net.cpp:150] Setting up cifar
I0211 01:15:39.585239  2260 net.cpp:157] Top shape: 100 3 31 31 (288300)
I0211 01:15:39.585247  2260 net.cpp:157] Top shape: 100 (100)
I0211 01:15:39.585255  2260 net.cpp:165] Memory required for data: 1153600
I0211 01:15:39.585261  2260 layer_factory.hpp:77] Creating layer label_cifar_1_split
I0211 01:15:39.585273  2260 net.cpp:106] Creating Layer label_cifar_1_split
I0211 01:15:39.585278  2260 net.cpp:454] label_cifar_1_split <- label
I0211 01:15:39.585285  2260 net.cpp:411] label_cifar_1_split -> label_cifar_1_split_0
I0211 01:15:39.585294  2260 net.cpp:411] label_cifar_1_split -> label_cifar_1_split_1
I0211 01:15:39.585360  2260 net.cpp:150] Setting up label_cifar_1_split
I0211 01:15:39.585374  2260 net.cpp:157] Top shape: 100 (100)
I0211 01:15:39.585381  2260 net.cpp:157] Top shape: 100 (100)
I0211 01:15:39.585384  2260 net.cpp:165] Memory required for data: 1154400
I0211 01:15:39.585389  2260 layer_factory.hpp:77] Creating layer conv1
I0211 01:15:39.585404  2260 net.cpp:106] Creating Layer conv1
I0211 01:15:39.585409  2260 net.cpp:454] conv1 <- data
I0211 01:15:39.585418  2260 net.cpp:411] conv1 -> conv1
I0211 01:15:39.585726  2260 net.cpp:150] Setting up conv1
I0211 01:15:39.585742  2260 net.cpp:157] Top shape: 100 32 31 31 (3075200)
I0211 01:15:39.585747  2260 net.cpp:165] Memory required for data: 13455200
I0211 01:15:39.585759  2260 layer_factory.hpp:77] Creating layer pool1
I0211 01:15:39.585770  2260 net.cpp:106] Creating Layer pool1
I0211 01:15:39.585775  2260 net.cpp:454] pool1 <- conv1
I0211 01:15:39.585782  2260 net.cpp:411] pool1 -> pool1
I0211 01:15:39.585824  2260 net.cpp:150] Setting up pool1
I0211 01:15:39.585839  2260 net.cpp:157] Top shape: 100 32 15 15 (720000)
I0211 01:15:39.585860  2260 net.cpp:165] Memory required for data: 16335200
I0211 01:15:39.585866  2260 layer_factory.hpp:77] Creating layer relu1
I0211 01:15:39.585873  2260 net.cpp:106] Creating Layer relu1
I0211 01:15:39.585878  2260 net.cpp:454] relu1 <- pool1
I0211 01:15:39.585885  2260 net.cpp:397] relu1 -> pool1 (in-place)
I0211 01:15:39.585891  2260 net.cpp:150] Setting up relu1
I0211 01:15:39.585897  2260 net.cpp:157] Top shape: 100 32 15 15 (720000)
I0211 01:15:39.585901  2260 net.cpp:165] Memory required for data: 19215200
I0211 01:15:39.585906  2260 layer_factory.hpp:77] Creating layer conv2
I0211 01:15:39.585918  2260 net.cpp:106] Creating Layer conv2
I0211 01:15:39.585925  2260 net.cpp:454] conv2 <- pool1
I0211 01:15:39.585932  2260 net.cpp:411] conv2 -> conv2
I0211 01:15:39.587483  2260 net.cpp:150] Setting up conv2
I0211 01:15:39.587497  2260 net.cpp:157] Top shape: 100 32 15 15 (720000)
I0211 01:15:39.587502  2260 net.cpp:165] Memory required for data: 22095200
I0211 01:15:39.587517  2260 layer_factory.hpp:77] Creating layer relu2
I0211 01:15:39.587525  2260 net.cpp:106] Creating Layer relu2
I0211 01:15:39.587532  2260 net.cpp:454] relu2 <- conv2
I0211 01:15:39.587538  2260 net.cpp:397] relu2 -> conv2 (in-place)
I0211 01:15:39.587545  2260 net.cpp:150] Setting up relu2
I0211 01:15:39.587551  2260 net.cpp:157] Top shape: 100 32 15 15 (720000)
I0211 01:15:39.587555  2260 net.cpp:165] Memory required for data: 24975200
I0211 01:15:39.587559  2260 layer_factory.hpp:77] Creating layer pool2
I0211 01:15:39.587565  2260 net.cpp:106] Creating Layer pool2
I0211 01:15:39.587570  2260 net.cpp:454] pool2 <- conv2
I0211 01:15:39.587579  2260 net.cpp:411] pool2 -> pool2
I0211 01:15:39.587604  2260 net.cpp:150] Setting up pool2
I0211 01:15:39.587611  2260 net.cpp:157] Top shape: 100 32 7 7 (156800)
I0211 01:15:39.587615  2260 net.cpp:165] Memory required for data: 25602400
I0211 01:15:39.587620  2260 layer_factory.hpp:77] Creating layer conv3
I0211 01:15:39.587636  2260 net.cpp:106] Creating Layer conv3
I0211 01:15:39.587641  2260 net.cpp:454] conv3 <- pool2
I0211 01:15:39.587648  2260 net.cpp:411] conv3 -> conv3
I0211 01:15:39.589504  2260 net.cpp:150] Setting up conv3
I0211 01:15:39.589522  2260 net.cpp:157] Top shape: 100 64 7 7 (313600)
I0211 01:15:39.589527  2260 net.cpp:165] Memory required for data: 26856800
I0211 01:15:39.589539  2260 layer_factory.hpp:77] Creating layer relu3
I0211 01:15:39.589547  2260 net.cpp:106] Creating Layer relu3
I0211 01:15:39.589553  2260 net.cpp:454] relu3 <- conv3
I0211 01:15:39.589560  2260 net.cpp:397] relu3 -> conv3 (in-place)
I0211 01:15:39.589566  2260 net.cpp:150] Setting up relu3
I0211 01:15:39.589572  2260 net.cpp:157] Top shape: 100 64 7 7 (313600)
I0211 01:15:39.589576  2260 net.cpp:165] Memory required for data: 28111200
I0211 01:15:39.589581  2260 layer_factory.hpp:77] Creating layer pool3
I0211 01:15:39.589586  2260 net.cpp:106] Creating Layer pool3
I0211 01:15:39.589591  2260 net.cpp:454] pool3 <- conv3
I0211 01:15:39.589599  2260 net.cpp:411] pool3 -> pool3
I0211 01:15:39.589709  2260 net.cpp:150] Setting up pool3
I0211 01:15:39.589731  2260 net.cpp:157] Top shape: 100 64 3 3 (57600)
I0211 01:15:39.589741  2260 net.cpp:165] Memory required for data: 28341600
I0211 01:15:39.589751  2260 layer_factory.hpp:77] Creating layer ip1
I0211 01:15:39.589768  2260 net.cpp:106] Creating Layer ip1
I0211 01:15:39.589781  2260 net.cpp:454] ip1 <- pool3
I0211 01:15:39.589804  2260 net.cpp:411] ip1 -> ip1
I0211 01:15:39.591140  2260 net.cpp:150] Setting up ip1
I0211 01:15:39.591161  2260 net.cpp:157] Top shape: 100 64 (6400)
I0211 01:15:39.591171  2260 net.cpp:165] Memory required for data: 28367200
I0211 01:15:39.591187  2260 layer_factory.hpp:77] Creating layer ip2
I0211 01:15:39.591214  2260 net.cpp:106] Creating Layer ip2
I0211 01:15:39.591231  2260 net.cpp:454] ip2 <- ip1
I0211 01:15:39.591250  2260 net.cpp:411] ip2 -> ip2
I0211 01:15:39.591590  2260 net.cpp:150] Setting up ip2
I0211 01:15:39.591606  2260 net.cpp:157] Top shape: 100 100 (10000)
I0211 01:15:39.591610  2260 net.cpp:165] Memory required for data: 28407200
I0211 01:15:39.591641  2260 layer_factory.hpp:77] Creating layer ip2_ip2_0_split
I0211 01:15:39.591650  2260 net.cpp:106] Creating Layer ip2_ip2_0_split
I0211 01:15:39.591655  2260 net.cpp:454] ip2_ip2_0_split <- ip2
I0211 01:15:39.591661  2260 net.cpp:411] ip2_ip2_0_split -> ip2_ip2_0_split_0
I0211 01:15:39.591668  2260 net.cpp:411] ip2_ip2_0_split -> ip2_ip2_0_split_1
I0211 01:15:39.591706  2260 net.cpp:150] Setting up ip2_ip2_0_split
I0211 01:15:39.591722  2260 net.cpp:157] Top shape: 100 100 (10000)
I0211 01:15:39.591728  2260 net.cpp:157] Top shape: 100 100 (10000)
I0211 01:15:39.591732  2260 net.cpp:165] Memory required for data: 28487200
I0211 01:15:39.591737  2260 layer_factory.hpp:77] Creating layer accuracy
I0211 01:15:39.591749  2260 net.cpp:106] Creating Layer accuracy
I0211 01:15:39.591754  2260 net.cpp:454] accuracy <- ip2_ip2_0_split_0
I0211 01:15:39.591760  2260 net.cpp:454] accuracy <- label_cifar_1_split_0
I0211 01:15:39.591766  2260 net.cpp:411] accuracy -> accuracy
…
