…
I0212 08:00:24.704875 10478 net.cpp:322] The NetState phase (0) differed from the phase (1) specified by a rule in layer accuracy
I0212 08:00:24.705041 10478 net.cpp:49] Initializing net from parameters: 
name: "CIFAR100_quick"
state {
  phase: TRAIN
}
layer {
  name: "cifar"
  type: "Data"
  top: "data"
  top: "label"
  include {
    phase: TRAIN
  }
  transform_param {
    mirror: true
    crop_size: 31
    mean_file: "examples/GCN300_cifar100/GCN300_mean.binaryproto"
  }
  data_param {
    source: "examples/GCN300_cifar100/GCN300_cifar100_train_lmdb"
    scale: 0.00390625
    batch_size: 100
    backend: LMDB
  }
}
layer {
  name: "conv1"
  type: "Convolution"
  bottom: "data"
  top: "conv1"
  param {
    lr_mult: 1
  }
  param {
    lr_mult: 2
  }
  convolution_param {
    num_output: 32
    pad: 2
    kernel_size: 5
    stride: 1
    weight_filler {
      type: "gaussian"
      std: 0.0001
    }
    bias_filler {
      type: "constant"
    }
  }
}
layer {
  name: "pool1"
  type: "Pooling"
  bottom: "conv1"
  top: "pool1"
  pooling_param {
    pool: MAX
    kernel_size: 3
    stride: 2
  }
}
layer {
  name: "relu1"
  type: "ReLU"
  bottom: "pool1"
  top: "pool1"
}
layer {
  name: "conv2"
  type: "Convolution"
  bottom: "pool1"
  top: "conv2"
  param {
    lr_mult: 1
  }
  param {
    lr_mult: 2
  }
  convolution_param {
    num_output: 32
    pad: 2
    kernel_size: 5
    stride: 1
    weight_filler {
      type: "gaussian"
      std: 0.01
    }
    bias_filler {
      type: "constant"
    }
  }
}
layer {
  name: "relu2"
  type: "ReLU"
  bottom: "conv2"
  top: "conv2"
}
layer {
  name: "pool2"
  type: "Pooling"
  bottom: "conv2"
  top: "pool2"
  pooling_param {
    pool: AVE
    kernel_size: 3
    stride: 2
  }
}
layer {
  name: "conv3"
  type: "Convolution"
  bottom: "pool2"
  top: "conv3"
  param {
    lr_mult: 1
  }
  param {
    lr_mult: 2
  }
  convolution_param {
    num_output: 64
    pad: 2
    kernel_size: 5
    stride: 1
    weight_filler {
      type: "gaussian"
      std: 0.01
    }
    bias_filler {
      type: "constant"
    }
  }
}
layer {
  name: "relu3"
  type: "ReLU"
  bottom: "conv3"
  top: "conv3"
}
layer {
  name: "pool3"
  type: "Pooling"
  bottom: "conv3"
  top: "pool3"
  pooling_param {
    pool: AVE
    kernel_size: 3
    stride: 2
  }
}
layer {
  name: "ip1"
  type: "InnerProduct"
  bottom: "pool3"
  top: "ip1"
  param {
    lr_mult: 1
  }
  param {
    lr_mult: 2
  }
  inner_product_param {
    num_output: 64
    weight_filler {
      type: "gaussian"
      std: 0.1
    }
    bias_filler {
      type: "constant"
    }
  }
}
layer {
  name: "ip2"
  type: "InnerProduct"
  bottom: "ip1"
  top: "ip2"
  param {
    lr_mult: 1
  }
  param {
    lr_mult: 2
  }
  inner_product_param {
    num_output: 100
    weight_filler {
      type: "gaussian"
      std: 0.1
    }
    bias_filler {
      type: "constant"
    }
  }
}
layer {
  name: "loss"
  type: "SoftmaxWithLoss"
  bottom: "ip2"
  bottom: "label"
  top: "loss"
}
I0212 08:00:24.705211 10478 layer_factory.hpp:77] Creating layer cifar
I0212 08:00:24.706084 10478 net.cpp:106] Creating Layer cifar
I0212 08:00:24.706112 10478 net.cpp:411] cifar -> data
I0212 08:00:24.706167 10478 net.cpp:411] cifar -> label
I0212 08:00:24.706210 10478 data_transformer.cpp:25] Loading mean file from: examples/GCN300_cifar100/GCN300_mean.binaryproto
I0212 08:00:24.706899 10481 db_lmdb.cpp:38] Opened lmdb examples/GCN300_cifar100/GCN300_cifar100_train_lmdb
I0212 08:00:24.916915 10478 data_layer.cpp:41] output data size: 100,3,31,31
I0212 08:00:24.945473 10478 net.cpp:150] Setting up cifar
I0212 08:00:24.945514 10478 net.cpp:157] Top shape: 100 3 31 31 (288300)
I0212 08:00:24.945529 10478 net.cpp:157] Top shape: 100 (100)
I0212 08:00:24.945539 10478 net.cpp:165] Memory required for data: 1153600
I0212 08:00:24.945567 10478 layer_factory.hpp:77] Creating layer conv1
I0212 08:00:24.945616 10478 net.cpp:106] Creating Layer conv1
I0212 08:00:24.945637 10478 net.cpp:454] conv1 <- data
I0212 08:00:24.945669 10478 net.cpp:411] conv1 -> conv1
I0212 08:00:24.946635 10478 net.cpp:150] Setting up conv1
I0212 08:00:24.946658 10478 net.cpp:157] Top shape: 100 32 31 31 (3075200)
I0212 08:00:24.946668 10478 net.cpp:165] Memory required for data: 13454400
I0212 08:00:24.946705 10478 layer_factory.hpp:77] Creating layer pool1
I0212 08:00:24.946733 10478 net.cpp:106] Creating Layer pool1
I0212 08:00:24.946749 10478 net.cpp:454] pool1 <- conv1
I0212 08:00:24.946764 10478 net.cpp:411] pool1 -> pool1
I0212 08:00:24.946848 10478 net.cpp:150] Setting up pool1
I0212 08:00:24.946871 10478 net.cpp:157] Top shape: 100 32 15 15 (720000)
I0212 08:00:24.946888 10478 net.cpp:165] Memory required for data: 16334400
I0212 08:00:24.946898 10478 layer_factory.hpp:77] Creating layer relu1
I0212 08:00:24.946913 10478 net.cpp:106] Creating Layer relu1
I0212 08:00:24.946923 10478 net.cpp:454] relu1 <- pool1
I0212 08:00:24.946936 10478 net.cpp:397] relu1 -> pool1 (in-place)
I0212 08:00:24.946959 10478 net.cpp:150] Setting up relu1
I0212 08:00:24.946974 10478 net.cpp:157] Top shape: 100 32 15 15 (720000)
I0212 08:00:24.946982 10478 net.cpp:165] Memory required for data: 19214400
I0212 08:00:24.946991 10478 layer_factory.hpp:77] Creating layer conv2
I0212 08:00:24.947018 10478 net.cpp:106] Creating Layer conv2
I0212 08:00:24.947031 10478 net.cpp:454] conv2 <- pool1
I0212 08:00:24.947051 10478 net.cpp:411] conv2 -> conv2
I0212 08:00:24.951627 10478 net.cpp:150] Setting up conv2
I0212 08:00:24.951653 10478 net.cpp:157] Top shape: 100 32 15 15 (720000)
I0212 08:00:24.951663 10478 net.cpp:165] Memory required for data: 22094400
I0212 08:00:24.951684 10478 layer_factory.hpp:77] Creating layer relu2
I0212 08:00:24.951699 10478 net.cpp:106] Creating Layer relu2
I0212 08:00:24.951715 10478 net.cpp:454] relu2 <- conv2
I0212 08:00:24.951730 10478 net.cpp:397] relu2 -> conv2 (in-place)
I0212 08:00:24.951745 10478 net.cpp:150] Setting up relu2
I0212 08:00:24.951762 10478 net.cpp:157] Top shape: 100 32 15 15 (720000)
I0212 08:00:24.951771 10478 net.cpp:165] Memory required for data: 24974400
I0212 08:00:24.951781 10478 layer_factory.hpp:77] Creating layer pool2
I0212 08:00:24.951794 10478 net.cpp:106] Creating Layer pool2
I0212 08:00:24.951804 10478 net.cpp:454] pool2 <- conv2
I0212 08:00:24.951827 10478 net.cpp:411] pool2 -> pool2
I0212 08:00:24.951880 10478 net.cpp:150] Setting up pool2
I0212 08:00:24.951901 10478 net.cpp:157] Top shape: 100 32 7 7 (156800)
I0212 08:00:24.951910 10478 net.cpp:165] Memory required for data: 25601600
I0212 08:00:24.951920 10478 layer_factory.hpp:77] Creating layer conv3
I0212 08:00:24.951944 10478 net.cpp:106] Creating Layer conv3
I0212 08:00:24.951958 10478 net.cpp:454] conv3 <- pool2
I0212 08:00:24.951979 10478 net.cpp:411] conv3 -> conv3
I0212 08:00:24.953850 10478 net.cpp:150] Setting up conv3
I0212 08:00:24.953881 10478 net.cpp:157] Top shape: 100 64 7 7 (313600)
I0212 08:00:24.953891 10478 net.cpp:165] Memory required for data: 26856000
I0212 08:00:24.953912 10478 layer_factory.hpp:77] Creating layer relu3
I0212 08:00:24.953933 10478 net.cpp:106] Creating Layer relu3
I0212 08:00:24.953943 10478 net.cpp:454] relu3 <- conv3
I0212 08:00:24.953961 10478 net.cpp:397] relu3 -> conv3 (in-place)
I0212 08:00:24.953982 10478 net.cpp:150] Setting up relu3
I0212 08:00:24.953995 10478 net.cpp:157] Top shape: 100 64 7 7 (313600)
I0212 08:00:24.954005 10478 net.cpp:165] Memory required for data: 28110400
I0212 08:00:24.954046 10478 layer_factory.hpp:77] Creating layer pool3
I0212 08:00:24.954061 10478 net.cpp:106] Creating Layer pool3
I0212 08:00:24.954071 10478 net.cpp:454] pool3 <- conv3
I0212 08:00:24.954090 10478 net.cpp:411] pool3 -> pool3
I0212 08:00:24.954134 10478 net.cpp:150] Setting up pool3
I0212 08:00:24.954155 10478 net.cpp:157] Top shape: 100 64 3 3 (57600)
I0212 08:00:24.954164 10478 net.cpp:165] Memory required for data: 28340800
I0212 08:00:24.954174 10478 layer_factory.hpp:77] Creating layer ip1
I0212 08:00:24.954200 10478 net.cpp:106] Creating Layer ip1
I0212 08:00:24.954228 10478 net.cpp:454] ip1 <- pool3
I0212 08:00:24.954248 10478 net.cpp:411] ip1 -> ip1
I0212 08:00:24.955579 10478 net.cpp:150] Setting up ip1
I0212 08:00:24.955602 10478 net.cpp:157] Top shape: 100 64 (6400)
I0212 08:00:24.955612 10478 net.cpp:165] Memory required for data: 28366400
I0212 08:00:24.955631 10478 layer_factory.hpp:77] Creating layer ip2
I0212 08:00:24.955651 10478 net.cpp:106] Creating Layer ip2
I0212 08:00:24.955662 10478 net.cpp:454] ip2 <- ip1
I0212 08:00:24.955678 10478 net.cpp:411] ip2 -> ip2
I0212 08:00:24.956521 10478 net.cpp:150] Setting up ip2
I0212 08:00:24.956548 10478 net.cpp:157] Top shape: 100 100 (10000)
I0212 08:00:24.956558 10478 net.cpp:165] Memory required for data: 28406400
I0212 08:00:24.956580 10478 layer_factory.hpp:77] Creating layer loss
I0212 08:00:24.956599 10478 net.cpp:106] Creating Layer loss
I0212 08:00:24.956610 10478 net.cpp:454] loss <- ip2
I0212 08:00:24.956622 10478 net.cpp:454] loss <- label
I0212 08:00:24.956639 10478 net.cpp:411] loss -> loss
I0212 08:00:24.956670 10478 layer_factory.hpp:77] Creating layer loss
…
I0212 08:00:24.957607 10478 net.cpp:322] The NetState phase (1) differed from the phase (0) specified by a rule in layer cifar
I0212 08:00:24.957787 10478 net.cpp:49] Initializing net from parameters: 
name: "CIFAR100_quick"
state {
  phase: TEST
}
layer {
  name: "cifar"
  type: "Data"
  top: "data"
  top: "label"
  include {
    phase: TEST
  }
  transform_param {
    mirror: true
    crop_size: 31
    mean_file: "examples/GCN300_cifar100/GCN300_mean.binaryproto"
  }
  data_param {
    source: "examples/GCN300_cifar100/GCN300_cifar100_test_lmdb"
    scale: 0.00390625
    batch_size: 100
    backend: LMDB
  }
}
layer {
  name: "conv1"
  type: "Convolution"
  bottom: "data"
  top: "conv1"
  param {
    lr_mult: 1
  }
  param {
    lr_mult: 2
  }
  convolution_param {
    num_output: 32
    pad: 2
    kernel_size: 5
    stride: 1
    weight_filler {
      type: "gaussian"
      std: 0.0001
    }
    bias_filler {
      type: "constant"
    }
  }
}
layer {
  name: "pool1"
  type: "Pooling"
  bottom: "conv1"
  top: "pool1"
  pooling_param {
    pool: MAX
    kernel_size: 3
    stride: 2
  }
}
layer {
  name: "relu1"
  type: "ReLU"
  bottom: "pool1"
  top: "pool1"
}
layer {
  name: "conv2"
  type: "Convolution"
  bottom: "pool1"
  top: "conv2"
  param {
    lr_mult: 1
  }
  param {
    lr_mult: 2
  }
  convolution_param {
    num_output: 32
    pad: 2
    kernel_size: 5
    stride: 1
    weight_filler {
      type: "gaussian"
      std: 0.01
    }
    bias_filler {
      type: "constant"
    }
  }
}
layer {
  name: "relu2"
  type: "ReLU"
  bottom: "conv2"
  top: "conv2"
}
layer {
  name: "pool2"
  type: "Pooling"
  bottom: "conv2"
  top: "pool2"
  pooling_param {
    pool: AVE
    kernel_size: 3
    stride: 2
  }
}
layer {
  name: "conv3"
  type: "Convolution"
  bottom: "pool2"
  top: "conv3"
  param {
    lr_mult: 1
  }
  param {
    lr_mult: 2
  }
  convolution_param {
    num_output: 64
    pad: 2
    kernel_size: 5
    stride: 1
    weight_filler {
      type: "gaussian"
      std: 0.01
    }
    bias_filler {
      type: "constant"
    }
  }
}
layer {
  name: "relu3"
  type: "ReLU"
  bottom: "conv3"
  top: "conv3"
}
layer {
  name: "pool3"
  type: "Pooling"
  bottom: "conv3"
  top: "pool3"
  pooling_param {
    pool: AVE
    kernel_size: 3
    stride: 2
  }
}
layer {
  name: "ip1"
  type: "InnerProduct"
  bottom: "pool3"
  top: "ip1"
  param {
    lr_mult: 1
  }
  param {
    lr_mult: 2
  }
  inner_product_param {
    num_output: 64
    weight_filler {
      type: "gaussian"
      std: 0.1
    }
    bias_filler {
      type: "constant"
    }
  }
}
layer {
  name: "ip2"
  type: "InnerProduct"
  bottom: "ip1"
  top: "ip2"
  param {
    lr_mult: 1
  }
  param {
    lr_mult: 2
  }
  inner_product_param {
    num_output: 100
    weight_filler {
      type: "gaussian"
      std: 0.1
    }
    bias_filler {
      type: "constant"
    }
  }
}
layer {
  name: "accuracy"
  type: "Accuracy"
  bottom: "ip2"
  bottom: "label"
  top: "accuracy"
  include {
    phase: TEST
  }
}
layer {
  name: "loss"
  type: "SoftmaxWithLoss"
  bottom: "ip2"
  bottom: "label"
  top: "loss"
}
I0212 08:00:24.957972 10478 layer_factory.hpp:77] Creating layer cifar
I0212 08:00:24.958616 10478 net.cpp:106] Creating Layer cifar
I0212 08:00:24.958700 10478 net.cpp:411] cifar -> data
I0212 08:00:24.958727 10478 net.cpp:411] cifar -> label
I0212 08:00:24.958746 10478 data_transformer.cpp:25] Loading mean file from: examples/GCN300_cifar100/GCN300_mean.binaryproto
I0212 08:00:24.959493 10483 db_lmdb.cpp:38] Opened lmdb examples/GCN300_cifar100/GCN300_cifar100_test_lmdb
I0212 08:00:24.959622 10478 data_layer.cpp:41] output data size: 100,3,31,31
I0212 08:00:24.984365 10478 net.cpp:150] Setting up cifar
I0212 08:00:24.984392 10478 net.cpp:157] Top shape: 100 3 31 31 (288300)
I0212 08:00:24.984413 10478 net.cpp:157] Top shape: 100 (100)
I0212 08:00:24.984423 10478 net.cpp:165] Memory required for data: 1153600
I0212 08:00:24.984436 10478 layer_factory.hpp:77] Creating layer label_cifar_1_split
I0212 08:00:24.984455 10478 net.cpp:106] Creating Layer label_cifar_1_split
I0212 08:00:24.984467 10478 net.cpp:454] label_cifar_1_split <- label
I0212 08:00:24.984482 10478 net.cpp:411] label_cifar_1_split -> label_cifar_1_split_0
I0212 08:00:24.984501 10478 net.cpp:411] label_cifar_1_split -> label_cifar_1_split_1
I0212 08:00:24.984582 10478 net.cpp:150] Setting up label_cifar_1_split
I0212 08:00:24.984604 10478 net.cpp:157] Top shape: 100 (100)
I0212 08:00:24.984617 10478 net.cpp:157] Top shape: 100 (100)
I0212 08:00:24.984627 10478 net.cpp:165] Memory required for data: 1154400
I0212 08:00:24.984634 10478 layer_factory.hpp:77] Creating layer conv1
I0212 08:00:24.984681 10478 net.cpp:106] Creating Layer conv1
I0212 08:00:24.984695 10478 net.cpp:454] conv1 <- data
I0212 08:00:24.984714 10478 net.cpp:411] conv1 -> conv1
I0212 08:00:24.985059 10478 net.cpp:150] Setting up conv1
I0212 08:00:24.985082 10478 net.cpp:157] Top shape: 100 32 31 31 (3075200)
I0212 08:00:24.985111 10478 net.cpp:165] Memory required for data: 13455200
I0212 08:00:24.985136 10478 layer_factory.hpp:77] Creating layer pool1
I0212 08:00:24.985155 10478 net.cpp:106] Creating Layer pool1
I0212 08:00:24.985167 10478 net.cpp:454] pool1 <- conv1
I0212 08:00:24.985180 10478 net.cpp:411] pool1 -> pool1
I0212 08:00:24.985250 10478 net.cpp:150] Setting up pool1
I0212 08:00:24.985271 10478 net.cpp:157] Top shape: 100 32 15 15 (720000)
I0212 08:00:24.985281 10478 net.cpp:165] Memory required for data: 16335200
I0212 08:00:24.985297 10478 layer_factory.hpp:77] Creating layer relu1
I0212 08:00:24.985313 10478 net.cpp:106] Creating Layer relu1
I0212 08:00:24.985324 10478 net.cpp:454] relu1 <- pool1
I0212 08:00:24.985342 10478 net.cpp:397] relu1 -> pool1 (in-place)
I0212 08:00:24.985368 10478 net.cpp:150] Setting up relu1
I0212 08:00:24.985383 10478 net.cpp:157] Top shape: 100 32 15 15 (720000)
I0212 08:00:24.985390 10478 net.cpp:165] Memory required for data: 19215200
I0212 08:00:24.985401 10478 layer_factory.hpp:77] Creating layer conv2
I0212 08:00:24.985424 10478 net.cpp:106] Creating Layer conv2
I0212 08:00:24.985435 10478 net.cpp:454] conv2 <- pool1
I0212 08:00:24.985450 10478 net.cpp:411] conv2 -> conv2
I0212 08:00:24.990190 10478 net.cpp:150] Setting up conv2
I0212 08:00:24.990213 10478 net.cpp:157] Top shape: 100 32 15 15 (720000)
I0212 08:00:24.990223 10478 net.cpp:165] Memory required for data: 22095200
I0212 08:00:24.990244 10478 layer_factory.hpp:77] Creating layer relu2
I0212 08:00:24.990259 10478 net.cpp:106] Creating Layer relu2
I0212 08:00:24.990290 10478 net.cpp:454] relu2 <- conv2
I0212 08:00:24.990319 10478 net.cpp:397] relu2 -> conv2 (in-place)
I0212 08:00:24.990336 10478 net.cpp:150] Setting up relu2
I0212 08:00:24.990350 10478 net.cpp:157] Top shape: 100 32 15 15 (720000)
I0212 08:00:24.990358 10478 net.cpp:165] Memory required for data: 24975200
I0212 08:00:24.990368 10478 layer_factory.hpp:77] Creating layer pool2
I0212 08:00:24.990382 10478 net.cpp:106] Creating Layer pool2
I0212 08:00:24.990392 10478 net.cpp:454] pool2 <- conv2
I0212 08:00:24.990411 10478 net.cpp:411] pool2 -> pool2
I0212 08:00:24.990458 10478 net.cpp:150] Setting up pool2
I0212 08:00:24.990478 10478 net.cpp:157] Top shape: 100 32 7 7 (156800)
I0212 08:00:24.990488 10478 net.cpp:165] Memory required for data: 25602400
I0212 08:00:24.990497 10478 layer_factory.hpp:77] Creating layer conv3
I0212 08:00:24.990526 10478 net.cpp:106] Creating Layer conv3
I0212 08:00:24.990540 10478 net.cpp:454] conv3 <- pool2
I0212 08:00:24.990556 10478 net.cpp:411] conv3 -> conv3
I0212 08:00:24.992460 10478 net.cpp:150] Setting up conv3
I0212 08:00:24.992483 10478 net.cpp:157] Top shape: 100 64 7 7 (313600)
I0212 08:00:24.992494 10478 net.cpp:165] Memory required for data: 26856800
I0212 08:00:24.992516 10478 layer_factory.hpp:77] Creating layer relu3
I0212 08:00:24.992533 10478 net.cpp:106] Creating Layer relu3
I0212 08:00:24.992544 10478 net.cpp:454] relu3 <- conv3
I0212 08:00:24.992558 10478 net.cpp:397] relu3 -> conv3 (in-place)
I0212 08:00:24.992574 10478 net.cpp:150] Setting up relu3
I0212 08:00:24.992586 10478 net.cpp:157] Top shape: 100 64 7 7 (313600)
I0212 08:00:24.992596 10478 net.cpp:165] Memory required for data: 28111200
I0212 08:00:24.992606 10478 layer_factory.hpp:77] Creating layer pool3
I0212 08:00:24.992632 10478 net.cpp:106] Creating Layer pool3
I0212 08:00:24.992650 10478 net.cpp:454] pool3 <- conv3
I0212 08:00:24.992666 10478 net.cpp:411] pool3 -> pool3
I0212 08:00:24.992715 10478 net.cpp:150] Setting up pool3
I0212 08:00:24.992735 10478 net.cpp:157] Top shape: 100 64 3 3 (57600)
I0212 08:00:24.992746 10478 net.cpp:165] Memory required for data: 28341600
I0212 08:00:24.992755 10478 layer_factory.hpp:77] Creating layer ip1
I0212 08:00:24.992771 10478 net.cpp:106] Creating Layer ip1
I0212 08:00:24.992792 10478 net.cpp:454] ip1 <- pool3
I0212 08:00:24.992807 10478 net.cpp:411] ip1 -> ip1
I0212 08:00:24.994182 10478 net.cpp:150] Setting up ip1
I0212 08:00:24.994206 10478 net.cpp:157] Top shape: 100 64 (6400)
I0212 08:00:24.994235 10478 net.cpp:165] Memory required for data: 28367200
I0212 08:00:24.994253 10478 layer_factory.hpp:77] Creating layer ip2
I0212 08:00:24.994300 10478 net.cpp:106] Creating Layer ip2
I0212 08:00:24.994318 10478 net.cpp:454] ip2 <- ip1
I0212 08:00:24.994339 10478 net.cpp:411] ip2 -> ip2
I0212 08:00:24.994709 10478 net.cpp:150] Setting up ip2
I0212 08:00:24.994730 10478 net.cpp:157] Top shape: 100 100 (10000)
I0212 08:00:24.994740 10478 net.cpp:165] Memory required for data: 28407200
I0212 08:00:24.994766 10478 layer_factory.hpp:77] Creating layer ip2_ip2_0_split
I0212 08:00:24.994781 10478 net.cpp:106] Creating Layer ip2_ip2_0_split
I0212 08:00:24.994791 10478 net.cpp:454] ip2_ip2_0_split <- ip2
I0212 08:00:24.994806 10478 net.cpp:411] ip2_ip2_0_split -> ip2_ip2_0_split_0
I0212 08:00:24.994822 10478 net.cpp:411] ip2_ip2_0_split -> ip2_ip2_0_split_1
I0212 08:00:24.994894 10478 net.cpp:150] Setting up ip2_ip2_0_split
I0212 08:00:24.994918 10478 net.cpp:157] Top shape: 100 100 (10000)
I0212 08:00:24.994930 10478 net.cpp:157] Top shape: 100 100 (10000)
I0212 08:00:24.994940 10478 net.cpp:165] Memory required for data: 28487200
I0212 08:00:24.994948 10478 layer_factory.hpp:77] Creating layer accuracy
I0212 08:00:24.994966 10478 net.cpp:106] Creating Layer accuracy
I0212 08:00:24.994977 10478 net.cpp:454] accuracy <- ip2_ip2_0_split_0
I0212 08:00:24.994988 10478 net.cpp:454] accuracy <- label_cifar_1_split_0
I0212 08:00:24.995002 10478 net.cpp:411] accuracy -> accuracy
…
