…
I0212 07:09:56.775575  8209 net.cpp:322] The NetState phase (0) differed from the phase (1) specified by a rule in layer accuracy
I0212 07:09:56.775816  8209 net.cpp:49] Initializing net from parameters: 
name: "CIFAR100_quick"
state {
  phase: TRAIN
}
layer {
  name: "cifar"
  type: "Data"
  top: "data"
  top: "label"
  include {
    phase: TRAIN
  }
  transform_param {
    mirror: true
    crop_size: 31
    mean_file: "examples/GCN_cifar100/mean.binaryproto"
  }
  data_param {
    source: "examples/GCN_cifar100/cifar100_train_lmdb"
    scale: 0.00390625
    batch_size: 100
    backend: LMDB
  }
}
layer {
  name: "conv1"
  type: "Convolution"
  bottom: "data"
  top: "conv1"
  param {
    lr_mult: 1
  }
  param {
    lr_mult: 2
  }
  convolution_param {
    num_output: 32
    pad: 2
    kernel_size: 5
    stride: 1
    weight_filler {
      type: "gaussian"
      std: 0.0001
    }
    bias_filler {
      type: "constant"
    }
  }
}
layer {
  name: "pool1"
  type: "Pooling"
  bottom: "conv1"
  top: "pool1"
  pooling_param {
    pool: MAX
    kernel_size: 3
    stride: 2
  }
}
layer {
  name: "relu1"
  type: "ReLU"
  bottom: "pool1"
  top: "pool1"
}
layer {
  name: "conv2"
  type: "Convolution"
  bottom: "pool1"
  top: "conv2"
  param {
    lr_mult: 1
  }
  param {
    lr_mult: 2
  }
  convolution_param {
    num_output: 32
    pad: 2
    kernel_size: 5
    stride: 1
    weight_filler {
      type: "gaussian"
      std: 0.01
    }
    bias_filler {
      type: "constant"
    }
  }
}
layer {
  name: "relu2"
  type: "ReLU"
  bottom: "conv2"
  top: "conv2"
}
layer {
  name: "pool2"
  type: "Pooling"
  bottom: "conv2"
  top: "pool2"
  pooling_param {
    pool: AVE
    kernel_size: 3
    stride: 2
  }
}
layer {
  name: "conv3"
  type: "Convolution"
  bottom: "pool2"
  top: "conv3"
  param {
    lr_mult: 1
  }
  param {
    lr_mult: 2
  }
  convolution_param {
    num_output: 64
    pad: 2
    kernel_size: 5
    stride: 1
    weight_filler {
      type: "gaussian"
      std: 0.01
    }
    bias_filler {
      type: "constant"
    }
  }
}
layer {
  name: "relu3"
  type: "ReLU"
  bottom: "conv3"
  top: "conv3"
}
layer {
  name: "pool3"
  type: "Pooling"
  bottom: "conv3"
  top: "pool3"
  pooling_param {
    pool: AVE
    kernel_size: 3
    stride: 2
  }
}
layer {
  name: "ip1"
  type: "InnerProduct"
  bottom: "pool3"
  top: "ip1"
  param {
    lr_mult: 1
  }
  param {
    lr_mult: 2
  }
  inner_product_param {
    num_output: 64
    weight_filler {
      type: "gaussian"
      std: 0.1
    }
    bias_filler {
      type: "constant"
    }
  }
}
layer {
  name: "ip2"
  type: "InnerProduct"
  bottom: "ip1"
  top: "ip2"
  param {
    lr_mult: 1
  }
  param {
    lr_mult: 2
  }
  inner_product_param {
    num_output: 100
    weight_filler {
      type: "gaussian"
      std: 0.1
    }
    bias_filler {
      type: "constant"
    }
  }
}
layer {
  name: "loss"
  type: "SoftmaxWithLoss"
  bottom: "ip2"
  bottom: "label"
  top: "loss"
}
I0212 07:09:56.775980  8209 layer_factory.hpp:77] Creating layer cifar
I0212 07:09:56.776909  8209 net.cpp:106] Creating Layer cifar
I0212 07:09:56.776942  8209 net.cpp:411] cifar -> data
I0212 07:09:56.776986  8209 net.cpp:411] cifar -> label
I0212 07:09:56.777024  8209 data_transformer.cpp:25] Loading mean file from: examples/GCN_cifar100/mean.binaryproto
I0212 07:09:56.777549  8212 db_lmdb.cpp:38] Opened lmdb examples/GCN_cifar100/cifar100_train_lmdb
I0212 07:09:56.830714  8209 data_layer.cpp:41] output data size: 100,3,31,31
I0212 07:09:56.838433  8209 net.cpp:150] Setting up cifar
I0212 07:09:56.838460  8209 net.cpp:157] Top shape: 100 3 31 31 (288300)
I0212 07:09:56.838469  8209 net.cpp:157] Top shape: 100 (100)
I0212 07:09:56.838485  8209 net.cpp:165] Memory required for data: 1153600
I0212 07:09:56.838502  8209 layer_factory.hpp:77] Creating layer conv1
I0212 07:09:56.838546  8209 net.cpp:106] Creating Layer conv1
I0212 07:09:56.838572  8209 net.cpp:454] conv1 <- data
I0212 07:09:56.838608  8209 net.cpp:411] conv1 -> conv1
I0212 07:09:56.839768  8209 net.cpp:150] Setting up conv1
I0212 07:09:56.839788  8209 net.cpp:157] Top shape: 100 32 31 31 (3075200)
I0212 07:09:56.839794  8209 net.cpp:165] Memory required for data: 13454400
I0212 07:09:56.839820  8209 layer_factory.hpp:77] Creating layer pool1
I0212 07:09:56.839850  8209 net.cpp:106] Creating Layer pool1
I0212 07:09:56.839871  8209 net.cpp:454] pool1 <- conv1
I0212 07:09:56.839890  8209 net.cpp:411] pool1 -> pool1
I0212 07:09:56.840026  8209 net.cpp:150] Setting up pool1
I0212 07:09:56.840051  8209 net.cpp:157] Top shape: 100 32 15 15 (720000)
I0212 07:09:56.840065  8209 net.cpp:165] Memory required for data: 16334400
I0212 07:09:56.840075  8209 layer_factory.hpp:77] Creating layer relu1
I0212 07:09:56.840088  8209 net.cpp:106] Creating Layer relu1
I0212 07:09:56.840097  8209 net.cpp:454] relu1 <- pool1
I0212 07:09:56.840145  8209 net.cpp:397] relu1 -> pool1 (in-place)
I0212 07:09:56.840183  8209 net.cpp:150] Setting up relu1
I0212 07:09:56.840198  8209 net.cpp:157] Top shape: 100 32 15 15 (720000)
I0212 07:09:56.840206  8209 net.cpp:165] Memory required for data: 19214400
I0212 07:09:56.840219  8209 layer_factory.hpp:77] Creating layer conv2
I0212 07:09:56.840245  8209 net.cpp:106] Creating Layer conv2
I0212 07:09:56.840266  8209 net.cpp:454] conv2 <- pool1
I0212 07:09:56.840289  8209 net.cpp:411] conv2 -> conv2
I0212 07:09:56.842049  8209 net.cpp:150] Setting up conv2
I0212 07:09:56.842072  8209 net.cpp:157] Top shape: 100 32 15 15 (720000)
I0212 07:09:56.842077  8209 net.cpp:165] Memory required for data: 22094400
I0212 07:09:56.842089  8209 layer_factory.hpp:77] Creating layer relu2
I0212 07:09:56.842103  8209 net.cpp:106] Creating Layer relu2
I0212 07:09:56.842116  8209 net.cpp:454] relu2 <- conv2
I0212 07:09:56.842134  8209 net.cpp:397] relu2 -> conv2 (in-place)
I0212 07:09:56.842150  8209 net.cpp:150] Setting up relu2
I0212 07:09:56.842166  8209 net.cpp:157] Top shape: 100 32 15 15 (720000)
I0212 07:09:56.842175  8209 net.cpp:165] Memory required for data: 24974400
I0212 07:09:56.842185  8209 layer_factory.hpp:77] Creating layer pool2
I0212 07:09:56.842197  8209 net.cpp:106] Creating Layer pool2
I0212 07:09:56.842206  8209 net.cpp:454] pool2 <- conv2
I0212 07:09:56.842219  8209 net.cpp:411] pool2 -> pool2
I0212 07:09:56.842290  8209 net.cpp:150] Setting up pool2
I0212 07:09:56.842319  8209 net.cpp:157] Top shape: 100 32 7 7 (156800)
I0212 07:09:56.842327  8209 net.cpp:165] Memory required for data: 25601600
I0212 07:09:56.842336  8209 layer_factory.hpp:77] Creating layer conv3
I0212 07:09:56.842358  8209 net.cpp:106] Creating Layer conv3
I0212 07:09:56.842368  8209 net.cpp:454] conv3 <- pool2
I0212 07:09:56.842387  8209 net.cpp:411] conv3 -> conv3
I0212 07:09:56.844521  8209 net.cpp:150] Setting up conv3
I0212 07:09:56.844543  8209 net.cpp:157] Top shape: 100 64 7 7 (313600)
I0212 07:09:56.844553  8209 net.cpp:165] Memory required for data: 26856000
I0212 07:09:56.844574  8209 layer_factory.hpp:77] Creating layer relu3
I0212 07:09:56.844621  8209 net.cpp:106] Creating Layer relu3
I0212 07:09:56.844643  8209 net.cpp:454] relu3 <- conv3
I0212 07:09:56.844661  8209 net.cpp:397] relu3 -> conv3 (in-place)
I0212 07:09:56.844683  8209 net.cpp:150] Setting up relu3
I0212 07:09:56.844703  8209 net.cpp:157] Top shape: 100 64 7 7 (313600)
I0212 07:09:56.844712  8209 net.cpp:165] Memory required for data: 28110400
I0212 07:09:56.844722  8209 layer_factory.hpp:77] Creating layer pool3
I0212 07:09:56.844756  8209 net.cpp:106] Creating Layer pool3
I0212 07:09:56.844768  8209 net.cpp:454] pool3 <- conv3
I0212 07:09:56.844789  8209 net.cpp:411] pool3 -> pool3
I0212 07:09:56.844842  8209 net.cpp:150] Setting up pool3
I0212 07:09:56.844866  8209 net.cpp:157] Top shape: 100 64 3 3 (57600)
I0212 07:09:56.844876  8209 net.cpp:165] Memory required for data: 28340800
I0212 07:09:56.844884  8209 layer_factory.hpp:77] Creating layer ip1
I0212 07:09:56.844912  8209 net.cpp:106] Creating Layer ip1
I0212 07:09:56.844930  8209 net.cpp:454] ip1 <- pool3
I0212 07:09:56.844947  8209 net.cpp:411] ip1 -> ip1
I0212 07:09:56.846457  8209 net.cpp:150] Setting up ip1
I0212 07:09:56.846475  8209 net.cpp:157] Top shape: 100 64 (6400)
I0212 07:09:56.846482  8209 net.cpp:165] Memory required for data: 28366400
I0212 07:09:56.846489  8209 layer_factory.hpp:77] Creating layer ip2
I0212 07:09:56.846514  8209 net.cpp:106] Creating Layer ip2
I0212 07:09:56.846525  8209 net.cpp:454] ip2 <- ip1
I0212 07:09:56.846539  8209 net.cpp:411] ip2 -> ip2
I0212 07:09:56.847467  8209 net.cpp:150] Setting up ip2
I0212 07:09:56.847487  8209 net.cpp:157] Top shape: 100 100 (10000)
I0212 07:09:56.847492  8209 net.cpp:165] Memory required for data: 28406400
I0212 07:09:56.847506  8209 layer_factory.hpp:77] Creating layer loss
I0212 07:09:56.847524  8209 net.cpp:106] Creating Layer loss
I0212 07:09:56.847543  8209 net.cpp:454] loss <- ip2
I0212 07:09:56.847556  8209 net.cpp:454] loss <- label
I0212 07:09:56.847579  8209 net.cpp:411] loss -> loss
I0212 07:09:56.847615  8209 layer_factory.hpp:77] Creating layer loss
…
I0212 07:09:56.849056  8209 net.cpp:322] The NetState phase (1) differed from the phase (0) specified by a rule in layer cifar
I0212 07:09:56.849333  8209 net.cpp:49] Initializing net from parameters: 
name: "CIFAR100_quick"
state {
  phase: TEST
}
layer {
  name: "cifar"
  type: "Data"
  top: "data"
  top: "label"
  include {
    phase: TEST
  }
  transform_param {
    mirror: true
    crop_size: 31
    mean_file: "examples/GCN_cifar100/mean.binaryproto"
  }
  data_param {
    source: "examples/GCN_cifar100/cifar100_test_lmdb"
    scale: 0.00390625
    batch_size: 100
    backend: LMDB
  }
}
layer {
  name: "conv1"
  type: "Convolution"
  bottom: "data"
  top: "conv1"
  param {
    lr_mult: 1
  }
  param {
    lr_mult: 2
  }
  convolution_param {
    num_output: 32
    pad: 2
    kernel_size: 5
    stride: 1
    weight_filler {
      type: "gaussian"
      std: 0.0001
    }
    bias_filler {
      type: "constant"
    }
  }
}
layer {
  name: "pool1"
  type: "Pooling"
  bottom: "conv1"
  top: "pool1"
  pooling_param {
    pool: MAX
    kernel_size: 3
    stride: 2
  }
}
layer {
  name: "relu1"
  type: "ReLU"
  bottom: "pool1"
  top: "pool1"
}
layer {
  name: "conv2"
  type: "Convolution"
  bottom: "pool1"
  top: "conv2"
  param {
    lr_mult: 1
  }
  param {
    lr_mult: 2
  }
  convolution_param {
    num_output: 32
    pad: 2
    kernel_size: 5
    stride: 1
    weight_filler {
      type: "gaussian"
      std: 0.01
    }
    bias_filler {
      type: "constant"
    }
  }
}
layer {
  name: "relu2"
  type: "ReLU"
  bottom: "conv2"
  top: "conv2"
}
layer {
  name: "pool2"
  type: "Pooling"
  bottom: "conv2"
  top: "pool2"
  pooling_param {
    pool: AVE
    kernel_size: 3
    stride: 2
  }
}
layer {
  name: "conv3"
  type: "Convolution"
  bottom: "pool2"
  top: "conv3"
  param {
    lr_mult: 1
  }
  param {
    lr_mult: 2
  }
  convolution_param {
    num_output: 64
    pad: 2
    kernel_size: 5
    stride: 1
    weight_filler {
      type: "gaussian"
      std: 0.01
    }
    bias_filler {
      type: "constant"
    }
  }
}
layer {
  name: "relu3"
  type: "ReLU"
  bottom: "conv3"
  top: "conv3"
}
layer {
  name: "pool3"
  type: "Pooling"
  bottom: "conv3"
  top: "pool3"
  pooling_param {
    pool: AVE
    kernel_size: 3
    stride: 2
  }
}
layer {
  name: "ip1"
  type: "InnerProduct"
  bottom: "pool3"
  top: "ip1"
  param {
    lr_mult: 1
  }
  param {
    lr_mult: 2
  }
  inner_product_param {
    num_output: 64
    weight_filler {
      type: "gaussian"
      std: 0.1
    }
    bias_filler {
      type: "constant"
    }
  }
}
layer {
  name: "ip2"
  type: "InnerProduct"
  bottom: "ip1"
  top: "ip2"
  param {
    lr_mult: 1
  }
  param {
    lr_mult: 2
  }
  inner_product_param {
    num_output: 100
    weight_filler {
      type: "gaussian"
      std: 0.1
    }
    bias_filler {
      type: "constant"
    }
  }
}
layer {
  name: "accuracy"
  type: "Accuracy"
  bottom: "ip2"
  bottom: "label"
  top: "accuracy"
  include {
    phase: TEST
  }
}
layer {
  name: "loss"
  type: "SoftmaxWithLoss"
  bottom: "ip2"
  bottom: "label"
  top: "loss"
}
I0212 07:09:56.849510  8209 layer_factory.hpp:77] Creating layer cifar
I0212 07:09:56.849711  8209 net.cpp:106] Creating Layer cifar
I0212 07:09:56.849803  8209 net.cpp:411] cifar -> data
I0212 07:09:56.849835  8209 net.cpp:411] cifar -> label
I0212 07:09:56.849853  8209 data_transformer.cpp:25] Loading mean file from: examples/GCN_cifar100/mean.binaryproto
I0212 07:09:56.850409  8214 db_lmdb.cpp:38] Opened lmdb examples/GCN_cifar100/cifar100_test_lmdb
I0212 07:09:56.850579  8209 data_layer.cpp:41] output data size: 100,3,31,31
I0212 07:09:56.856212  8209 net.cpp:150] Setting up cifar
I0212 07:09:56.856235  8209 net.cpp:157] Top shape: 100 3 31 31 (288300)
I0212 07:09:56.856246  8209 net.cpp:157] Top shape: 100 (100)
I0212 07:09:56.856251  8209 net.cpp:165] Memory required for data: 1153600
I0212 07:09:56.856257  8209 layer_factory.hpp:77] Creating layer label_cifar_1_split
I0212 07:09:56.856271  8209 net.cpp:106] Creating Layer label_cifar_1_split
I0212 07:09:56.856287  8209 net.cpp:454] label_cifar_1_split <- label
I0212 07:09:56.856302  8209 net.cpp:411] label_cifar_1_split -> label_cifar_1_split_0
I0212 07:09:56.856322  8209 net.cpp:411] label_cifar_1_split -> label_cifar_1_split_1
I0212 07:09:56.856410  8209 net.cpp:150] Setting up label_cifar_1_split
I0212 07:09:56.856437  8209 net.cpp:157] Top shape: 100 (100)
I0212 07:09:56.856485  8209 net.cpp:157] Top shape: 100 (100)
I0212 07:09:56.856503  8209 net.cpp:165] Memory required for data: 1154400
I0212 07:09:56.856513  8209 layer_factory.hpp:77] Creating layer conv1
I0212 07:09:56.856540  8209 net.cpp:106] Creating Layer conv1
I0212 07:09:56.856559  8209 net.cpp:454] conv1 <- data
I0212 07:09:56.856573  8209 net.cpp:411] conv1 -> conv1
I0212 07:09:56.857233  8209 net.cpp:150] Setting up conv1
I0212 07:09:56.857259  8209 net.cpp:157] Top shape: 100 32 31 31 (3075200)
I0212 07:09:56.857269  8209 net.cpp:165] Memory required for data: 13455200
I0212 07:09:56.857338  8209 layer_factory.hpp:77] Creating layer pool1
I0212 07:09:56.857386  8209 net.cpp:106] Creating Layer pool1
I0212 07:09:56.857422  8209 net.cpp:454] pool1 <- conv1
I0212 07:09:56.857460  8209 net.cpp:411] pool1 -> pool1
I0212 07:09:56.857549  8209 net.cpp:150] Setting up pool1
I0212 07:09:56.857575  8209 net.cpp:157] Top shape: 100 32 15 15 (720000)
I0212 07:09:56.857589  8209 net.cpp:165] Memory required for data: 16335200
I0212 07:09:56.857599  8209 layer_factory.hpp:77] Creating layer relu1
I0212 07:09:56.857614  8209 net.cpp:106] Creating Layer relu1
I0212 07:09:56.857626  8209 net.cpp:454] relu1 <- pool1
I0212 07:09:56.857641  8209 net.cpp:397] relu1 -> pool1 (in-place)
I0212 07:09:56.857658  8209 net.cpp:150] Setting up relu1
I0212 07:09:56.857700  8209 net.cpp:157] Top shape: 100 32 15 15 (720000)
I0212 07:09:56.857735  8209 net.cpp:165] Memory required for data: 19215200
I0212 07:09:56.857777  8209 layer_factory.hpp:77] Creating layer conv2
I0212 07:09:56.857830  8209 net.cpp:106] Creating Layer conv2
I0212 07:09:56.857851  8209 net.cpp:454] conv2 <- pool1
I0212 07:09:56.857867  8209 net.cpp:411] conv2 -> conv2
I0212 07:09:56.859117  8209 net.cpp:150] Setting up conv2
I0212 07:09:56.859139  8209 net.cpp:157] Top shape: 100 32 15 15 (720000)
I0212 07:09:56.859145  8209 net.cpp:165] Memory required for data: 22095200
I0212 07:09:56.859156  8209 layer_factory.hpp:77] Creating layer relu2
I0212 07:09:56.859164  8209 net.cpp:106] Creating Layer relu2
I0212 07:09:56.859169  8209 net.cpp:454] relu2 <- conv2
I0212 07:09:56.859175  8209 net.cpp:397] relu2 -> conv2 (in-place)
I0212 07:09:56.859184  8209 net.cpp:150] Setting up relu2
I0212 07:09:56.859202  8209 net.cpp:157] Top shape: 100 32 15 15 (720000)
I0212 07:09:56.859211  8209 net.cpp:165] Memory required for data: 24975200
I0212 07:09:56.859221  8209 layer_factory.hpp:77] Creating layer pool2
I0212 07:09:56.859235  8209 net.cpp:106] Creating Layer pool2
I0212 07:09:56.859254  8209 net.cpp:454] pool2 <- conv2
I0212 07:09:56.859273  8209 net.cpp:411] pool2 -> pool2
I0212 07:09:56.859324  8209 net.cpp:150] Setting up pool2
I0212 07:09:56.859349  8209 net.cpp:157] Top shape: 100 32 7 7 (156800)
I0212 07:09:56.859356  8209 net.cpp:165] Memory required for data: 25602400
I0212 07:09:56.859365  8209 layer_factory.hpp:77] Creating layer conv3
I0212 07:09:56.859391  8209 net.cpp:106] Creating Layer conv3
I0212 07:09:56.859405  8209 net.cpp:454] conv3 <- pool2
I0212 07:09:56.859424  8209 net.cpp:411] conv3 -> conv3
I0212 07:09:56.861531  8209 net.cpp:150] Setting up conv3
I0212 07:09:56.861556  8209 net.cpp:157] Top shape: 100 64 7 7 (313600)
I0212 07:09:56.861560  8209 net.cpp:165] Memory required for data: 26856800
I0212 07:09:56.861575  8209 layer_factory.hpp:77] Creating layer relu3
I0212 07:09:56.861598  8209 net.cpp:106] Creating Layer relu3
I0212 07:09:56.861608  8209 net.cpp:454] relu3 <- conv3
I0212 07:09:56.861623  8209 net.cpp:397] relu3 -> conv3 (in-place)
I0212 07:09:56.861636  8209 net.cpp:150] Setting up relu3
I0212 07:09:56.861647  8209 net.cpp:157] Top shape: 100 64 7 7 (313600)
I0212 07:09:56.861655  8209 net.cpp:165] Memory required for data: 28111200
I0212 07:09:56.861665  8209 layer_factory.hpp:77] Creating layer pool3
I0212 07:09:56.861678  8209 net.cpp:106] Creating Layer pool3
I0212 07:09:56.861687  8209 net.cpp:454] pool3 <- conv3
I0212 07:09:56.861698  8209 net.cpp:411] pool3 -> pool3
I0212 07:09:56.861750  8209 net.cpp:150] Setting up pool3
I0212 07:09:56.861774  8209 net.cpp:157] Top shape: 100 64 3 3 (57600)
I0212 07:09:56.861783  8209 net.cpp:165] Memory required for data: 28341600
I0212 07:09:56.861793  8209 layer_factory.hpp:77] Creating layer ip1
I0212 07:09:56.861807  8209 net.cpp:106] Creating Layer ip1
I0212 07:09:56.861819  8209 net.cpp:454] ip1 <- pool3
I0212 07:09:56.861838  8209 net.cpp:411] ip1 -> ip1
I0212 07:09:56.863374  8209 net.cpp:150] Setting up ip1
I0212 07:09:56.863397  8209 net.cpp:157] Top shape: 100 64 (6400)
I0212 07:09:56.863404  8209 net.cpp:165] Memory required for data: 28367200
I0212 07:09:56.863447  8209 layer_factory.hpp:77] Creating layer ip2
I0212 07:09:56.863466  8209 net.cpp:106] Creating Layer ip2
I0212 07:09:56.863483  8209 net.cpp:454] ip2 <- ip1
I0212 07:09:56.863503  8209 net.cpp:411] ip2 -> ip2
I0212 07:09:56.863941  8209 net.cpp:150] Setting up ip2
I0212 07:09:56.863960  8209 net.cpp:157] Top shape: 100 100 (10000)
I0212 07:09:56.863965  8209 net.cpp:165] Memory required for data: 28407200
I0212 07:09:56.863983  8209 layer_factory.hpp:77] Creating layer ip2_ip2_0_split
I0212 07:09:56.864006  8209 net.cpp:106] Creating Layer ip2_ip2_0_split
I0212 07:09:56.864019  8209 net.cpp:454] ip2_ip2_0_split <- ip2
I0212 07:09:56.864032  8209 net.cpp:411] ip2_ip2_0_split -> ip2_ip2_0_split_0
I0212 07:09:56.864056  8209 net.cpp:411] ip2_ip2_0_split -> ip2_ip2_0_split_1
I0212 07:09:56.864131  8209 net.cpp:150] Setting up ip2_ip2_0_split
I0212 07:09:56.864158  8209 net.cpp:157] Top shape: 100 100 (10000)
I0212 07:09:56.864178  8209 net.cpp:157] Top shape: 100 100 (10000)
I0212 07:09:56.864187  8209 net.cpp:165] Memory required for data: 28487200
I0212 07:09:56.864198  8209 layer_factory.hpp:77] Creating layer accuracy
I0212 07:09:56.864217  8209 net.cpp:106] Creating Layer accuracy
I0212 07:09:56.864238  8209 net.cpp:454] accuracy <- ip2_ip2_0_split_0
I0212 07:09:56.864249  8209 net.cpp:454] accuracy <- label_cifar_1_split_0
I0212 07:09:56.864264  8209 net.cpp:411] accuracy -> accuracy
…
