…
I0210 21:13:00.065767  1880 net.cpp:322] The NetState phase (0) differed from the phase (1) specified by a rule in layer cifar
I0210 21:13:00.065796  1880 net.cpp:322] The NetState phase (0) differed from the phase (1) specified by a rule in layer accuracy
I0210 21:13:00.065922  1880 net.cpp:49] Initializing net from parameters: 
name: "CIFAR100_quick"
state {
  phase: TRAIN
}
layer {
  name: "cifar"
  type: "Data"
  top: "data"
  top: "label"
  include {
    phase: TRAIN
  }
  transform_param {
    mirror: true
    crop_size: 31
  }
  data_param {
    source: "examples/GCN_cifar100/GCN_cifar100_train_lmdb"
    batch_size: 100
    backend: LMDB
  }
}
layer {
  name: "conv1"
  type: "Convolution"
  bottom: "data"
  top: "conv1"
  param {
    lr_mult: 1
  }
  param {
    lr_mult: 2
  }
  convolution_param {
    num_output: 32
    pad: 2
    kernel_size: 5
    stride: 1
    weight_filler {
      type: "gaussian"
      std: 0.0001
    }
    bias_filler {
      type: "constant"
    }
  }
}
layer {
  name: "pool1"
  type: "Pooling"
  bottom: "conv1"
  top: "pool1"
  pooling_param {
    pool: MAX
    kernel_size: 3
    stride: 2
  }
}
layer {
  name: "relu1"
  type: "ReLU"
  bottom: "pool1"
  top: "pool1"
}
layer {
  name: "conv2"
  type: "Convolution"
  bottom: "pool1"
  top: "conv2"
  param {
    lr_mult: 1
  }
  param {
    lr_mult: 2
  }
  convolution_param {
    num_output: 32
    pad: 2
    kernel_size: 5
    stride: 1
    weight_filler {
      type: "gaussian"
      std: 0.01
    }
    bias_filler {
      type: "constant"
    }
  }
}
layer {
  name: "relu2"
  type: "ReLU"
  bottom: "conv2"
  top: "conv2"
}
layer {
  name: "pool2"
  type: "Pooling"
  bottom: "conv2"
  top: "pool2"
  pooling_param {
    pool: AVE
    kernel_size: 3
    stride: 2
  }
}
layer {
  name: "conv3"
  type: "Convolution"
  bottom: "pool2"
  top: "conv3"
  param {
    lr_mult: 1
  }
  param {
    lr_mult: 2
  }
  convolution_param {
    num_output: 64
    pad: 2
    kernel_size: 5
    stride: 1
    weight_filler {
      type: "gaussian"
      std: 0.01
    }
    bias_filler {
      type: "constant"
    }
  }
}
layer {
  name: "relu3"
  type: "ReLU"
  bottom: "conv3"
  top: "conv3"
}
layer {
  name: "pool3"
  type: "Pooling"
  bottom: "conv3"
  top: "pool3"
  pooling_param {
    pool: AVE
    kernel_size: 3
    stride: 2
  }
}
layer {
  name: "ip1"
  type: "InnerProduct"
  bottom: "pool3"
  top: "ip1"
  param {
    lr_mult: 1
  }
  param {
    lr_mult: 2
  }
  inner_product_param {
    num_output: 64
    weight_filler {
      type: "gaussian"
      std: 0.1
    }
    bias_filler {
      type: "constant"
    }
  }
}
layer {
  name: "ip2"
  type: "InnerProduct"
  bottom: "ip1"
  top: "ip2"
  param {
    lr_mult: 1
  }
  param {
    lr_mult: 2
  }
  inner_product_param {
    num_output: 100
    weight_filler {
      type: "gaussian"
      std: 0.1
    }
    bias_filler {
      type: "constant"
    }
  }
}
layer {
  name: "loss"
  type: "SoftmaxWithLoss"
  bottom: "ip2"
  bottom: "label"
  top: "loss"
}
I0210 21:13:00.066025  1880 layer_factory.hpp:77] Creating layer cifar
I0210 21:13:00.066623  1880 net.cpp:106] Creating Layer cifar
I0210 21:13:00.066649  1880 net.cpp:411] cifar -> data
I0210 21:13:00.066682  1880 net.cpp:411] cifar -> label
I0210 21:13:00.067313  1883 db_lmdb.cpp:38] Opened lmdb examples/GCN_cifar100/GCN_cifar100_train_lmdb
I0210 21:13:00.118870  1880 data_layer.cpp:41] output data size: 100,3,31,31
I0210 21:13:00.126458  1880 net.cpp:150] Setting up cifar
I0210 21:13:00.126502  1880 net.cpp:157] Top shape: 100 3 31 31 (288300)
I0210 21:13:00.126510  1880 net.cpp:157] Top shape: 100 (100)
I0210 21:13:00.126525  1880 net.cpp:165] Memory required for data: 1153600
I0210 21:13:00.126546  1880 layer_factory.hpp:77] Creating layer conv1
I0210 21:13:00.126592  1880 net.cpp:106] Creating Layer conv1
I0210 21:13:00.126612  1880 net.cpp:454] conv1 <- data
I0210 21:13:00.126647  1880 net.cpp:411] conv1 -> conv1
I0210 21:13:00.128113  1880 net.cpp:150] Setting up conv1
I0210 21:13:00.128135  1880 net.cpp:157] Top shape: 100 32 31 31 (3075200)
I0210 21:13:00.128145  1880 net.cpp:165] Memory required for data: 13454400
I0210 21:13:00.128180  1880 layer_factory.hpp:77] Creating layer pool1
I0210 21:13:00.128214  1880 net.cpp:106] Creating Layer pool1
I0210 21:13:00.128228  1880 net.cpp:454] pool1 <- conv1
I0210 21:13:00.128269  1880 net.cpp:411] pool1 -> pool1
I0210 21:13:00.128355  1880 net.cpp:150] Setting up pool1
I0210 21:13:00.128376  1880 net.cpp:157] Top shape: 100 32 15 15 (720000)
I0210 21:13:00.128386  1880 net.cpp:165] Memory required for data: 16334400
I0210 21:13:00.128394  1880 layer_factory.hpp:77] Creating layer relu1
I0210 21:13:00.128432  1880 net.cpp:106] Creating Layer relu1
I0210 21:13:00.128448  1880 net.cpp:454] relu1 <- pool1
I0210 21:13:00.128468  1880 net.cpp:397] relu1 -> pool1 (in-place)
I0210 21:13:00.128494  1880 net.cpp:150] Setting up relu1
I0210 21:13:00.128518  1880 net.cpp:157] Top shape: 100 32 15 15 (720000)
I0210 21:13:00.128526  1880 net.cpp:165] Memory required for data: 19214400
I0210 21:13:00.128536  1880 layer_factory.hpp:77] Creating layer conv2
I0210 21:13:00.128566  1880 net.cpp:106] Creating Layer conv2
I0210 21:13:00.128583  1880 net.cpp:454] conv2 <- pool1
I0210 21:13:00.128600  1880 net.cpp:411] conv2 -> conv2
I0210 21:13:00.130133  1880 net.cpp:150] Setting up conv2
I0210 21:13:00.130158  1880 net.cpp:157] Top shape: 100 32 15 15 (720000)
I0210 21:13:00.130168  1880 net.cpp:165] Memory required for data: 22094400
I0210 21:13:00.130190  1880 layer_factory.hpp:77] Creating layer relu2
I0210 21:13:00.130208  1880 net.cpp:106] Creating Layer relu2
I0210 21:13:00.130218  1880 net.cpp:454] relu2 <- conv2
I0210 21:13:00.130235  1880 net.cpp:397] relu2 -> conv2 (in-place)
I0210 21:13:00.130254  1880 net.cpp:150] Setting up relu2
I0210 21:13:00.130295  1880 net.cpp:157] Top shape: 100 32 15 15 (720000)
I0210 21:13:00.130313  1880 net.cpp:165] Memory required for data: 24974400
I0210 21:13:00.130323  1880 layer_factory.hpp:77] Creating layer pool2
I0210 21:13:00.130342  1880 net.cpp:106] Creating Layer pool2
I0210 21:13:00.130362  1880 net.cpp:454] pool2 <- conv2
I0210 21:13:00.130376  1880 net.cpp:411] pool2 -> pool2
I0210 21:13:00.130439  1880 net.cpp:150] Setting up pool2
I0210 21:13:00.130461  1880 net.cpp:157] Top shape: 100 32 7 7 (156800)
I0210 21:13:00.130470  1880 net.cpp:165] Memory required for data: 25601600
I0210 21:13:00.130480  1880 layer_factory.hpp:77] Creating layer conv3
I0210 21:13:00.130522  1880 net.cpp:106] Creating Layer conv3
I0210 21:13:00.130539  1880 net.cpp:454] conv3 <- pool2
I0210 21:13:00.130560  1880 net.cpp:411] conv3 -> conv3
I0210 21:13:00.132549  1880 net.cpp:150] Setting up conv3
I0210 21:13:00.132570  1880 net.cpp:157] Top shape: 100 64 7 7 (313600)
I0210 21:13:00.132580  1880 net.cpp:165] Memory required for data: 26856000
I0210 21:13:00.132601  1880 layer_factory.hpp:77] Creating layer relu3
I0210 21:13:00.132624  1880 net.cpp:106] Creating Layer relu3
I0210 21:13:00.132637  1880 net.cpp:454] relu3 <- conv3
I0210 21:13:00.132652  1880 net.cpp:397] relu3 -> conv3 (in-place)
I0210 21:13:00.132668  1880 net.cpp:150] Setting up relu3
I0210 21:13:00.132683  1880 net.cpp:157] Top shape: 100 64 7 7 (313600)
I0210 21:13:00.132693  1880 net.cpp:165] Memory required for data: 28110400
I0210 21:13:00.132702  1880 layer_factory.hpp:77] Creating layer pool3
I0210 21:13:00.132742  1880 net.cpp:106] Creating Layer pool3
I0210 21:13:00.132758  1880 net.cpp:454] pool3 <- conv3
I0210 21:13:00.132773  1880 net.cpp:411] pool3 -> pool3
I0210 21:13:00.132858  1880 net.cpp:150] Setting up pool3
I0210 21:13:00.132879  1880 net.cpp:157] Top shape: 100 64 3 3 (57600)
I0210 21:13:00.132889  1880 net.cpp:165] Memory required for data: 28340800
I0210 21:13:00.132899  1880 layer_factory.hpp:77] Creating layer ip1
I0210 21:13:00.132941  1880 net.cpp:106] Creating Layer ip1
I0210 21:13:00.132958  1880 net.cpp:454] ip1 <- pool3
I0210 21:13:00.132979  1880 net.cpp:411] ip1 -> ip1
I0210 21:13:00.134418  1880 net.cpp:150] Setting up ip1
I0210 21:13:00.134439  1880 net.cpp:157] Top shape: 100 64 (6400)
I0210 21:13:00.134449  1880 net.cpp:165] Memory required for data: 28366400
I0210 21:13:00.134466  1880 layer_factory.hpp:77] Creating layer ip2
I0210 21:13:00.134506  1880 net.cpp:106] Creating Layer ip2
I0210 21:13:00.134522  1880 net.cpp:454] ip2 <- ip1
I0210 21:13:00.134543  1880 net.cpp:411] ip2 -> ip2
I0210 21:13:00.135363  1880 net.cpp:150] Setting up ip2
I0210 21:13:00.135387  1880 net.cpp:157] Top shape: 100 100 (10000)
I0210 21:13:00.135396  1880 net.cpp:165] Memory required for data: 28406400
I0210 21:13:00.135418  1880 layer_factory.hpp:77] Creating layer loss
I0210 21:13:00.135440  1880 net.cpp:106] Creating Layer loss
I0210 21:13:00.135452  1880 net.cpp:454] loss <- ip2
I0210 21:13:00.135464  1880 net.cpp:454] loss <- label
I0210 21:13:00.135483  1880 net.cpp:411] loss -> loss
I0210 21:13:00.135517  1880 layer_factory.hpp:77] Creating layer loss
…
I0210 21:13:00.136221  1880 solver.cpp:181] Creating test net (#0) specified by net file: examples/GCN_cifar100/GCN_cifar100_quick_train_test.prototxt
I0210 21:13:00.136296  1880 net.cpp:322] The NetState phase (1) differed from the phase (0) specified by a rule in layer cifar
I0210 21:13:00.136464  1880 net.cpp:49] Initializing net from parameters: 
name: "CIFAR100_quick"
state {
  phase: TEST
}
layer {
  name: "cifar"
  type: "Data"
  top: "data"
  top: "label"
  include {
    phase: TEST
  }
  transform_param {
    mirror: true
    crop_size: 31
  }
  data_param {
    source: "examples/GCN_cifar100/GCN_cifar100_test_lmdb"
    batch_size: 100
    backend: LMDB
  }
}
layer {
  name: "conv1"
  type: "Convolution"
  bottom: "data"
  top: "conv1"
  param {
    lr_mult: 1
  }
  param {
    lr_mult: 2
  }
  convolution_param {
    num_output: 32
    pad: 2
    kernel_size: 5
    stride: 1
    weight_filler {
      type: "gaussian"
      std: 0.0001
    }
    bias_filler {
      type: "constant"
    }
  }
}
layer {
  name: "pool1"
  type: "Pooling"
  bottom: "conv1"
  top: "pool1"
  pooling_param {
    pool: MAX
    kernel_size: 3
    stride: 2
  }
}
layer {
  name: "relu1"
  type: "ReLU"
  bottom: "pool1"
  top: "pool1"
}
layer {
  name: "conv2"
  type: "Convolution"
  bottom: "pool1"
  top: "conv2"
  param {
    lr_mult: 1
  }
  param {
    lr_mult: 2
  }
  convolution_param {
    num_output: 32
    pad: 2
    kernel_size: 5
    stride: 1
    weight_filler {
      type: "gaussian"
      std: 0.01
    }
    bias_filler {
      type: "constant"
    }
  }
}
layer {
  name: "relu2"
  type: "ReLU"
  bottom: "conv2"
  top: "conv2"
}
layer {
  name: "pool2"
  type: "Pooling"
  bottom: "conv2"
  top: "pool2"
  pooling_param {
    pool: AVE
    kernel_size: 3
    stride: 2
  }
}
layer {
  name: "conv3"
  type: "Convolution"
  bottom: "pool2"
  top: "conv3"
  param {
    lr_mult: 1
  }
  param {
    lr_mult: 2
  }
  convolution_param {
    num_output: 64
    pad: 2
    kernel_size: 5
    stride: 1
    weight_filler {
      type: "gaussian"
      std: 0.01
    }
    bias_filler {
      type: "constant"
    }
  }
}
layer {
  name: "relu3"
  type: "ReLU"
  bottom: "conv3"
  top: "conv3"
}
layer {
  name: "pool3"
  type: "Pooling"
  bottom: "conv3"
  top: "pool3"
  pooling_param {
    pool: AVE
    kernel_size: 3
    stride: 2
  }
}
layer {
  name: "ip1"
  type: "InnerProduct"
  bottom: "pool3"
  top: "ip1"
  param {
    lr_mult: 1
  }
  param {
    lr_mult: 2
  }
  inner_product_param {
    num_output: 64
    weight_filler {
      type: "gaussian"
      std: 0.1
    }
    bias_filler {
      type: "constant"
    }
  }
}
layer {
  name: "ip2"
  type: "InnerProduct"
  bottom: "ip1"
  top: "ip2"
  param {
    lr_mult: 1
  }
  param {
    lr_mult: 2
  }
  inner_product_param {
    num_output: 100
    weight_filler {
      type: "gaussian"
      std: 0.1
    }
    bias_filler {
      type: "constant"
    }
  }
}
layer {
  name: "accuracy"
  type: "Accuracy"
  bottom: "ip2"
  bottom: "label"
  top: "accuracy"
  include {
    phase: TEST
  }
}
layer {
  name: "loss"
  type: "SoftmaxWithLoss"
  bottom: "ip2"
  bottom: "label"
  top: "loss"
}
I0210 21:13:00.136634  1880 layer_factory.hpp:77] Creating layer cifar
I0210 21:13:00.136827  1880 net.cpp:106] Creating Layer cifar
I0210 21:13:00.136849  1880 net.cpp:411] cifar -> data
I0210 21:13:00.136875  1880 net.cpp:411] cifar -> label
I0210 21:13:00.137456  1885 db_lmdb.cpp:38] Opened lmdb examples/GCN_cifar100/GCN_cifar100_test_lmdb
I0210 21:13:00.137589  1880 data_layer.cpp:41] output data size: 100,3,31,31
I0210 21:13:00.141630  1880 net.cpp:150] Setting up cifar
I0210 21:13:00.141657  1880 net.cpp:157] Top shape: 100 3 31 31 (288300)
I0210 21:13:00.141670  1880 net.cpp:157] Top shape: 100 (100)
I0210 21:13:00.141680  1880 net.cpp:165] Memory required for data: 1153600
I0210 21:13:00.141690  1880 layer_factory.hpp:77] Creating layer label_cifar_1_split
I0210 21:13:00.141738  1880 net.cpp:106] Creating Layer label_cifar_1_split
I0210 21:13:00.141757  1880 net.cpp:454] label_cifar_1_split <- label
I0210 21:13:00.141772  1880 net.cpp:411] label_cifar_1_split -> label_cifar_1_split_0
I0210 21:13:00.141819  1880 net.cpp:411] label_cifar_1_split -> label_cifar_1_split_1
I0210 21:13:00.141897  1880 net.cpp:150] Setting up label_cifar_1_split
I0210 21:13:00.141919  1880 net.cpp:157] Top shape: 100 (100)
I0210 21:13:00.141930  1880 net.cpp:157] Top shape: 100 (100)
I0210 21:13:00.141939  1880 net.cpp:165] Memory required for data: 1154400
I0210 21:13:00.141948  1880 layer_factory.hpp:77] Creating layer conv1
I0210 21:13:00.141979  1880 net.cpp:106] Creating Layer conv1
I0210 21:13:00.141990  1880 net.cpp:454] conv1 <- data
I0210 21:13:00.142006  1880 net.cpp:411] conv1 -> conv1
I0210 21:13:00.142366  1880 net.cpp:150] Setting up conv1
I0210 21:13:00.142388  1880 net.cpp:157] Top shape: 100 32 31 31 (3075200)
I0210 21:13:00.142397  1880 net.cpp:165] Memory required for data: 13455200
I0210 21:13:00.142421  1880 layer_factory.hpp:77] Creating layer pool1
I0210 21:13:00.142447  1880 net.cpp:106] Creating Layer pool1
I0210 21:13:00.142457  1880 net.cpp:454] pool1 <- conv1
I0210 21:13:00.142498  1880 net.cpp:411] pool1 -> pool1
I0210 21:13:00.142586  1880 net.cpp:150] Setting up pool1
I0210 21:13:00.142638  1880 net.cpp:157] Top shape: 100 32 15 15 (720000)
I0210 21:13:00.142665  1880 net.cpp:165] Memory required for data: 16335200
I0210 21:13:00.142675  1880 layer_factory.hpp:77] Creating layer relu1
I0210 21:13:00.142691  1880 net.cpp:106] Creating Layer relu1
I0210 21:13:00.142704  1880 net.cpp:454] relu1 <- pool1
I0210 21:13:00.142721  1880 net.cpp:397] relu1 -> pool1 (in-place)
I0210 21:13:00.142745  1880 net.cpp:150] Setting up relu1
I0210 21:13:00.142758  1880 net.cpp:157] Top shape: 100 32 15 15 (720000)
I0210 21:13:00.142770  1880 net.cpp:165] Memory required for data: 19215200
I0210 21:13:00.142778  1880 layer_factory.hpp:77] Creating layer conv2
I0210 21:13:00.142802  1880 net.cpp:106] Creating Layer conv2
I0210 21:13:00.142818  1880 net.cpp:454] conv2 <- pool1
I0210 21:13:00.142835  1880 net.cpp:411] conv2 -> conv2
I0210 21:13:00.143934  1880 net.cpp:150] Setting up conv2
I0210 21:13:00.143956  1880 net.cpp:157] Top shape: 100 32 15 15 (720000)
I0210 21:13:00.143965  1880 net.cpp:165] Memory required for data: 22095200
I0210 21:13:00.143990  1880 layer_factory.hpp:77] Creating layer relu2
I0210 21:13:00.144007  1880 net.cpp:106] Creating Layer relu2
I0210 21:13:00.144042  1880 net.cpp:454] relu2 <- conv2
I0210 21:13:00.144068  1880 net.cpp:397] relu2 -> conv2 (in-place)
I0210 21:13:00.144084  1880 net.cpp:150] Setting up relu2
I0210 21:13:00.144105  1880 net.cpp:157] Top shape: 100 32 15 15 (720000)
I0210 21:13:00.144114  1880 net.cpp:165] Memory required for data: 24975200
I0210 21:13:00.144124  1880 layer_factory.hpp:77] Creating layer pool2
I0210 21:13:00.144136  1880 net.cpp:106] Creating Layer pool2
I0210 21:13:00.144153  1880 net.cpp:454] pool2 <- conv2
I0210 21:13:00.144167  1880 net.cpp:411] pool2 -> pool2
I0210 21:13:00.144219  1880 net.cpp:150] Setting up pool2
I0210 21:13:00.144239  1880 net.cpp:157] Top shape: 100 32 7 7 (156800)
I0210 21:13:00.144248  1880 net.cpp:165] Memory required for data: 25602400
I0210 21:13:00.144258  1880 layer_factory.hpp:77] Creating layer conv3
I0210 21:13:00.144286  1880 net.cpp:106] Creating Layer conv3
I0210 21:13:00.144299  1880 net.cpp:454] conv3 <- pool2
I0210 21:13:00.144320  1880 net.cpp:411] conv3 -> conv3
I0210 21:13:00.146195  1880 net.cpp:150] Setting up conv3
I0210 21:13:00.146220  1880 net.cpp:157] Top shape: 100 64 7 7 (313600)
I0210 21:13:00.146230  1880 net.cpp:165] Memory required for data: 26856800
I0210 21:13:00.146250  1880 layer_factory.hpp:77] Creating layer relu3
I0210 21:13:00.146292  1880 net.cpp:106] Creating Layer relu3
I0210 21:13:00.146309  1880 net.cpp:454] relu3 <- conv3
I0210 21:13:00.146323  1880 net.cpp:397] relu3 -> conv3 (in-place)
I0210 21:13:00.146342  1880 net.cpp:150] Setting up relu3
I0210 21:13:00.146355  1880 net.cpp:157] Top shape: 100 64 7 7 (313600)
I0210 21:13:00.146371  1880 net.cpp:165] Memory required for data: 28111200
I0210 21:13:00.146381  1880 layer_factory.hpp:77] Creating layer pool3
I0210 21:13:00.146394  1880 net.cpp:106] Creating Layer pool3
I0210 21:13:00.146406  1880 net.cpp:454] pool3 <- conv3
I0210 21:13:00.146425  1880 net.cpp:411] pool3 -> pool3
I0210 21:13:00.146674  1880 net.cpp:150] Setting up pool3
I0210 21:13:00.146704  1880 net.cpp:157] Top shape: 100 64 3 3 (57600)
I0210 21:13:00.146714  1880 net.cpp:165] Memory required for data: 28341600
I0210 21:13:00.146723  1880 layer_factory.hpp:77] Creating layer ip1
I0210 21:13:00.146739  1880 net.cpp:106] Creating Layer ip1
I0210 21:13:00.146749  1880 net.cpp:454] ip1 <- pool3
I0210 21:13:00.146772  1880 net.cpp:411] ip1 -> ip1
I0210 21:13:00.148108  1880 net.cpp:150] Setting up ip1
I0210 21:13:00.148128  1880 net.cpp:157] Top shape: 100 64 (6400)
I0210 21:13:00.148133  1880 net.cpp:165] Memory required for data: 28367200
I0210 21:13:00.148141  1880 layer_factory.hpp:77] Creating layer ip2
I0210 21:13:00.148150  1880 net.cpp:106] Creating Layer ip2
I0210 21:13:00.148155  1880 net.cpp:454] ip2 <- ip1
I0210 21:13:00.148165  1880 net.cpp:411] ip2 -> ip2
I0210 21:13:00.148506  1880 net.cpp:150] Setting up ip2
I0210 21:13:00.148525  1880 net.cpp:157] Top shape: 100 100 (10000)
I0210 21:13:00.148530  1880 net.cpp:165] Memory required for data: 28407200
I0210 21:13:00.148556  1880 layer_factory.hpp:77] Creating layer ip2_ip2_0_split
I0210 21:13:00.148572  1880 net.cpp:106] Creating Layer ip2_ip2_0_split
I0210 21:13:00.148577  1880 net.cpp:454] ip2_ip2_0_split <- ip2
I0210 21:13:00.148586  1880 net.cpp:411] ip2_ip2_0_split -> ip2_ip2_0_split_0
I0210 21:13:00.148596  1880 net.cpp:411] ip2_ip2_0_split -> ip2_ip2_0_split_1
I0210 21:13:00.148639  1880 net.cpp:150] Setting up ip2_ip2_0_split
I0210 21:13:00.148663  1880 net.cpp:157] Top shape: 100 100 (10000)
I0210 21:13:00.148675  1880 net.cpp:157] Top shape: 100 100 (10000)
I0210 21:13:00.148682  1880 net.cpp:165] Memory required for data: 28487200
I0210 21:13:00.148689  1880 layer_factory.hpp:77] Creating layer accuracy
I0210 21:13:00.148702  1880 net.cpp:106] Creating Layer accuracy
I0210 21:13:00.148710  1880 net.cpp:454] accuracy <- ip2_ip2_0_split_0
I0210 21:13:00.148715  1880 net.cpp:454] accuracy <- label_cifar_1_split_0
I0210 21:13:00.148725  1880 net.cpp:411] accuracy -> accuracy
…
