…
I0210 08:38:36.934686 31288 net.cpp:322] The NetState phase (0) differed from the phase (1) specified by a rule in layer cifar
I0210 08:38:36.934736 31288 net.cpp:322] The NetState phase (0) differed from the phase (1) specified by a rule in layer accuracy
I0210 08:38:36.934882 31288 net.cpp:49] Initializing net from parameters: 
name: "CIFAR100_quick"
state {
  phase: TRAIN
}
layer {
  name: "cifar"
  type: "Data"
  top: "data"
  top: "label"
  include {
    phase: TRAIN
  }
  transform_param {
    mirror: true
    crop_size: 31
  }
  data_param {
    source: "examples/GCN_cifar100/GCN_cifar100_train_lmdb"
    batch_size: 100
    backend: LMDB
  }
}
layer {
  name: "conv1"
  type: "Convolution"
  bottom: "data"
  top: "conv1"
  param {
    lr_mult: 1
  }
  param {
    lr_mult: 2
  }
  convolution_param {
    num_output: 32
    pad: 2
    kernel_size: 5
    stride: 1
    weight_filler {
      type: "gaussian"
      std: 0.0001
    }
    bias_filler {
      type: "constant"
    }
  }
}
layer {
  name: "pool1"
  type: "Pooling"
  bottom: "conv1"
  top: "pool1"
  pooling_param {
    pool: MAX
    kernel_size: 3
    stride: 2
  }
}
layer {
  name: "relu1"
  type: "ReLU"
  bottom: "pool1"
  top: "pool1"
}
layer {
  name: "conv2"
  type: "Convolution"
  bottom: "pool1"
  top: "conv2"
  param {
    lr_mult: 1
  }
  param {
    lr_mult: 2
  }
  convolution_param {
    num_output: 32
    pad: 2
    kernel_size: 5
    stride: 1
    weight_filler {
      type: "gaussian"
      std: 0.01
    }
    bias_filler {
      type: "constant"
    }
  }
}
layer {
  name: "relu2"
  type: "ReLU"
  bottom: "conv2"
  top: "conv2"
}
layer {
  name: "pool2"
  type: "Pooling"
  bottom: "conv2"
  top: "pool2"
  pooling_param {
    pool: AVE
    kernel_size: 3
    stride: 2
  }
}
layer {
  name: "conv3"
  type: "Convolution"
  bottom: "pool2"
  top: "conv3"
  param {
    lr_mult: 1
  }
  param {
    lr_mult: 2
  }
  convolution_param {
    num_output: 64
    pad: 2
    kernel_size: 5
    stride: 1
    weight_filler {
      type: "gaussian"
      std: 0.01
    }
    bias_filler {
      type: "constant"
    }
  }
}
layer {
  name: "relu3"
  type: "ReLU"
  bottom: "conv3"
  top: "conv3"
}
layer {
  name: "pool3"
  type: "Pooling"
  bottom: "conv3"
  top: "pool3"
  pooling_param {
    pool: AVE
    kernel_size: 3
    stride: 2
  }
}
layer {
  name: "ip1"
  type: "InnerProduct"
  bottom: "pool3"
  top: "ip1"
  param {
    lr_mult: 1
  }
  param {
    lr_mult: 2
  }
  inner_product_param {
    num_output: 64
    weight_filler {
      type: "gaussian"
      std: 0.1
    }
    bias_filler {
      type: "constant"
    }
  }
}
layer {
  name: "ip2"
  type: "InnerProduct"
  bottom: "ip1"
  top: "ip2"
  param {
    lr_mult: 1
  }
  param {
    lr_mult: 2
  }
  inner_product_param {
    num_output: 100
    weight_filler {
      type: "gaussian"
      std: 0.1
    }
    bias_filler {
      type: "constant"
    }
  }
}
layer {
  name: "loss"
  type: "SoftmaxWithLoss"
  bottom: "ip2"
  bottom: "label"
  top: "loss"
}
I0210 08:38:36.935053 31288 layer_factory.hpp:77] Creating layer cifar
I0210 08:38:36.935608 31288 net.cpp:106] Creating Layer cifar
I0210 08:38:36.935636 31288 net.cpp:411] cifar -> data
I0210 08:38:36.935685 31288 net.cpp:411] cifar -> label
I0210 08:38:36.936353 31295 db_lmdb.cpp:38] Opened lmdb examples/GCN_cifar100/GCN_cifar100_train_lmdb
I0210 08:38:36.946959 31288 data_layer.cpp:41] output data size: 100,3,31,31
I0210 08:38:36.949570 31288 net.cpp:150] Setting up cifar
I0210 08:38:36.949618 31288 net.cpp:157] Top shape: 100 3 31 31 (288300)
I0210 08:38:36.949633 31288 net.cpp:157] Top shape: 100 (100)
I0210 08:38:36.949651 31288 net.cpp:165] Memory required for data: 1153600
I0210 08:38:36.949668 31288 layer_factory.hpp:77] Creating layer conv1
I0210 08:38:36.949693 31288 net.cpp:106] Creating Layer conv1
I0210 08:38:36.949707 31288 net.cpp:454] conv1 <- data
I0210 08:38:36.949728 31288 net.cpp:411] conv1 -> conv1
I0210 08:38:36.951192 31288 net.cpp:150] Setting up conv1
I0210 08:38:36.951212 31288 net.cpp:157] Top shape: 100 32 31 31 (3075200)
I0210 08:38:36.951217 31288 net.cpp:165] Memory required for data: 13454400
I0210 08:38:36.951237 31288 layer_factory.hpp:77] Creating layer pool1
I0210 08:38:36.951258 31288 net.cpp:106] Creating Layer pool1
I0210 08:38:36.951270 31288 net.cpp:454] pool1 <- conv1
I0210 08:38:36.951278 31288 net.cpp:411] pool1 -> pool1
I0210 08:38:36.951423 31288 net.cpp:150] Setting up pool1
I0210 08:38:36.951441 31288 net.cpp:157] Top shape: 100 32 15 15 (720000)
I0210 08:38:36.951444 31288 net.cpp:165] Memory required for data: 16334400
I0210 08:38:36.951449 31288 layer_factory.hpp:77] Creating layer relu1
I0210 08:38:36.951457 31288 net.cpp:106] Creating Layer relu1
I0210 08:38:36.951462 31288 net.cpp:454] relu1 <- pool1
I0210 08:38:36.951468 31288 net.cpp:397] relu1 -> pool1 (in-place)
I0210 08:38:36.951480 31288 net.cpp:150] Setting up relu1
I0210 08:38:36.951486 31288 net.cpp:157] Top shape: 100 32 15 15 (720000)
I0210 08:38:36.951491 31288 net.cpp:165] Memory required for data: 19214400
I0210 08:38:36.951495 31288 layer_factory.hpp:77] Creating layer conv2
I0210 08:38:36.951511 31288 net.cpp:106] Creating Layer conv2
I0210 08:38:36.951524 31288 net.cpp:454] conv2 <- pool1
I0210 08:38:36.951532 31288 net.cpp:411] conv2 -> conv2
I0210 08:38:36.953032 31288 net.cpp:150] Setting up conv2
I0210 08:38:36.953053 31288 net.cpp:157] Top shape: 100 32 15 15 (720000)
I0210 08:38:36.953058 31288 net.cpp:165] Memory required for data: 22094400
I0210 08:38:36.953069 31288 layer_factory.hpp:77] Creating layer relu2
I0210 08:38:36.953078 31288 net.cpp:106] Creating Layer relu2
I0210 08:38:36.953083 31288 net.cpp:454] relu2 <- conv2
I0210 08:38:36.953088 31288 net.cpp:397] relu2 -> conv2 (in-place)
I0210 08:38:36.953096 31288 net.cpp:150] Setting up relu2
I0210 08:38:36.953102 31288 net.cpp:157] Top shape: 100 32 15 15 (720000)
I0210 08:38:36.953106 31288 net.cpp:165] Memory required for data: 24974400
I0210 08:38:36.953110 31288 layer_factory.hpp:77] Creating layer pool2
I0210 08:38:36.953117 31288 net.cpp:106] Creating Layer pool2
I0210 08:38:36.953121 31288 net.cpp:454] pool2 <- conv2
I0210 08:38:36.953130 31288 net.cpp:411] pool2 -> pool2
I0210 08:38:36.953158 31288 net.cpp:150] Setting up pool2
I0210 08:38:36.953173 31288 net.cpp:157] Top shape: 100 32 7 7 (156800)
I0210 08:38:36.953177 31288 net.cpp:165] Memory required for data: 25601600
I0210 08:38:36.953182 31288 layer_factory.hpp:77] Creating layer conv3
I0210 08:38:36.953196 31288 net.cpp:106] Creating Layer conv3
I0210 08:38:36.953200 31288 net.cpp:454] conv3 <- pool2
I0210 08:38:36.953207 31288 net.cpp:411] conv3 -> conv3
I0210 08:38:36.955327 31288 net.cpp:150] Setting up conv3
I0210 08:38:36.955346 31288 net.cpp:157] Top shape: 100 64 7 7 (313600)
I0210 08:38:36.955351 31288 net.cpp:165] Memory required for data: 26856000
I0210 08:38:36.955363 31288 layer_factory.hpp:77] Creating layer relu3
I0210 08:38:36.955374 31288 net.cpp:106] Creating Layer relu3
I0210 08:38:36.955379 31288 net.cpp:454] relu3 <- conv3
I0210 08:38:36.955385 31288 net.cpp:397] relu3 -> conv3 (in-place)
I0210 08:38:36.955394 31288 net.cpp:150] Setting up relu3
I0210 08:38:36.955399 31288 net.cpp:157] Top shape: 100 64 7 7 (313600)
I0210 08:38:36.955402 31288 net.cpp:165] Memory required for data: 28110400
I0210 08:38:36.955407 31288 layer_factory.hpp:77] Creating layer pool3
I0210 08:38:36.955415 31288 net.cpp:106] Creating Layer pool3
I0210 08:38:36.955420 31288 net.cpp:454] pool3 <- conv3
I0210 08:38:36.955427 31288 net.cpp:411] pool3 -> pool3
I0210 08:38:36.955472 31288 net.cpp:150] Setting up pool3
I0210 08:38:36.955488 31288 net.cpp:157] Top shape: 100 64 3 3 (57600)
I0210 08:38:36.955494 31288 net.cpp:165] Memory required for data: 28340800
I0210 08:38:36.955498 31288 layer_factory.hpp:77] Creating layer ip1
I0210 08:38:36.955514 31288 net.cpp:106] Creating Layer ip1
I0210 08:38:36.955523 31288 net.cpp:454] ip1 <- pool3
I0210 08:38:36.955533 31288 net.cpp:411] ip1 -> ip1
I0210 08:38:36.956816 31288 net.cpp:150] Setting up ip1
I0210 08:38:36.956833 31288 net.cpp:157] Top shape: 100 64 (6400)
I0210 08:38:36.956837 31288 net.cpp:165] Memory required for data: 28366400
I0210 08:38:36.956846 31288 layer_factory.hpp:77] Creating layer ip2
I0210 08:38:36.956854 31288 net.cpp:106] Creating Layer ip2
I0210 08:38:36.956859 31288 net.cpp:454] ip2 <- ip1
I0210 08:38:36.956869 31288 net.cpp:411] ip2 -> ip2
I0210 08:38:36.957640 31288 net.cpp:150] Setting up ip2
I0210 08:38:36.957659 31288 net.cpp:157] Top shape: 100 100 (10000)
I0210 08:38:36.957664 31288 net.cpp:165] Memory required for data: 28406400
I0210 08:38:36.957675 31288 layer_factory.hpp:77] Creating layer loss
I0210 08:38:36.957685 31288 net.cpp:106] Creating Layer loss
I0210 08:38:36.957690 31288 net.cpp:454] loss <- ip2
I0210 08:38:36.957695 31288 net.cpp:454] loss <- label
I0210 08:38:36.957705 31288 net.cpp:411] loss -> loss
I0210 08:38:36.957720 31288 layer_factory.hpp:77] Creating layer loss
…
I0210 08:38:36.958464 31288 solver.cpp:181] Creating test net (#0) specified by net file: examples/GCN_cifar100/GCN_cifar100_quick_train_test.prototxt
I0210 08:38:36.958513 31288 net.cpp:322] The NetState phase (1) differed from the phase (0) specified by a rule in layer cifar
I0210 08:38:36.958657 31288 net.cpp:49] Initializing net from parameters: 
name: "CIFAR100_quick"
state {
  phase: TEST
}
layer {
  name: "cifar"
  type: "Data"
  top: "data"
  top: "label"
  include {
    phase: TEST
  }
  transform_param {
    mirror: true
    crop_size: 31
  }
  data_param {
    source: "examples/GCN_cifar100/GCN_cifar100_test_lmdb"
    batch_size: 100
    backend: LMDB
  }
}
layer {
  name: "conv1"
  type: "Convolution"
  bottom: "data"
  top: "conv1"
  param {
    lr_mult: 1
  }
  param {
    lr_mult: 2
  }
  convolution_param {
    num_output: 32
    pad: 2
    kernel_size: 5
    stride: 1
    weight_filler {
      type: "gaussian"
      std: 0.0001
    }
    bias_filler {
      type: "constant"
    }
  }
}
layer {
  name: "pool1"
  type: "Pooling"
  bottom: "conv1"
  top: "pool1"
  pooling_param {
    pool: MAX
    kernel_size: 3
    stride: 2
  }
}
layer {
  name: "relu1"
  type: "ReLU"
  bottom: "pool1"
  top: "pool1"
}
layer {
  name: "conv2"
  type: "Convolution"
  bottom: "pool1"
  top: "conv2"
  param {
    lr_mult: 1
  }
  param {
    lr_mult: 2
  }
  convolution_param {
    num_output: 32
    pad: 2
    kernel_size: 5
    stride: 1
    weight_filler {
      type: "gaussian"
      std: 0.01
    }
    bias_filler {
      type: "constant"
    }
  }
}
layer {
  name: "relu2"
  type: "ReLU"
  bottom: "conv2"
  top: "conv2"
}
layer {
  name: "pool2"
  type: "Pooling"
  bottom: "conv2"
  top: "pool2"
  pooling_param {
    pool: AVE
    kernel_size: 3
    stride: 2
  }
}
layer {
  name: "conv3"
  type: "Convolution"
  bottom: "pool2"
  top: "conv3"
  param {
    lr_mult: 1
  }
  param {
    lr_mult: 2
  }
  convolution_param {
    num_output: 64
    pad: 2
    kernel_size: 5
    stride: 1
    weight_filler {
      type: "gaussian"
      std: 0.01
    }
    bias_filler {
      type: "constant"
    }
  }
}
layer {
  name: "relu3"
  type: "ReLU"
  bottom: "conv3"
  top: "conv3"
}
layer {
  name: "pool3"
  type: "Pooling"
  bottom: "conv3"
  top: "pool3"
  pooling_param {
    pool: AVE
    kernel_size: 3
    stride: 2
  }
}
layer {
  name: "ip1"
  type: "InnerProduct"
  bottom: "pool3"
  top: "ip1"
  param {
    lr_mult: 1
  }
  param {
    lr_mult: 2
  }
  inner_product_param {
    num_output: 64
    weight_filler {
      type: "gaussian"
      std: 0.1
    }
    bias_filler {
      type: "constant"
    }
  }
}
layer {
  name: "ip2"
  type: "InnerProduct"
  bottom: "ip1"
  top: "ip2"
  param {
    lr_mult: 1
  }
  param {
    lr_mult: 2
  }
  inner_product_param {
    num_output: 100
    weight_filler {
      type: "gaussian"
      std: 0.1
    }
    bias_filler {
      type: "constant"
    }
  }
}
layer {
  name: "accuracy"
  type: "Accuracy"
  bottom: "ip2"
  bottom: "label"
  top: "accuracy"
  include {
    phase: TEST
  }
}
layer {
  name: "loss"
  type: "SoftmaxWithLoss"
  bottom: "ip2"
  bottom: "label"
  top: "loss"
}
I0210 08:38:36.958770 31288 layer_factory.hpp:77] Creating layer cifar
I0210 08:38:36.958886 31288 net.cpp:106] Creating Layer cifar
I0210 08:38:36.958926 31288 net.cpp:411] cifar -> data
I0210 08:38:36.958941 31288 net.cpp:411] cifar -> label
I0210 08:38:36.959632 31297 db_lmdb.cpp:38] Opened lmdb examples/GCN_cifar100/GCN_cifar100_test_lmdb
I0210 08:38:36.959756 31288 data_layer.cpp:41] output data size: 100,3,31,31
I0210 08:38:36.962718 31288 net.cpp:150] Setting up cifar
I0210 08:38:36.962740 31288 net.cpp:157] Top shape: 100 3 31 31 (288300)
I0210 08:38:36.962748 31288 net.cpp:157] Top shape: 100 (100)
I0210 08:38:36.962752 31288 net.cpp:165] Memory required for data: 1153600
I0210 08:38:36.962759 31288 layer_factory.hpp:77] Creating layer label_cifar_1_split
I0210 08:38:36.962793 31288 net.cpp:106] Creating Layer label_cifar_1_split
I0210 08:38:36.962806 31288 net.cpp:454] label_cifar_1_split <- label
I0210 08:38:36.962870 31288 net.cpp:411] label_cifar_1_split -> label_cifar_1_split_0
I0210 08:38:36.962891 31288 net.cpp:411] label_cifar_1_split -> label_cifar_1_split_1
I0210 08:38:36.962977 31288 net.cpp:150] Setting up label_cifar_1_split
I0210 08:38:36.962995 31288 net.cpp:157] Top shape: 100 (100)
I0210 08:38:36.963001 31288 net.cpp:157] Top shape: 100 (100)
I0210 08:38:36.963004 31288 net.cpp:165] Memory required for data: 1154400
I0210 08:38:36.963011 31288 layer_factory.hpp:77] Creating layer conv1
I0210 08:38:36.963027 31288 net.cpp:106] Creating Layer conv1
I0210 08:38:36.963037 31288 net.cpp:454] conv1 <- data
I0210 08:38:36.963048 31288 net.cpp:411] conv1 -> conv1
I0210 08:38:36.963352 31288 net.cpp:150] Setting up conv1
I0210 08:38:36.963369 31288 net.cpp:157] Top shape: 100 32 31 31 (3075200)
I0210 08:38:36.963374 31288 net.cpp:165] Memory required for data: 13455200
I0210 08:38:36.963387 31288 layer_factory.hpp:77] Creating layer pool1
I0210 08:38:36.963399 31288 net.cpp:106] Creating Layer pool1
I0210 08:38:36.963407 31288 net.cpp:454] pool1 <- conv1
I0210 08:38:36.963413 31288 net.cpp:411] pool1 -> pool1
I0210 08:38:36.963454 31288 net.cpp:150] Setting up pool1
I0210 08:38:36.963469 31288 net.cpp:157] Top shape: 100 32 15 15 (720000)
I0210 08:38:36.963490 31288 net.cpp:165] Memory required for data: 16335200
I0210 08:38:36.963500 31288 layer_factory.hpp:77] Creating layer relu1
I0210 08:38:36.963507 31288 net.cpp:106] Creating Layer relu1
I0210 08:38:36.963511 31288 net.cpp:454] relu1 <- pool1
I0210 08:38:36.963517 31288 net.cpp:397] relu1 -> pool1 (in-place)
I0210 08:38:36.963526 31288 net.cpp:150] Setting up relu1
I0210 08:38:36.963531 31288 net.cpp:157] Top shape: 100 32 15 15 (720000)
I0210 08:38:36.963536 31288 net.cpp:165] Memory required for data: 19215200
I0210 08:38:36.963539 31288 layer_factory.hpp:77] Creating layer conv2
I0210 08:38:36.963553 31288 net.cpp:106] Creating Layer conv2
I0210 08:38:36.963560 31288 net.cpp:454] conv2 <- pool1
I0210 08:38:36.963568 31288 net.cpp:411] conv2 -> conv2
I0210 08:38:36.964608 31288 net.cpp:150] Setting up conv2
I0210 08:38:36.964627 31288 net.cpp:157] Top shape: 100 32 15 15 (720000)
I0210 08:38:36.964632 31288 net.cpp:165] Memory required for data: 22095200
I0210 08:38:36.964643 31288 layer_factory.hpp:77] Creating layer relu2
I0210 08:38:36.964650 31288 net.cpp:106] Creating Layer relu2
I0210 08:38:36.964655 31288 net.cpp:454] relu2 <- conv2
I0210 08:38:36.964663 31288 net.cpp:397] relu2 -> conv2 (in-place)
I0210 08:38:36.964671 31288 net.cpp:150] Setting up relu2
I0210 08:38:36.964678 31288 net.cpp:157] Top shape: 100 32 15 15 (720000)
I0210 08:38:36.964681 31288 net.cpp:165] Memory required for data: 24975200
I0210 08:38:36.964686 31288 layer_factory.hpp:77] Creating layer pool2
I0210 08:38:36.964692 31288 net.cpp:106] Creating Layer pool2
I0210 08:38:36.964696 31288 net.cpp:454] pool2 <- conv2
I0210 08:38:36.964702 31288 net.cpp:411] pool2 -> pool2
I0210 08:38:36.964730 31288 net.cpp:150] Setting up pool2
I0210 08:38:36.964745 31288 net.cpp:157] Top shape: 100 32 7 7 (156800)
I0210 08:38:36.964750 31288 net.cpp:165] Memory required for data: 25602400
I0210 08:38:36.964754 31288 layer_factory.hpp:77] Creating layer conv3
I0210 08:38:36.964767 31288 net.cpp:106] Creating Layer conv3
I0210 08:38:36.964772 31288 net.cpp:454] conv3 <- pool2
I0210 08:38:36.964783 31288 net.cpp:411] conv3 -> conv3
I0210 08:38:36.966647 31288 net.cpp:150] Setting up conv3
I0210 08:38:36.966668 31288 net.cpp:157] Top shape: 100 64 7 7 (313600)
I0210 08:38:36.966675 31288 net.cpp:165] Memory required for data: 26856800
I0210 08:38:36.966686 31288 layer_factory.hpp:77] Creating layer relu3
I0210 08:38:36.966692 31288 net.cpp:106] Creating Layer relu3
I0210 08:38:36.966697 31288 net.cpp:454] relu3 <- conv3
I0210 08:38:36.966703 31288 net.cpp:397] relu3 -> conv3 (in-place)
I0210 08:38:36.966711 31288 net.cpp:150] Setting up relu3
I0210 08:38:36.966717 31288 net.cpp:157] Top shape: 100 64 7 7 (313600)
I0210 08:38:36.966720 31288 net.cpp:165] Memory required for data: 28111200
I0210 08:38:36.966725 31288 layer_factory.hpp:77] Creating layer pool3
I0210 08:38:36.966732 31288 net.cpp:106] Creating Layer pool3
I0210 08:38:36.966735 31288 net.cpp:454] pool3 <- conv3
I0210 08:38:36.966744 31288 net.cpp:411] pool3 -> pool3
I0210 08:38:36.966773 31288 net.cpp:150] Setting up pool3
I0210 08:38:36.966786 31288 net.cpp:157] Top shape: 100 64 3 3 (57600)
I0210 08:38:36.966791 31288 net.cpp:165] Memory required for data: 28341600
I0210 08:38:36.966796 31288 layer_factory.hpp:77] Creating layer ip1
I0210 08:38:36.966804 31288 net.cpp:106] Creating Layer ip1
I0210 08:38:36.966809 31288 net.cpp:454] ip1 <- pool3
I0210 08:38:36.966820 31288 net.cpp:411] ip1 -> ip1
I0210 08:38:36.968175 31288 net.cpp:150] Setting up ip1
I0210 08:38:36.968195 31288 net.cpp:157] Top shape: 100 64 (6400)
I0210 08:38:36.968200 31288 net.cpp:165] Memory required for data: 28367200
I0210 08:38:36.968209 31288 layer_factory.hpp:77] Creating layer ip2
I0210 08:38:36.968225 31288 net.cpp:106] Creating Layer ip2
I0210 08:38:36.968232 31288 net.cpp:454] ip2 <- ip1
I0210 08:38:36.968242 31288 net.cpp:411] ip2 -> ip2
I0210 08:38:36.968544 31288 net.cpp:150] Setting up ip2
I0210 08:38:36.968559 31288 net.cpp:157] Top shape: 100 100 (10000)
I0210 08:38:36.968564 31288 net.cpp:165] Memory required for data: 28407200
I0210 08:38:36.968587 31288 layer_factory.hpp:77] Creating layer ip2_ip2_0_split
I0210 08:38:36.968595 31288 net.cpp:106] Creating Layer ip2_ip2_0_split
I0210 08:38:36.968600 31288 net.cpp:454] ip2_ip2_0_split <- ip2
I0210 08:38:36.968606 31288 net.cpp:411] ip2_ip2_0_split -> ip2_ip2_0_split_0
I0210 08:38:36.968617 31288 net.cpp:411] ip2_ip2_0_split -> ip2_ip2_0_split_1
I0210 08:38:36.968652 31288 net.cpp:150] Setting up ip2_ip2_0_split
I0210 08:38:36.968667 31288 net.cpp:157] Top shape: 100 100 (10000)
I0210 08:38:36.968672 31288 net.cpp:157] Top shape: 100 100 (10000)
I0210 08:38:36.968677 31288 net.cpp:165] Memory required for data: 28487200
I0210 08:38:36.968680 31288 layer_factory.hpp:77] Creating layer accuracy
I0210 08:38:36.968694 31288 net.cpp:106] Creating Layer accuracy
I0210 08:38:36.968699 31288 net.cpp:454] accuracy <- ip2_ip2_0_split_0
I0210 08:38:36.968705 31288 net.cpp:454] accuracy <- label_cifar_1_split_0
I0210 08:38:36.968711 31288 net.cpp:411] accuracy -> accuracy
…
