…
I0210 18:01:38.654605   555 net.cpp:322] The NetState phase (0) differed from the phase (1) specified by a rule in layer accuracy
I0210 18:01:38.654757   555 net.cpp:49] Initializing net from parameters: 
name: "CIFAR100_quick"
state {
  phase: TRAIN
}
layer {
  name: "cifar"
  type: "Data"
  top: "data"
  top: "label"
  include {
    phase: TRAIN
  }
  transform_param {
    mirror: true
    crop_size: 31
    mean_file: "examples/cifar100/mean.binaryproto"
  }
  data_param {
    source: "examples/GCN_cifar100/GCN_cifar100_train_lmdb"
    batch_size: 100
    backend: LMDB
  }
}
layer {
  name: "conv1"
  type: "Convolution"
  bottom: "data"
  top: "conv1"
  param {
    lr_mult: 1
  }
  param {
    lr_mult: 2
  }
  convolution_param {
    num_output: 32
    pad: 2
    kernel_size: 5
    stride: 1
    weight_filler {
      type: "gaussian"
      std: 0.0001
    }
    bias_filler {
      type: "constant"
    }
  }
}
layer {
  name: "pool1"
  type: "Pooling"
  bottom: "conv1"
  top: "pool1"
  pooling_param {
    pool: MAX
    kernel_size: 3
    stride: 2
  }
}
layer {
  name: "relu1"
  type: "ReLU"
  bottom: "pool1"
  top: "pool1"
}
layer {
  name: "conv2"
  type: "Convolution"
  bottom: "pool1"
  top: "conv2"
  param {
    lr_mult: 1
  }
  param {
    lr_mult: 2
  }
  convolution_param {
    num_output: 32
    pad: 2
    kernel_size: 5
    stride: 1
    weight_filler {
      type: "gaussian"
      std: 0.01
    }
    bias_filler {
      type: "constant"
    }
  }
}
layer {
  name: "relu2"
  type: "ReLU"
  bottom: "conv2"
  top: "conv2"
}
layer {
  name: "pool2"
  type: "Pooling"
  bottom: "conv2"
  top: "pool2"
  pooling_param {
    pool: AVE
    kernel_size: 3
    stride: 2
  }
}
layer {
  name: "conv3"
  type: "Convolution"
  bottom: "pool2"
  top: "conv3"
  param {
    lr_mult: 1
  }
  param {
    lr_mult: 2
  }
  convolution_param {
    num_output: 64
    pad: 2
    kernel_size: 5
    stride: 1
    weight_filler {
      type: "gaussian"
      std: 0.01
    }
    bias_filler {
      type: "constant"
    }
  }
}
layer {
  name: "relu3"
  type: "ReLU"
  bottom: "conv3"
  top: "conv3"
}
layer {
  name: "pool3"
  type: "Pooling"
  bottom: "conv3"
  top: "pool3"
  pooling_param {
    pool: AVE
    kernel_size: 3
    stride: 2
  }
}
layer {
  name: "ip1"
  type: "InnerProduct"
  bottom: "pool3"
  top: "ip1"
  param {
    lr_mult: 1
  }
  param {
    lr_mult: 2
  }
  inner_product_param {
    num_output: 64
    weight_filler {
      type: "gaussian"
      std: 0.1
    }
    bias_filler {
      type: "constant"
    }
  }
}
layer {
  name: "ip2"
  type: "InnerProduct"
  bottom: "ip1"
  top: "ip2"
  param {
    lr_mult: 1
  }
  param {
    lr_mult: 2
  }
  inner_product_param {
    num_output: 100
    weight_filler {
      type: "gaussian"
      std: 0.1
    }
    bias_filler {
      type: "constant"
    }
  }
}
layer {
  name: "loss"
  type: "SoftmaxWithLoss"
  bottom: "ip2"
  bottom: "label"
  top: "loss"
}
I0210 18:01:38.654939   555 layer_factory.hpp:77] Creating layer cifar
I0210 18:01:38.655810   555 net.cpp:106] Creating Layer cifar
I0210 18:01:38.655884   555 net.cpp:411] cifar -> data
I0210 18:01:38.655943   555 net.cpp:411] cifar -> label
I0210 18:01:38.655987   555 data_transformer.cpp:25] Loading mean file from: examples/cifar100/mean.binaryproto
I0210 18:01:38.656534   561 db_lmdb.cpp:38] Opened lmdb examples/GCN_cifar100/GCN_cifar100_train_lmdb
I0210 18:01:38.667484   555 data_layer.cpp:41] output data size: 100,3,31,31
I0210 18:01:38.670539   555 net.cpp:150] Setting up cifar
I0210 18:01:38.670581   555 net.cpp:157] Top shape: 100 3 31 31 (288300)
I0210 18:01:38.670598   555 net.cpp:157] Top shape: 100 (100)
I0210 18:01:38.670606   555 net.cpp:165] Memory required for data: 1153600
I0210 18:01:38.670625   555 layer_factory.hpp:77] Creating layer conv1
I0210 18:01:38.670665   555 net.cpp:106] Creating Layer conv1
I0210 18:01:38.670687   555 net.cpp:454] conv1 <- data
I0210 18:01:38.670722   555 net.cpp:411] conv1 -> conv1
I0210 18:01:38.671609   555 net.cpp:150] Setting up conv1
I0210 18:01:38.671632   555 net.cpp:157] Top shape: 100 32 31 31 (3075200)
I0210 18:01:38.671640   555 net.cpp:165] Memory required for data: 13454400
I0210 18:01:38.671680   555 layer_factory.hpp:77] Creating layer pool1
I0210 18:01:38.671705   555 net.cpp:106] Creating Layer pool1
I0210 18:01:38.671725   555 net.cpp:454] pool1 <- conv1
I0210 18:01:38.671746   555 net.cpp:411] pool1 -> pool1
I0210 18:01:38.671953   555 net.cpp:150] Setting up pool1
I0210 18:01:38.671974   555 net.cpp:157] Top shape: 100 32 15 15 (720000)
I0210 18:01:38.671984   555 net.cpp:165] Memory required for data: 16334400
I0210 18:01:38.671994   555 layer_factory.hpp:77] Creating layer relu1
I0210 18:01:38.672013   555 net.cpp:106] Creating Layer relu1
I0210 18:01:38.672024   555 net.cpp:454] relu1 <- pool1
I0210 18:01:38.672037   555 net.cpp:397] relu1 -> pool1 (in-place)
I0210 18:01:38.672060   555 net.cpp:150] Setting up relu1
I0210 18:01:38.672080   555 net.cpp:157] Top shape: 100 32 15 15 (720000)
I0210 18:01:38.672091   555 net.cpp:165] Memory required for data: 19214400
I0210 18:01:38.672101   555 layer_factory.hpp:77] Creating layer conv2
I0210 18:01:38.672127   555 net.cpp:106] Creating Layer conv2
I0210 18:01:38.672147   555 net.cpp:454] conv2 <- pool1
I0210 18:01:38.672168   555 net.cpp:411] conv2 -> conv2
I0210 18:01:38.673810   555 net.cpp:150] Setting up conv2
I0210 18:01:38.673837   555 net.cpp:157] Top shape: 100 32 15 15 (720000)
I0210 18:01:38.673847   555 net.cpp:165] Memory required for data: 22094400
I0210 18:01:38.673868   555 layer_factory.hpp:77] Creating layer relu2
I0210 18:01:38.673889   555 net.cpp:106] Creating Layer relu2
I0210 18:01:38.673899   555 net.cpp:454] relu2 <- conv2
I0210 18:01:38.673918   555 net.cpp:397] relu2 -> conv2 (in-place)
I0210 18:01:38.673933   555 net.cpp:150] Setting up relu2
I0210 18:01:38.673949   555 net.cpp:157] Top shape: 100 32 15 15 (720000)
I0210 18:01:38.673957   555 net.cpp:165] Memory required for data: 24974400
I0210 18:01:38.673966   555 layer_factory.hpp:77] Creating layer pool2
I0210 18:01:38.673979   555 net.cpp:106] Creating Layer pool2
I0210 18:01:38.673990   555 net.cpp:454] pool2 <- conv2
I0210 18:01:38.674003   555 net.cpp:411] pool2 -> pool2
I0210 18:01:38.674049   555 net.cpp:150] Setting up pool2
I0210 18:01:38.674069   555 net.cpp:157] Top shape: 100 32 7 7 (156800)
I0210 18:01:38.674078   555 net.cpp:165] Memory required for data: 25601600
I0210 18:01:38.674088   555 layer_factory.hpp:77] Creating layer conv3
I0210 18:01:38.674115   555 net.cpp:106] Creating Layer conv3
I0210 18:01:38.674127   555 net.cpp:454] conv3 <- pool2
I0210 18:01:38.674151   555 net.cpp:411] conv3 -> conv3
I0210 18:01:38.676020   555 net.cpp:150] Setting up conv3
I0210 18:01:38.676043   555 net.cpp:157] Top shape: 100 64 7 7 (313600)
I0210 18:01:38.676053   555 net.cpp:165] Memory required for data: 26856000
I0210 18:01:38.676074   555 layer_factory.hpp:77] Creating layer relu3
I0210 18:01:38.676090   555 net.cpp:106] Creating Layer relu3
I0210 18:01:38.676100   555 net.cpp:454] relu3 <- conv3
I0210 18:01:38.676113   555 net.cpp:397] relu3 -> conv3 (in-place)
I0210 18:01:38.676128   555 net.cpp:150] Setting up relu3
I0210 18:01:38.676141   555 net.cpp:157] Top shape: 100 64 7 7 (313600)
I0210 18:01:38.676149   555 net.cpp:165] Memory required for data: 28110400
I0210 18:01:38.676158   555 layer_factory.hpp:77] Creating layer pool3
I0210 18:01:38.676203   555 net.cpp:106] Creating Layer pool3
I0210 18:01:38.676220   555 net.cpp:454] pool3 <- conv3
I0210 18:01:38.676235   555 net.cpp:411] pool3 -> pool3
I0210 18:01:38.676280   555 net.cpp:150] Setting up pool3
I0210 18:01:38.676301   555 net.cpp:157] Top shape: 100 64 3 3 (57600)
I0210 18:01:38.676308   555 net.cpp:165] Memory required for data: 28340800
I0210 18:01:38.676318   555 layer_factory.hpp:77] Creating layer ip1
I0210 18:01:38.676344   555 net.cpp:106] Creating Layer ip1
I0210 18:01:38.676358   555 net.cpp:454] ip1 <- pool3
I0210 18:01:38.676374   555 net.cpp:411] ip1 -> ip1
I0210 18:01:38.677683   555 net.cpp:150] Setting up ip1
I0210 18:01:38.677707   555 net.cpp:157] Top shape: 100 64 (6400)
I0210 18:01:38.677717   555 net.cpp:165] Memory required for data: 28366400
I0210 18:01:38.677733   555 layer_factory.hpp:77] Creating layer ip2
I0210 18:01:38.677753   555 net.cpp:106] Creating Layer ip2
I0210 18:01:38.677764   555 net.cpp:454] ip2 <- ip1
I0210 18:01:38.677780   555 net.cpp:411] ip2 -> ip2
I0210 18:01:38.678597   555 net.cpp:150] Setting up ip2
I0210 18:01:38.678619   555 net.cpp:157] Top shape: 100 100 (10000)
I0210 18:01:38.678629   555 net.cpp:165] Memory required for data: 28406400
I0210 18:01:38.678650   555 layer_factory.hpp:77] Creating layer loss
I0210 18:01:38.678668   555 net.cpp:106] Creating Layer loss
I0210 18:01:38.678679   555 net.cpp:454] loss <- ip2
I0210 18:01:38.678695   555 net.cpp:454] loss <- label
I0210 18:01:38.678711   555 net.cpp:411] loss -> loss
I0210 18:01:38.678741   555 layer_factory.hpp:77] Creating layer loss
…
I0210 18:01:38.679658   555 net.cpp:322] The NetState phase (1) differed from the phase (0) specified by a rule in layer cifar
I0210 18:01:38.679831   555 net.cpp:49] Initializing net from parameters: 
name: "CIFAR100_quick"
state {
  phase: TEST
}
layer {
  name: "cifar"
  type: "Data"
  top: "data"
  top: "label"
  include {
    phase: TEST
  }
  transform_param {
    mirror: true
    crop_size: 31
    mean_file: "examples/cifar100/mean.binaryproto"
  }
  data_param {
    source: "examples/GCN_cifar100/GCN_cifar100_test_lmdb"
    batch_size: 100
    backend: LMDB
  }
}
layer {
  name: "conv1"
  type: "Convolution"
  bottom: "data"
  top: "conv1"
  param {
    lr_mult: 1
  }
  param {
    lr_mult: 2
  }
  convolution_param {
    num_output: 32
    pad: 2
    kernel_size: 5
    stride: 1
    weight_filler {
      type: "gaussian"
      std: 0.0001
    }
    bias_filler {
      type: "constant"
    }
  }
}
layer {
  name: "pool1"
  type: "Pooling"
  bottom: "conv1"
  top: "pool1"
  pooling_param {
    pool: MAX
    kernel_size: 3
    stride: 2
  }
}
layer {
  name: "relu1"
  type: "ReLU"
  bottom: "pool1"
  top: "pool1"
}
layer {
  name: "conv2"
  type: "Convolution"
  bottom: "pool1"
  top: "conv2"
  param {
    lr_mult: 1
  }
  param {
    lr_mult: 2
  }
  convolution_param {
    num_output: 32
    pad: 2
    kernel_size: 5
    stride: 1
    weight_filler {
      type: "gaussian"
      std: 0.01
    }
    bias_filler {
      type: "constant"
    }
  }
}
layer {
  name: "relu2"
  type: "ReLU"
  bottom: "conv2"
  top: "conv2"
}
layer {
  name: "pool2"
  type: "Pooling"
  bottom: "conv2"
  top: "pool2"
  pooling_param {
    pool: AVE
    kernel_size: 3
    stride: 2
  }
}
layer {
  name: "conv3"
  type: "Convolution"
  bottom: "pool2"
  top: "conv3"
  param {
    lr_mult: 1
  }
  param {
    lr_mult: 2
  }
  convolution_param {
    num_output: 64
    pad: 2
    kernel_size: 5
    stride: 1
    weight_filler {
      type: "gaussian"
      std: 0.01
    }
    bias_filler {
      type: "constant"
    }
  }
}
layer {
  name: "relu3"
  type: "ReLU"
  bottom: "conv3"
  top: "conv3"
}
layer {
  name: "pool3"
  type: "Pooling"
  bottom: "conv3"
  top: "pool3"
  pooling_param {
    pool: AVE
    kernel_size: 3
    stride: 2
  }
}
layer {
  name: "ip1"
  type: "InnerProduct"
  bottom: "pool3"
  top: "ip1"
  param {
    lr_mult: 1
  }
  param {
    lr_mult: 2
  }
  inner_product_param {
    num_output: 64
    weight_filler {
      type: "gaussian"
      std: 0.1
    }
    bias_filler {
      type: "constant"
    }
  }
}
layer {
  name: "ip2"
  type: "InnerProduct"
  bottom: "ip1"
  top: "ip2"
  param {
    lr_mult: 1
  }
  param {
    lr_mult: 2
  }
  inner_product_param {
    num_output: 100
    weight_filler {
      type: "gaussian"
      std: 0.1
    }
    bias_filler {
      type: "constant"
    }
  }
}
layer {
  name: "accuracy"
  type: "Accuracy"
  bottom: "ip2"
  bottom: "label"
  top: "accuracy"
  include {
    phase: TEST
  }
}
layer {
  name: "loss"
  type: "SoftmaxWithLoss"
  bottom: "ip2"
  bottom: "label"
  top: "loss"
}
I0210 18:01:38.680014   555 layer_factory.hpp:77] Creating layer cifar
I0210 18:01:38.680210   555 net.cpp:106] Creating Layer cifar
I0210 18:01:38.680227   555 net.cpp:411] cifar -> data
I0210 18:01:38.680251   555 net.cpp:411] cifar -> label
I0210 18:01:38.680269   555 data_transformer.cpp:25] Loading mean file from: examples/cifar100/mean.binaryproto
I0210 18:01:38.680845   563 db_lmdb.cpp:38] Opened lmdb examples/GCN_cifar100/GCN_cifar100_test_lmdb
I0210 18:01:38.680965   555 data_layer.cpp:41] output data size: 100,3,31,31
I0210 18:01:38.683713   555 net.cpp:150] Setting up cifar
I0210 18:01:38.683739   555 net.cpp:157] Top shape: 100 3 31 31 (288300)
I0210 18:01:38.683753   555 net.cpp:157] Top shape: 100 (100)
I0210 18:01:38.683764   555 net.cpp:165] Memory required for data: 1153600
I0210 18:01:38.683776   555 layer_factory.hpp:77] Creating layer label_cifar_1_split
I0210 18:01:38.683796   555 net.cpp:106] Creating Layer label_cifar_1_split
I0210 18:01:38.683807   555 net.cpp:454] label_cifar_1_split <- label
I0210 18:01:38.683821   555 net.cpp:411] label_cifar_1_split -> label_cifar_1_split_0
I0210 18:01:38.683841   555 net.cpp:411] label_cifar_1_split -> label_cifar_1_split_1
I0210 18:01:38.683917   555 net.cpp:150] Setting up label_cifar_1_split
I0210 18:01:38.683939   555 net.cpp:157] Top shape: 100 (100)
I0210 18:01:38.683954   555 net.cpp:157] Top shape: 100 (100)
I0210 18:01:38.683964   555 net.cpp:165] Memory required for data: 1154400
I0210 18:01:38.683974   555 layer_factory.hpp:77] Creating layer conv1
I0210 18:01:38.683998   555 net.cpp:106] Creating Layer conv1
I0210 18:01:38.684011   555 net.cpp:454] conv1 <- data
I0210 18:01:38.684031   555 net.cpp:411] conv1 -> conv1
I0210 18:01:38.684392   555 net.cpp:150] Setting up conv1
I0210 18:01:38.684413   555 net.cpp:157] Top shape: 100 32 31 31 (3075200)
I0210 18:01:38.684422   555 net.cpp:165] Memory required for data: 13455200
I0210 18:01:38.684447   555 layer_factory.hpp:77] Creating layer pool1
I0210 18:01:38.684481   555 net.cpp:106] Creating Layer pool1
I0210 18:01:38.684494   555 net.cpp:454] pool1 <- conv1
I0210 18:01:38.684512   555 net.cpp:411] pool1 -> pool1
I0210 18:01:38.684638   555 net.cpp:150] Setting up pool1
I0210 18:01:38.684659   555 net.cpp:157] Top shape: 100 32 15 15 (720000)
I0210 18:01:38.684669   555 net.cpp:165] Memory required for data: 16335200
I0210 18:01:38.684679   555 layer_factory.hpp:77] Creating layer relu1
I0210 18:01:38.684697   555 net.cpp:106] Creating Layer relu1
I0210 18:01:38.684713   555 net.cpp:454] relu1 <- pool1
I0210 18:01:38.684726   555 net.cpp:397] relu1 -> pool1 (in-place)
I0210 18:01:38.684742   555 net.cpp:150] Setting up relu1
I0210 18:01:38.684756   555 net.cpp:157] Top shape: 100 32 15 15 (720000)
I0210 18:01:38.684767   555 net.cpp:165] Memory required for data: 19215200
I0210 18:01:38.684778   555 layer_factory.hpp:77] Creating layer conv2
I0210 18:01:38.684801   555 net.cpp:106] Creating Layer conv2
I0210 18:01:38.684814   555 net.cpp:454] conv2 <- pool1
I0210 18:01:38.684835   555 net.cpp:411] conv2 -> conv2
I0210 18:01:38.685883   555 net.cpp:150] Setting up conv2
I0210 18:01:38.685904   555 net.cpp:157] Top shape: 100 32 15 15 (720000)
I0210 18:01:38.685914   555 net.cpp:165] Memory required for data: 22095200
I0210 18:01:38.685935   555 layer_factory.hpp:77] Creating layer relu2
I0210 18:01:38.685948   555 net.cpp:106] Creating Layer relu2
I0210 18:01:38.685958   555 net.cpp:454] relu2 <- conv2
I0210 18:01:38.685971   555 net.cpp:397] relu2 -> conv2 (in-place)
I0210 18:01:38.685986   555 net.cpp:150] Setting up relu2
I0210 18:01:38.685998   555 net.cpp:157] Top shape: 100 32 15 15 (720000)
I0210 18:01:38.686007   555 net.cpp:165] Memory required for data: 24975200
I0210 18:01:38.686017   555 layer_factory.hpp:77] Creating layer pool2
I0210 18:01:38.686028   555 net.cpp:106] Creating Layer pool2
I0210 18:01:38.686038   555 net.cpp:454] pool2 <- conv2
I0210 18:01:38.686059   555 net.cpp:411] pool2 -> pool2
I0210 18:01:38.686106   555 net.cpp:150] Setting up pool2
I0210 18:01:38.686131   555 net.cpp:157] Top shape: 100 32 7 7 (156800)
I0210 18:01:38.686141   555 net.cpp:165] Memory required for data: 25602400
I0210 18:01:38.686149   555 layer_factory.hpp:77] Creating layer conv3
I0210 18:01:38.686177   555 net.cpp:106] Creating Layer conv3
I0210 18:01:38.686194   555 net.cpp:454] conv3 <- pool2
I0210 18:01:38.686211   555 net.cpp:411] conv3 -> conv3
I0210 18:01:38.688168   555 net.cpp:150] Setting up conv3
I0210 18:01:38.688189   555 net.cpp:157] Top shape: 100 64 7 7 (313600)
I0210 18:01:38.688199   555 net.cpp:165] Memory required for data: 26856800
I0210 18:01:38.688220   555 layer_factory.hpp:77] Creating layer relu3
I0210 18:01:38.688237   555 net.cpp:106] Creating Layer relu3
I0210 18:01:38.688249   555 net.cpp:454] relu3 <- conv3
I0210 18:01:38.688262   555 net.cpp:397] relu3 -> conv3 (in-place)
I0210 18:01:38.688277   555 net.cpp:150] Setting up relu3
I0210 18:01:38.688290   555 net.cpp:157] Top shape: 100 64 7 7 (313600)
I0210 18:01:38.688299   555 net.cpp:165] Memory required for data: 28111200
I0210 18:01:38.688308   555 layer_factory.hpp:77] Creating layer pool3
I0210 18:01:38.688321   555 net.cpp:106] Creating Layer pool3
I0210 18:01:38.688331   555 net.cpp:454] pool3 <- conv3
I0210 18:01:38.688347   555 net.cpp:411] pool3 -> pool3
I0210 18:01:38.688501   555 net.cpp:150] Setting up pool3
I0210 18:01:38.688521   555 net.cpp:157] Top shape: 100 64 3 3 (57600)
I0210 18:01:38.688530   555 net.cpp:165] Memory required for data: 28341600
I0210 18:01:38.688539   555 layer_factory.hpp:77] Creating layer ip1
I0210 18:01:38.688560   555 net.cpp:106] Creating Layer ip1
I0210 18:01:38.688577   555 net.cpp:454] ip1 <- pool3
I0210 18:01:38.688596   555 net.cpp:411] ip1 -> ip1
I0210 18:01:38.689898   555 net.cpp:150] Setting up ip1
I0210 18:01:38.689923   555 net.cpp:157] Top shape: 100 64 (6400)
I0210 18:01:38.689932   555 net.cpp:165] Memory required for data: 28367200
I0210 18:01:38.689949   555 layer_factory.hpp:77] Creating layer ip2
I0210 18:01:38.689987   555 net.cpp:106] Creating Layer ip2
I0210 18:01:38.690001   555 net.cpp:454] ip2 <- ip1
I0210 18:01:38.690016   555 net.cpp:411] ip2 -> ip2
I0210 18:01:38.690393   555 net.cpp:150] Setting up ip2
I0210 18:01:38.690414   555 net.cpp:157] Top shape: 100 100 (10000)
I0210 18:01:38.690423   555 net.cpp:165] Memory required for data: 28407200
I0210 18:01:38.690444   555 layer_factory.hpp:77] Creating layer ip2_ip2_0_split
I0210 18:01:38.690464   555 net.cpp:106] Creating Layer ip2_ip2_0_split
I0210 18:01:38.690474   555 net.cpp:454] ip2_ip2_0_split <- ip2
I0210 18:01:38.690488   555 net.cpp:411] ip2_ip2_0_split -> ip2_ip2_0_split_0
I0210 18:01:38.690505   555 net.cpp:411] ip2_ip2_0_split -> ip2_ip2_0_split_1
I0210 18:01:38.690568   555 net.cpp:150] Setting up ip2_ip2_0_split
I0210 18:01:38.690588   555 net.cpp:157] Top shape: 100 100 (10000)
I0210 18:01:38.690600   555 net.cpp:157] Top shape: 100 100 (10000)
I0210 18:01:38.690609   555 net.cpp:165] Memory required for data: 28487200
I0210 18:01:38.690618   555 layer_factory.hpp:77] Creating layer accuracy
I0210 18:01:38.690640   555 net.cpp:106] Creating Layer accuracy
I0210 18:01:38.690654   555 net.cpp:454] accuracy <- ip2_ip2_0_split_0
I0210 18:01:38.690665   555 net.cpp:454] accuracy <- label_cifar_1_split_0
I0210 18:01:38.690678   555 net.cpp:411] accuracy -> accuracy
…
