…
I0210 06:38:00.248919 28792 net.cpp:322] The NetState phase (0) differed from the phase (1) specified by a rule in layer cifar
I0210 06:38:00.248950 28792 net.cpp:322] The NetState phase (0) differed from the phase (1) specified by a rule in layer accuracy
I0210 06:38:00.249073 28792 net.cpp:49] Initializing net from parameters: 
name: "CIFAR100_quick"
state {
  phase: TRAIN
}
layer {
  name: "cifar"
  type: "Data"
  top: "data"
  top: "label"
  include {
    phase: TRAIN
  }
  data_param {
    source: "examples/cifar100/cifar100_train_lmdb"
    batch_size: 100
    backend: LMDB
  }
}
layer {
  name: "conv1"
  type: "Convolution"
  bottom: "data"
  top: "conv1"
  param {
    lr_mult: 1
  }
  param {
    lr_mult: 2
  }
  convolution_param {
    num_output: 32
    pad: 2
    kernel_size: 5
    stride: 1
    weight_filler {
      type: "gaussian"
      std: 0.0001
    }
    bias_filler {
      type: "constant"
    }
  }
}
layer {
  name: "pool1"
  type: "Pooling"
  bottom: "conv1"
  top: "pool1"
  pooling_param {
    pool: MAX
    kernel_size: 3
    stride: 2
  }
}
layer {
  name: "relu1"
  type: "ReLU"
  bottom: "pool1"
  top: "pool1"
}
layer {
  name: "conv2"
  type: "Convolution"
  bottom: "pool1"
  top: "conv2"
  param {
    lr_mult: 1
  }
  param {
    lr_mult: 2
  }
  convolution_param {
    num_output: 32
    pad: 2
    kernel_size: 5
    stride: 1
    weight_filler {
      type: "gaussian"
      std: 0.01
    }
    bias_filler {
      type: "constant"
    }
  }
}
layer {
  name: "relu2"
  type: "ReLU"
  bottom: "conv2"
  top: "conv2"
}
layer {
  name: "pool2"
  type: "Pooling"
  bottom: "conv2"
  top: "pool2"
  pooling_param {
    pool: AVE
    kernel_size: 3
    stride: 2
  }
}
layer {
  name: "conv3"
  type: "Convolution"
  bottom: "pool2"
  top: "conv3"
  param {
    lr_mult: 1
  }
  param {
    lr_mult: 2
  }
  convolution_param {
    num_output: 64
    pad: 2
    kernel_size: 5
    stride: 1
    weight_filler {
      type: "gaussian"
      std: 0.01
    }
    bias_filler {
      type: "constant"
    }
  }
}
layer {
  name: "relu3"
  type: "ReLU"
  bottom: "conv3"
  top: "conv3"
}
layer {
  name: "pool3"
  type: "Pooling"
  bottom: "conv3"
  top: "pool3"
  pooling_param {
    pool: AVE
    kernel_size: 3
    stride: 2
  }
}
layer {
  name: "ip1"
  type: "InnerProduct"
  bottom: "pool3"
  top: "ip1"
  param {
    lr_mult: 1
  }
  param {
    lr_mult: 2
  }
  inner_product_param {
    num_output: 64
    weight_filler {
      type: "gaussian"
      std: 0.1
    }
    bias_filler {
      type: "constant"
    }
  }
}
layer {
  name: "ip2"
  type: "InnerProduct"
  bottom: "ip1"
  top: "ip2"
  param {
    lr_mult: 1
  }
  param {
    lr_mult: 2
  }
  inner_product_param {
    num_output: 100
    weight_filler {
      type: "gaussian"
      std: 0.1
    }
    bias_filler {
      type: "constant"
    }
  }
}
layer {
  name: "loss"
  type: "SoftmaxWithLoss"
  bottom: "ip2"
  bottom: "label"
  top: "loss"
}
I0210 06:38:00.249181 28792 layer_factory.hpp:77] Creating layer cifar
I0210 06:38:00.249737 28792 net.cpp:106] Creating Layer cifar
I0210 06:38:00.249763 28792 net.cpp:411] cifar -> data
I0210 06:38:00.249793 28792 net.cpp:411] cifar -> label
I0210 06:38:00.250421 28798 db_lmdb.cpp:38] Opened lmdb examples/cifar100/cifar100_train_lmdb
I0210 06:38:00.260956 28792 data_layer.cpp:41] output data size: 100,3,32,32
I0210 06:38:00.263705 28792 net.cpp:150] Setting up cifar
I0210 06:38:00.263731 28792 net.cpp:157] Top shape: 100 3 32 32 (307200)
I0210 06:38:00.263739 28792 net.cpp:157] Top shape: 100 (100)
I0210 06:38:00.263763 28792 net.cpp:165] Memory required for data: 1229200
I0210 06:38:00.263774 28792 layer_factory.hpp:77] Creating layer conv1
I0210 06:38:00.263800 28792 net.cpp:106] Creating Layer conv1
I0210 06:38:00.263808 28792 net.cpp:454] conv1 <- data
I0210 06:38:00.263828 28792 net.cpp:411] conv1 -> conv1
I0210 06:38:00.265230 28792 net.cpp:150] Setting up conv1
I0210 06:38:00.265252 28792 net.cpp:157] Top shape: 100 32 32 32 (3276800)
I0210 06:38:00.265257 28792 net.cpp:165] Memory required for data: 14336400
I0210 06:38:00.265278 28792 layer_factory.hpp:77] Creating layer pool1
I0210 06:38:00.265290 28792 net.cpp:106] Creating Layer pool1
I0210 06:38:00.265295 28792 net.cpp:454] pool1 <- conv1
I0210 06:38:00.265302 28792 net.cpp:411] pool1 -> pool1
I0210 06:38:00.265460 28792 net.cpp:150] Setting up pool1
I0210 06:38:00.265476 28792 net.cpp:157] Top shape: 100 32 16 16 (819200)
I0210 06:38:00.265481 28792 net.cpp:165] Memory required for data: 17613200
I0210 06:38:00.265486 28792 layer_factory.hpp:77] Creating layer relu1
I0210 06:38:00.265494 28792 net.cpp:106] Creating Layer relu1
I0210 06:38:00.265499 28792 net.cpp:454] relu1 <- pool1
I0210 06:38:00.265508 28792 net.cpp:397] relu1 -> pool1 (in-place)
I0210 06:38:00.265521 28792 net.cpp:150] Setting up relu1
I0210 06:38:00.265527 28792 net.cpp:157] Top shape: 100 32 16 16 (819200)
I0210 06:38:00.265532 28792 net.cpp:165] Memory required for data: 20890000
I0210 06:38:00.265535 28792 layer_factory.hpp:77] Creating layer conv2
I0210 06:38:00.265550 28792 net.cpp:106] Creating Layer conv2
I0210 06:38:00.265555 28792 net.cpp:454] conv2 <- pool1
I0210 06:38:00.265563 28792 net.cpp:411] conv2 -> conv2
I0210 06:38:00.267271 28792 net.cpp:150] Setting up conv2
I0210 06:38:00.267292 28792 net.cpp:157] Top shape: 100 32 16 16 (819200)
I0210 06:38:00.267297 28792 net.cpp:165] Memory required for data: 24166800
I0210 06:38:00.267309 28792 layer_factory.hpp:77] Creating layer relu2
I0210 06:38:00.267316 28792 net.cpp:106] Creating Layer relu2
I0210 06:38:00.267321 28792 net.cpp:454] relu2 <- conv2
I0210 06:38:00.267328 28792 net.cpp:397] relu2 -> conv2 (in-place)
I0210 06:38:00.267335 28792 net.cpp:150] Setting up relu2
I0210 06:38:00.267341 28792 net.cpp:157] Top shape: 100 32 16 16 (819200)
I0210 06:38:00.267345 28792 net.cpp:165] Memory required for data: 27443600
I0210 06:38:00.267350 28792 layer_factory.hpp:77] Creating layer pool2
I0210 06:38:00.267360 28792 net.cpp:106] Creating Layer pool2
I0210 06:38:00.267364 28792 net.cpp:454] pool2 <- conv2
I0210 06:38:00.267371 28792 net.cpp:411] pool2 -> pool2
I0210 06:38:00.267395 28792 net.cpp:150] Setting up pool2
I0210 06:38:00.267403 28792 net.cpp:157] Top shape: 100 32 8 8 (204800)
I0210 06:38:00.267408 28792 net.cpp:165] Memory required for data: 28262800
I0210 06:38:00.267412 28792 layer_factory.hpp:77] Creating layer conv3
I0210 06:38:00.267426 28792 net.cpp:106] Creating Layer conv3
I0210 06:38:00.267431 28792 net.cpp:454] conv3 <- pool2
I0210 06:38:00.267437 28792 net.cpp:411] conv3 -> conv3
I0210 06:38:00.269248 28792 net.cpp:150] Setting up conv3
I0210 06:38:00.269268 28792 net.cpp:157] Top shape: 100 64 8 8 (409600)
I0210 06:38:00.269273 28792 net.cpp:165] Memory required for data: 29901200
I0210 06:38:00.269284 28792 layer_factory.hpp:77] Creating layer relu3
I0210 06:38:00.269299 28792 net.cpp:106] Creating Layer relu3
I0210 06:38:00.269304 28792 net.cpp:454] relu3 <- conv3
I0210 06:38:00.269309 28792 net.cpp:397] relu3 -> conv3 (in-place)
I0210 06:38:00.269317 28792 net.cpp:150] Setting up relu3
I0210 06:38:00.269322 28792 net.cpp:157] Top shape: 100 64 8 8 (409600)
I0210 06:38:00.269327 28792 net.cpp:165] Memory required for data: 31539600
I0210 06:38:00.269331 28792 layer_factory.hpp:77] Creating layer pool3
I0210 06:38:00.269340 28792 net.cpp:106] Creating Layer pool3
I0210 06:38:00.269345 28792 net.cpp:454] pool3 <- conv3
I0210 06:38:00.269351 28792 net.cpp:411] pool3 -> pool3
I0210 06:38:00.269374 28792 net.cpp:150] Setting up pool3
I0210 06:38:00.269381 28792 net.cpp:157] Top shape: 100 64 4 4 (102400)
I0210 06:38:00.269407 28792 net.cpp:165] Memory required for data: 31949200
I0210 06:38:00.269412 28792 layer_factory.hpp:77] Creating layer ip1
I0210 06:38:00.269428 28792 net.cpp:106] Creating Layer ip1
I0210 06:38:00.269434 28792 net.cpp:454] ip1 <- pool3
I0210 06:38:00.269444 28792 net.cpp:411] ip1 -> ip1
I0210 06:38:00.271680 28792 net.cpp:150] Setting up ip1
I0210 06:38:00.271699 28792 net.cpp:157] Top shape: 100 64 (6400)
I0210 06:38:00.271704 28792 net.cpp:165] Memory required for data: 31974800
I0210 06:38:00.271713 28792 layer_factory.hpp:77] Creating layer ip2
I0210 06:38:00.271721 28792 net.cpp:106] Creating Layer ip2
I0210 06:38:00.271725 28792 net.cpp:454] ip2 <- ip1
I0210 06:38:00.271735 28792 net.cpp:411] ip2 -> ip2
I0210 06:38:00.272507 28792 net.cpp:150] Setting up ip2
I0210 06:38:00.272526 28792 net.cpp:157] Top shape: 100 100 (10000)
I0210 06:38:00.272531 28792 net.cpp:165] Memory required for data: 32014800
I0210 06:38:00.272542 28792 layer_factory.hpp:77] Creating layer loss
I0210 06:38:00.272557 28792 net.cpp:106] Creating Layer loss
I0210 06:38:00.272564 28792 net.cpp:454] loss <- ip2
I0210 06:38:00.272570 28792 net.cpp:454] loss <- label
I0210 06:38:00.272578 28792 net.cpp:411] loss -> loss
I0210 06:38:00.272594 28792 layer_factory.hpp:77] Creating layer loss
…
I0210 06:38:00.273277 28792 solver.cpp:181] Creating test net (#0) specified by net file: examples/cifar100/cifar100_quick_train_test.prototxt
I0210 06:38:00.273322 28792 net.cpp:322] The NetState phase (1) differed from the phase (0) specified by a rule in layer cifar
I0210 06:38:00.273469 28792 net.cpp:49] Initializing net from parameters: 
name: "CIFAR100_quick"
state {
  phase: TEST
}
layer {
  name: "cifar"
  type: "Data"
  top: "data"
  top: "label"
  include {
    phase: TEST
  }
  data_param {
    source: "examples/cifar100/cifar100_test_lmdb"
    batch_size: 100
    backend: LMDB
  }
}
layer {
  name: "conv1"
  type: "Convolution"
  bottom: "data"
  top: "conv1"
  param {
    lr_mult: 1
  }
  param {
    lr_mult: 2
  }
  convolution_param {
    num_output: 32
    pad: 2
    kernel_size: 5
    stride: 1
    weight_filler {
      type: "gaussian"
      std: 0.0001
    }
    bias_filler {
      type: "constant"
    }
  }
}
layer {
  name: "pool1"
  type: "Pooling"
  bottom: "conv1"
  top: "pool1"
  pooling_param {
    pool: MAX
    kernel_size: 3
    stride: 2
  }
}
layer {
  name: "relu1"
  type: "ReLU"
  bottom: "pool1"
  top: "pool1"
}
layer {
  name: "conv2"
  type: "Convolution"
  bottom: "pool1"
  top: "conv2"
  param {
    lr_mult: 1
  }
  param {
    lr_mult: 2
  }
  convolution_param {
    num_output: 32
    pad: 2
    kernel_size: 5
    stride: 1
    weight_filler {
      type: "gaussian"
      std: 0.01
    }
    bias_filler {
      type: "constant"
    }
  }
}
layer {
  name: "relu2"
  type: "ReLU"
  bottom: "conv2"
  top: "conv2"
}
layer {
  name: "pool2"
  type: "Pooling"
  bottom: "conv2"
  top: "pool2"
  pooling_param {
    pool: AVE
    kernel_size: 3
    stride: 2
  }
}
layer {
  name: "conv3"
  type: "Convolution"
  bottom: "pool2"
  top: "conv3"
  param {
    lr_mult: 1
  }
  param {
    lr_mult: 2
  }
  convolution_param {
    num_output: 64
    pad: 2
    kernel_size: 5
    stride: 1
    weight_filler {
      type: "gaussian"
      std: 0.01
    }
    bias_filler {
      type: "constant"
    }
  }
}
layer {
  name: "relu3"
  type: "ReLU"
  bottom: "conv3"
  top: "conv3"
}
layer {
  name: "pool3"
  type: "Pooling"
  bottom: "conv3"
  top: "pool3"
  pooling_param {
    pool: AVE
    kernel_size: 3
    stride: 2
  }
}
layer {
  name: "ip1"
  type: "InnerProduct"
  bottom: "pool3"
  top: "ip1"
  param {
    lr_mult: 1
  }
  param {
    lr_mult: 2
  }
  inner_product_param {
    num_output: 64
    weight_filler {
      type: "gaussian"
      std: 0.1
    }
    bias_filler {
      type: "constant"
    }
  }
}
layer {
  name: "ip2"
  type: "InnerProduct"
  bottom: "ip1"
  top: "ip2"
  param {
    lr_mult: 1
  }
  param {
    lr_mult: 2
  }
  inner_product_param {
    num_output: 100
    weight_filler {
      type: "gaussian"
      std: 0.1
    }
    bias_filler {
      type: "constant"
    }
  }
}
layer {
  name: "accuracy"
  type: "Accuracy"
  bottom: "ip2"
  bottom: "label"
  top: "accuracy"
  include {
    phase: TEST
  }
}
layer {
  name: "loss"
  type: "SoftmaxWithLoss"
  bottom: "ip2"
  bottom: "label"
  top: "loss"
}
I0210 06:38:00.273581 28792 layer_factory.hpp:77] Creating layer cifar
I0210 06:38:00.273705 28792 net.cpp:106] Creating Layer cifar
I0210 06:38:00.273740 28792 net.cpp:411] cifar -> data
I0210 06:38:00.273753 28792 net.cpp:411] cifar -> label
I0210 06:38:00.274482 28800 db_lmdb.cpp:38] Opened lmdb examples/cifar100/cifar100_test_lmdb
I0210 06:38:00.274606 28792 data_layer.cpp:41] output data size: 100,3,32,32
I0210 06:38:00.277390 28792 net.cpp:150] Setting up cifar
I0210 06:38:00.277410 28792 net.cpp:157] Top shape: 100 3 32 32 (307200)
I0210 06:38:00.277417 28792 net.cpp:157] Top shape: 100 (100)
I0210 06:38:00.277422 28792 net.cpp:165] Memory required for data: 1229200
I0210 06:38:00.277427 28792 layer_factory.hpp:77] Creating layer label_cifar_1_split
I0210 06:38:00.277458 28792 net.cpp:106] Creating Layer label_cifar_1_split
I0210 06:38:00.277467 28792 net.cpp:454] label_cifar_1_split <- label
I0210 06:38:00.277534 28792 net.cpp:411] label_cifar_1_split -> label_cifar_1_split_0
I0210 06:38:00.277552 28792 net.cpp:411] label_cifar_1_split -> label_cifar_1_split_1
I0210 06:38:00.277691 28792 net.cpp:150] Setting up label_cifar_1_split
I0210 06:38:00.277709 28792 net.cpp:157] Top shape: 100 (100)
I0210 06:38:00.277714 28792 net.cpp:157] Top shape: 100 (100)
I0210 06:38:00.277719 28792 net.cpp:165] Memory required for data: 1230000
I0210 06:38:00.277724 28792 layer_factory.hpp:77] Creating layer conv1
I0210 06:38:00.277739 28792 net.cpp:106] Creating Layer conv1
I0210 06:38:00.277743 28792 net.cpp:454] conv1 <- data
I0210 06:38:00.277750 28792 net.cpp:411] conv1 -> conv1
I0210 06:38:00.278065 28792 net.cpp:150] Setting up conv1
I0210 06:38:00.278082 28792 net.cpp:157] Top shape: 100 32 32 32 (3276800)
I0210 06:38:00.278087 28792 net.cpp:165] Memory required for data: 14337200
I0210 06:38:00.278100 28792 layer_factory.hpp:77] Creating layer pool1
I0210 06:38:00.278110 28792 net.cpp:106] Creating Layer pool1
I0210 06:38:00.278115 28792 net.cpp:454] pool1 <- conv1
I0210 06:38:00.278120 28792 net.cpp:411] pool1 -> pool1
I0210 06:38:00.278167 28792 net.cpp:150] Setting up pool1
I0210 06:38:00.278182 28792 net.cpp:157] Top shape: 100 32 16 16 (819200)
I0210 06:38:00.278187 28792 net.cpp:165] Memory required for data: 17614000
I0210 06:38:00.278197 28792 layer_factory.hpp:77] Creating layer relu1
I0210 06:38:00.278204 28792 net.cpp:106] Creating Layer relu1
I0210 06:38:00.278223 28792 net.cpp:454] relu1 <- pool1
I0210 06:38:00.278233 28792 net.cpp:397] relu1 -> pool1 (in-place)
I0210 06:38:00.278241 28792 net.cpp:150] Setting up relu1
I0210 06:38:00.278247 28792 net.cpp:157] Top shape: 100 32 16 16 (819200)
I0210 06:38:00.278251 28792 net.cpp:165] Memory required for data: 20890800
I0210 06:38:00.278256 28792 layer_factory.hpp:77] Creating layer conv2
I0210 06:38:00.278290 28792 net.cpp:106] Creating Layer conv2
I0210 06:38:00.278304 28792 net.cpp:454] conv2 <- pool1
I0210 06:38:00.278313 28792 net.cpp:411] conv2 -> conv2
I0210 06:38:00.279449 28792 net.cpp:150] Setting up conv2
I0210 06:38:00.279466 28792 net.cpp:157] Top shape: 100 32 16 16 (819200)
I0210 06:38:00.279472 28792 net.cpp:165] Memory required for data: 24167600
I0210 06:38:00.279485 28792 layer_factory.hpp:77] Creating layer relu2
I0210 06:38:00.279496 28792 net.cpp:106] Creating Layer relu2
I0210 06:38:00.279501 28792 net.cpp:454] relu2 <- conv2
I0210 06:38:00.279507 28792 net.cpp:397] relu2 -> conv2 (in-place)
I0210 06:38:00.279515 28792 net.cpp:150] Setting up relu2
I0210 06:38:00.279521 28792 net.cpp:157] Top shape: 100 32 16 16 (819200)
I0210 06:38:00.279525 28792 net.cpp:165] Memory required for data: 27444400
I0210 06:38:00.279530 28792 layer_factory.hpp:77] Creating layer pool2
I0210 06:38:00.279538 28792 net.cpp:106] Creating Layer pool2
I0210 06:38:00.279542 28792 net.cpp:454] pool2 <- conv2
I0210 06:38:00.279549 28792 net.cpp:411] pool2 -> pool2
I0210 06:38:00.279570 28792 net.cpp:150] Setting up pool2
I0210 06:38:00.279577 28792 net.cpp:157] Top shape: 100 32 8 8 (204800)
I0210 06:38:00.279582 28792 net.cpp:165] Memory required for data: 28263600
I0210 06:38:00.279587 28792 layer_factory.hpp:77] Creating layer conv3
I0210 06:38:00.279603 28792 net.cpp:106] Creating Layer conv3
I0210 06:38:00.279608 28792 net.cpp:454] conv3 <- pool2
I0210 06:38:00.279615 28792 net.cpp:411] conv3 -> conv3
I0210 06:38:00.281436 28792 net.cpp:150] Setting up conv3
I0210 06:38:00.281455 28792 net.cpp:157] Top shape: 100 64 8 8 (409600)
I0210 06:38:00.281460 28792 net.cpp:165] Memory required for data: 29902000
I0210 06:38:00.281469 28792 layer_factory.hpp:77] Creating layer relu3
I0210 06:38:00.281479 28792 net.cpp:106] Creating Layer relu3
I0210 06:38:00.281484 28792 net.cpp:454] relu3 <- conv3
I0210 06:38:00.281491 28792 net.cpp:397] relu3 -> conv3 (in-place)
I0210 06:38:00.281497 28792 net.cpp:150] Setting up relu3
I0210 06:38:00.281503 28792 net.cpp:157] Top shape: 100 64 8 8 (409600)
I0210 06:38:00.281507 28792 net.cpp:165] Memory required for data: 31540400
I0210 06:38:00.281512 28792 layer_factory.hpp:77] Creating layer pool3
I0210 06:38:00.281518 28792 net.cpp:106] Creating Layer pool3
I0210 06:38:00.281522 28792 net.cpp:454] pool3 <- conv3
I0210 06:38:00.281530 28792 net.cpp:411] pool3 -> pool3
I0210 06:38:00.281555 28792 net.cpp:150] Setting up pool3
I0210 06:38:00.281565 28792 net.cpp:157] Top shape: 100 64 4 4 (102400)
I0210 06:38:00.281570 28792 net.cpp:165] Memory required for data: 31950000
I0210 06:38:00.281575 28792 layer_factory.hpp:77] Creating layer ip1
I0210 06:38:00.281584 28792 net.cpp:106] Creating Layer ip1
I0210 06:38:00.281590 28792 net.cpp:454] ip1 <- pool3
I0210 06:38:00.281600 28792 net.cpp:411] ip1 -> ip1
I0210 06:38:00.284472 28792 net.cpp:150] Setting up ip1
I0210 06:38:00.284492 28792 net.cpp:157] Top shape: 100 64 (6400)
I0210 06:38:00.284497 28792 net.cpp:165] Memory required for data: 31975600
I0210 06:38:00.284505 28792 layer_factory.hpp:77] Creating layer ip2
I0210 06:38:00.284518 28792 net.cpp:106] Creating Layer ip2
I0210 06:38:00.284523 28792 net.cpp:454] ip2 <- ip1
I0210 06:38:00.284529 28792 net.cpp:411] ip2 -> ip2
I0210 06:38:00.284832 28792 net.cpp:150] Setting up ip2
I0210 06:38:00.284847 28792 net.cpp:157] Top shape: 100 100 (10000)
I0210 06:38:00.284852 28792 net.cpp:165] Memory required for data: 32015600
I0210 06:38:00.284865 28792 layer_factory.hpp:77] Creating layer ip2_ip2_0_split
I0210 06:38:00.284875 28792 net.cpp:106] Creating Layer ip2_ip2_0_split
I0210 06:38:00.284899 28792 net.cpp:454] ip2_ip2_0_split <- ip2
I0210 06:38:00.284907 28792 net.cpp:411] ip2_ip2_0_split -> ip2_ip2_0_split_0
I0210 06:38:00.284916 28792 net.cpp:411] ip2_ip2_0_split -> ip2_ip2_0_split_1
I0210 06:38:00.284957 28792 net.cpp:150] Setting up ip2_ip2_0_split
I0210 06:38:00.284972 28792 net.cpp:157] Top shape: 100 100 (10000)
I0210 06:38:00.284978 28792 net.cpp:157] Top shape: 100 100 (10000)
I0210 06:38:00.284982 28792 net.cpp:165] Memory required for data: 32095600
I0210 06:38:00.284989 28792 layer_factory.hpp:77] Creating layer accuracy
I0210 06:38:00.285002 28792 net.cpp:106] Creating Layer accuracy
I0210 06:38:00.285014 28792 net.cpp:454] accuracy <- ip2_ip2_0_split_0
I0210 06:38:00.285022 28792 net.cpp:454] accuracy <- label_cifar_1_split_0
I0210 06:38:00.285027 28792 net.cpp:411] accuracy -> accuracy
…
