…
I0212 06:38:38.480386  8003 net.cpp:322] The NetState phase (0) differed from the phase (1) specified by a rule in layer cifar
I0212 06:38:38.480419  8003 net.cpp:322] The NetState phase (0) differed from the phase (1) specified by a rule in layer accuracy
I0212 06:38:38.480550  8003 net.cpp:49] Initializing net from parameters: 
name: "CIFAR100_quick"
state {
  phase: TRAIN
}
layer {
  name: "cifar"
  type: "Data"
  top: "data"
  top: "label"
  include {
    phase: TRAIN
  }
  data_param {
    source: "examples/cifar100/cifar100_train_lmdb"
    batch_size: 100
    backend: LMDB
  }
}
layer {
  name: "conv1"
  type: "Convolution"
  bottom: "data"
  top: "conv1"
  param {
    lr_mult: 1
  }
  param {
    lr_mult: 2
  }
  convolution_param {
    num_output: 32
    pad: 2
    kernel_size: 5
    stride: 1
    weight_filler {
      type: "gaussian"
      std: 0.0001
    }
    bias_filler {
      type: "constant"
    }
  }
}
layer {
  name: "pool1"
  type: "Pooling"
  bottom: "conv1"
  top: "pool1"
  pooling_param {
    pool: MAX
    kernel_size: 3
    stride: 2
  }
}
layer {
  name: "relu1"
  type: "ReLU"
  bottom: "pool1"
  top: "pool1"
}
layer {
  name: "conv2"
  type: "Convolution"
  bottom: "pool1"
  top: "conv2"
  param {
    lr_mult: 1
  }
  param {
    lr_mult: 2
  }
  convolution_param {
    num_output: 32
    pad: 2
    kernel_size: 5
    stride: 1
    weight_filler {
      type: "gaussian"
      std: 0.01
    }
    bias_filler {
      type: "constant"
    }
  }
}
layer {
  name: "relu2"
  type: "ReLU"
  bottom: "conv2"
  top: "conv2"
}
layer {
  name: "pool2"
  type: "Pooling"
  bottom: "conv2"
  top: "pool2"
  pooling_param {
    pool: AVE
    kernel_size: 3
    stride: 2
  }
}
layer {
  name: "conv3"
  type: "Convolution"
  bottom: "pool2"
  top: "conv3"
  param {
    lr_mult: 1
  }
  param {
    lr_mult: 2
  }
  convolution_param {
    num_output: 64
    pad: 2
    kernel_size: 5
    stride: 1
    weight_filler {
      type: "gaussian"
      std: 0.01
    }
    bias_filler {
      type: "constant"
    }
  }
}
layer {
  name: "relu3"
  type: "ReLU"
  bottom: "conv3"
  top: "conv3"
}
layer {
  name: "pool3"
  type: "Pooling"
  bottom: "conv3"
  top: "pool3"
  pooling_param {
    pool: AVE
    kernel_size: 3
    stride: 2
  }
}
layer {
  name: "ip1"
  type: "InnerProduct"
  bottom: "pool3"
  top: "ip1"
  param {
    lr_mult: 1
  }
  param {
    lr_mult: 2
  }
  inner_product_param {
    num_output: 64
    weight_filler {
      type: "gaussian"
      std: 0.1
    }
    bias_filler {
      type: "constant"
    }
  }
}
layer {
  name: "ip2"
  type: "InnerProduct"
  bottom: "ip1"
  top: "ip2"
  param {
    lr_mult: 1
  }
  param {
    lr_mult: 2
  }
  inner_product_param {
    num_output: 100
    weight_filler {
      type: "gaussian"
      std: 0.1
    }
    bias_filler {
      type: "constant"
    }
  }
}
layer {
  name: "loss"
  type: "SoftmaxWithLoss"
  bottom: "ip2"
  bottom: "label"
  top: "loss"
}
I0212 06:38:38.480656  8003 layer_factory.hpp:77] Creating layer cifar
I0212 06:38:38.481174  8003 net.cpp:106] Creating Layer cifar
I0212 06:38:38.481230  8003 net.cpp:411] cifar -> data
I0212 06:38:38.481264  8003 net.cpp:411] cifar -> label
I0212 06:38:38.481889  8009 db_lmdb.cpp:38] Opened lmdb examples/cifar100/cifar100_train_lmdb
I0212 06:38:38.492640  8003 data_layer.cpp:41] output data size: 100,3,32,32
I0212 06:38:38.495326  8003 net.cpp:150] Setting up cifar
I0212 06:38:38.495373  8003 net.cpp:157] Top shape: 100 3 32 32 (307200)
I0212 06:38:38.495414  8003 net.cpp:157] Top shape: 100 (100)
I0212 06:38:38.495420  8003 net.cpp:165] Memory required for data: 1229200
I0212 06:38:38.495430  8003 layer_factory.hpp:77] Creating layer conv1
I0212 06:38:38.495460  8003 net.cpp:106] Creating Layer conv1
I0212 06:38:38.495467  8003 net.cpp:454] conv1 <- data
I0212 06:38:38.495484  8003 net.cpp:411] conv1 -> conv1
I0212 06:38:38.496881  8003 net.cpp:150] Setting up conv1
I0212 06:38:38.496901  8003 net.cpp:157] Top shape: 100 32 32 32 (3276800)
I0212 06:38:38.496906  8003 net.cpp:165] Memory required for data: 14336400
I0212 06:38:38.496927  8003 layer_factory.hpp:77] Creating layer pool1
I0212 06:38:38.496940  8003 net.cpp:106] Creating Layer pool1
I0212 06:38:38.496947  8003 net.cpp:454] pool1 <- conv1
I0212 06:38:38.496953  8003 net.cpp:411] pool1 -> pool1
I0212 06:38:38.497107  8003 net.cpp:150] Setting up pool1
I0212 06:38:38.497123  8003 net.cpp:157] Top shape: 100 32 16 16 (819200)
I0212 06:38:38.497128  8003 net.cpp:165] Memory required for data: 17613200
I0212 06:38:38.497133  8003 layer_factory.hpp:77] Creating layer relu1
I0212 06:38:38.497141  8003 net.cpp:106] Creating Layer relu1
I0212 06:38:38.497146  8003 net.cpp:454] relu1 <- pool1
I0212 06:38:38.497153  8003 net.cpp:397] relu1 -> pool1 (in-place)
I0212 06:38:38.497164  8003 net.cpp:150] Setting up relu1
I0212 06:38:38.497171  8003 net.cpp:157] Top shape: 100 32 16 16 (819200)
I0212 06:38:38.497175  8003 net.cpp:165] Memory required for data: 20890000
I0212 06:38:38.497180  8003 layer_factory.hpp:77] Creating layer conv2
I0212 06:38:38.497194  8003 net.cpp:106] Creating Layer conv2
I0212 06:38:38.497200  8003 net.cpp:454] conv2 <- pool1
I0212 06:38:38.497208  8003 net.cpp:411] conv2 -> conv2
I0212 06:38:38.498836  8003 net.cpp:150] Setting up conv2
I0212 06:38:38.498857  8003 net.cpp:157] Top shape: 100 32 16 16 (819200)
I0212 06:38:38.498862  8003 net.cpp:165] Memory required for data: 24166800
I0212 06:38:38.498873  8003 layer_factory.hpp:77] Creating layer relu2
I0212 06:38:38.498883  8003 net.cpp:106] Creating Layer relu2
I0212 06:38:38.498888  8003 net.cpp:454] relu2 <- conv2
I0212 06:38:38.498895  8003 net.cpp:397] relu2 -> conv2 (in-place)
I0212 06:38:38.498903  8003 net.cpp:150] Setting up relu2
I0212 06:38:38.498909  8003 net.cpp:157] Top shape: 100 32 16 16 (819200)
I0212 06:38:38.498914  8003 net.cpp:165] Memory required for data: 27443600
I0212 06:38:38.498919  8003 layer_factory.hpp:77] Creating layer pool2
I0212 06:38:38.498925  8003 net.cpp:106] Creating Layer pool2
I0212 06:38:38.498930  8003 net.cpp:454] pool2 <- conv2
I0212 06:38:38.498939  8003 net.cpp:411] pool2 -> pool2
I0212 06:38:38.498962  8003 net.cpp:150] Setting up pool2
I0212 06:38:38.498970  8003 net.cpp:157] Top shape: 100 32 8 8 (204800)
I0212 06:38:38.498973  8003 net.cpp:165] Memory required for data: 28262800
I0212 06:38:38.498978  8003 layer_factory.hpp:77] Creating layer conv3
I0212 06:38:38.498991  8003 net.cpp:106] Creating Layer conv3
I0212 06:38:38.498996  8003 net.cpp:454] conv3 <- pool2
I0212 06:38:38.499004  8003 net.cpp:411] conv3 -> conv3
I0212 06:38:38.500849  8003 net.cpp:150] Setting up conv3
I0212 06:38:38.500869  8003 net.cpp:157] Top shape: 100 64 8 8 (409600)
I0212 06:38:38.500874  8003 net.cpp:165] Memory required for data: 29901200
I0212 06:38:38.500885  8003 layer_factory.hpp:77] Creating layer relu3
I0212 06:38:38.500893  8003 net.cpp:106] Creating Layer relu3
I0212 06:38:38.500900  8003 net.cpp:454] relu3 <- conv3
I0212 06:38:38.500905  8003 net.cpp:397] relu3 -> conv3 (in-place)
I0212 06:38:38.500915  8003 net.cpp:150] Setting up relu3
I0212 06:38:38.500921  8003 net.cpp:157] Top shape: 100 64 8 8 (409600)
I0212 06:38:38.500924  8003 net.cpp:165] Memory required for data: 31539600
I0212 06:38:38.500928  8003 layer_factory.hpp:77] Creating layer pool3
I0212 06:38:38.500937  8003 net.cpp:106] Creating Layer pool3
I0212 06:38:38.500941  8003 net.cpp:454] pool3 <- conv3
I0212 06:38:38.500948  8003 net.cpp:411] pool3 -> pool3
I0212 06:38:38.500974  8003 net.cpp:150] Setting up pool3
I0212 06:38:38.500996  8003 net.cpp:157] Top shape: 100 64 4 4 (102400)
I0212 06:38:38.501000  8003 net.cpp:165] Memory required for data: 31949200
I0212 06:38:38.501006  8003 layer_factory.hpp:77] Creating layer ip1
I0212 06:38:38.501021  8003 net.cpp:106] Creating Layer ip1
I0212 06:38:38.501026  8003 net.cpp:454] ip1 <- pool3
I0212 06:38:38.501034  8003 net.cpp:411] ip1 -> ip1
I0212 06:38:38.503231  8003 net.cpp:150] Setting up ip1
I0212 06:38:38.503248  8003 net.cpp:157] Top shape: 100 64 (6400)
I0212 06:38:38.503254  8003 net.cpp:165] Memory required for data: 31974800
I0212 06:38:38.503262  8003 layer_factory.hpp:77] Creating layer ip2
I0212 06:38:38.503273  8003 net.cpp:106] Creating Layer ip2
I0212 06:38:38.503278  8003 net.cpp:454] ip2 <- ip1
I0212 06:38:38.503285  8003 net.cpp:411] ip2 -> ip2
I0212 06:38:38.504061  8003 net.cpp:150] Setting up ip2
I0212 06:38:38.504081  8003 net.cpp:157] Top shape: 100 100 (10000)
I0212 06:38:38.504086  8003 net.cpp:165] Memory required for data: 32014800
I0212 06:38:38.504097  8003 layer_factory.hpp:77] Creating layer loss
I0212 06:38:38.504108  8003 net.cpp:106] Creating Layer loss
I0212 06:38:38.504112  8003 net.cpp:454] loss <- ip2
I0212 06:38:38.504118  8003 net.cpp:454] loss <- label
I0212 06:38:38.504127  8003 net.cpp:411] loss -> loss
I0212 06:38:38.504143  8003 layer_factory.hpp:77] Creating layer loss
…
I0212 06:38:38.504815  8003 solver.cpp:181] Creating test net (#0) specified by net file: examples/cifar100/cifar100_quick_train_test.prototxt
I0212 06:38:38.504863  8003 net.cpp:322] The NetState phase (1) differed from the phase (0) specified by a rule in layer cifar
I0212 06:38:38.505002  8003 net.cpp:49] Initializing net from parameters: 
name: "CIFAR100_quick"
state {
  phase: TEST
}
layer {
  name: "cifar"
  type: "Data"
  top: "data"
  top: "label"
  include {
    phase: TEST
  }
  data_param {
    source: "examples/cifar100/cifar100_test_lmdb"
    batch_size: 100
    backend: LMDB
  }
}
layer {
  name: "conv1"
  type: "Convolution"
  bottom: "data"
  top: "conv1"
  param {
    lr_mult: 1
  }
  param {
    lr_mult: 2
  }
  convolution_param {
    num_output: 32
    pad: 2
    kernel_size: 5
    stride: 1
    weight_filler {
      type: "gaussian"
      std: 0.0001
    }
    bias_filler {
      type: "constant"
    }
  }
}
layer {
  name: "pool1"
  type: "Pooling"
  bottom: "conv1"
  top: "pool1"
  pooling_param {
    pool: MAX
    kernel_size: 3
    stride: 2
  }
}
layer {
  name: "relu1"
  type: "ReLU"
  bottom: "pool1"
  top: "pool1"
}
layer {
  name: "conv2"
  type: "Convolution"
  bottom: "pool1"
  top: "conv2"
  param {
    lr_mult: 1
  }
  param {
    lr_mult: 2
  }
  convolution_param {
    num_output: 32
    pad: 2
    kernel_size: 5
    stride: 1
    weight_filler {
      type: "gaussian"
      std: 0.01
    }
    bias_filler {
      type: "constant"
    }
  }
}
layer {
  name: "relu2"
  type: "ReLU"
  bottom: "conv2"
  top: "conv2"
}
layer {
  name: "pool2"
  type: "Pooling"
  bottom: "conv2"
  top: "pool2"
  pooling_param {
    pool: AVE
    kernel_size: 3
    stride: 2
  }
}
layer {
  name: "conv3"
  type: "Convolution"
  bottom: "pool2"
  top: "conv3"
  param {
    lr_mult: 1
  }
  param {
    lr_mult: 2
  }
  convolution_param {
    num_output: 64
    pad: 2
    kernel_size: 5
    stride: 1
    weight_filler {
      type: "gaussian"
      std: 0.01
    }
    bias_filler {
      type: "constant"
    }
  }
}
layer {
  name: "relu3"
  type: "ReLU"
  bottom: "conv3"
  top: "conv3"
}
layer {
  name: "pool3"
  type: "Pooling"
  bottom: "conv3"
  top: "pool3"
  pooling_param {
    pool: AVE
    kernel_size: 3
    stride: 2
  }
}
layer {
  name: "ip1"
  type: "InnerProduct"
  bottom: "pool3"
  top: "ip1"
  param {
    lr_mult: 1
  }
  param {
    lr_mult: 2
  }
  inner_product_param {
    num_output: 64
    weight_filler {
      type: "gaussian"
      std: 0.1
    }
    bias_filler {
      type: "constant"
    }
  }
}
layer {
  name: "ip2"
  type: "InnerProduct"
  bottom: "ip1"
  top: "ip2"
  param {
    lr_mult: 1
  }
  param {
    lr_mult: 2
  }
  inner_product_param {
    num_output: 100
    weight_filler {
      type: "gaussian"
      std: 0.1
    }
    bias_filler {
      type: "constant"
    }
  }
}
layer {
  name: "accuracy"
  type: "Accuracy"
  bottom: "ip2"
  bottom: "label"
  top: "accuracy"
  include {
    phase: TEST
  }
}
layer {
  name: "loss"
  type: "SoftmaxWithLoss"
  bottom: "ip2"
  bottom: "label"
  top: "loss"
}
I0212 06:38:38.505117  8003 layer_factory.hpp:77] Creating layer cifar
I0212 06:38:38.505235  8003 net.cpp:106] Creating Layer cifar
I0212 06:38:38.505245  8003 net.cpp:411] cifar -> data
I0212 06:38:38.505255  8003 net.cpp:411] cifar -> label
I0212 06:38:38.505848  8011 db_lmdb.cpp:38] Opened lmdb examples/cifar100/cifar100_test_lmdb
I0212 06:38:38.505996  8003 data_layer.cpp:41] output data size: 100,3,32,32
I0212 06:38:38.508851  8003 net.cpp:150] Setting up cifar
I0212 06:38:38.508875  8003 net.cpp:157] Top shape: 100 3 32 32 (307200)
I0212 06:38:38.508883  8003 net.cpp:157] Top shape: 100 (100)
I0212 06:38:38.508888  8003 net.cpp:165] Memory required for data: 1229200
I0212 06:38:38.508893  8003 layer_factory.hpp:77] Creating layer label_cifar_1_split
I0212 06:38:38.508922  8003 net.cpp:106] Creating Layer label_cifar_1_split
I0212 06:38:38.508929  8003 net.cpp:454] label_cifar_1_split <- label
I0212 06:38:38.508936  8003 net.cpp:411] label_cifar_1_split -> label_cifar_1_split_0
I0212 06:38:38.508945  8003 net.cpp:411] label_cifar_1_split -> label_cifar_1_split_1
I0212 06:38:38.509001  8003 net.cpp:150] Setting up label_cifar_1_split
I0212 06:38:38.509016  8003 net.cpp:157] Top shape: 100 (100)
I0212 06:38:38.509022  8003 net.cpp:157] Top shape: 100 (100)
I0212 06:38:38.509027  8003 net.cpp:165] Memory required for data: 1230000
I0212 06:38:38.509032  8003 layer_factory.hpp:77] Creating layer conv1
I0212 06:38:38.509047  8003 net.cpp:106] Creating Layer conv1
I0212 06:38:38.509054  8003 net.cpp:454] conv1 <- data
I0212 06:38:38.509063  8003 net.cpp:411] conv1 -> conv1
I0212 06:38:38.509481  8003 net.cpp:150] Setting up conv1
I0212 06:38:38.509500  8003 net.cpp:157] Top shape: 100 32 32 32 (3276800)
I0212 06:38:38.509505  8003 net.cpp:165] Memory required for data: 14337200
I0212 06:38:38.509517  8003 layer_factory.hpp:77] Creating layer pool1
I0212 06:38:38.509528  8003 net.cpp:106] Creating Layer pool1
I0212 06:38:38.509533  8003 net.cpp:454] pool1 <- conv1
I0212 06:38:38.509541  8003 net.cpp:411] pool1 -> pool1
I0212 06:38:38.509580  8003 net.cpp:150] Setting up pool1
I0212 06:38:38.509595  8003 net.cpp:157] Top shape: 100 32 16 16 (819200)
I0212 06:38:38.509600  8003 net.cpp:165] Memory required for data: 17614000
I0212 06:38:38.509604  8003 layer_factory.hpp:77] Creating layer relu1
I0212 06:38:38.509614  8003 net.cpp:106] Creating Layer relu1
I0212 06:38:38.509634  8003 net.cpp:454] relu1 <- pool1
I0212 06:38:38.509641  8003 net.cpp:397] relu1 -> pool1 (in-place)
I0212 06:38:38.509649  8003 net.cpp:150] Setting up relu1
I0212 06:38:38.509655  8003 net.cpp:157] Top shape: 100 32 16 16 (819200)
I0212 06:38:38.509660  8003 net.cpp:165] Memory required for data: 20890800
I0212 06:38:38.509665  8003 layer_factory.hpp:77] Creating layer conv2
I0212 06:38:38.509676  8003 net.cpp:106] Creating Layer conv2
I0212 06:38:38.509685  8003 net.cpp:454] conv2 <- pool1
I0212 06:38:38.509693  8003 net.cpp:411] conv2 -> conv2
I0212 06:38:38.510773  8003 net.cpp:150] Setting up conv2
I0212 06:38:38.510793  8003 net.cpp:157] Top shape: 100 32 16 16 (819200)
I0212 06:38:38.510798  8003 net.cpp:165] Memory required for data: 24167600
I0212 06:38:38.510809  8003 layer_factory.hpp:77] Creating layer relu2
I0212 06:38:38.510823  8003 net.cpp:106] Creating Layer relu2
I0212 06:38:38.510828  8003 net.cpp:454] relu2 <- conv2
I0212 06:38:38.510834  8003 net.cpp:397] relu2 -> conv2 (in-place)
I0212 06:38:38.510843  8003 net.cpp:150] Setting up relu2
I0212 06:38:38.510848  8003 net.cpp:157] Top shape: 100 32 16 16 (819200)
I0212 06:38:38.510854  8003 net.cpp:165] Memory required for data: 27444400
I0212 06:38:38.510857  8003 layer_factory.hpp:77] Creating layer pool2
I0212 06:38:38.510865  8003 net.cpp:106] Creating Layer pool2
I0212 06:38:38.510870  8003 net.cpp:454] pool2 <- conv2
I0212 06:38:38.510876  8003 net.cpp:411] pool2 -> pool2
I0212 06:38:38.510898  8003 net.cpp:150] Setting up pool2
I0212 06:38:38.510906  8003 net.cpp:157] Top shape: 100 32 8 8 (204800)
I0212 06:38:38.510910  8003 net.cpp:165] Memory required for data: 28263600
I0212 06:38:38.510915  8003 layer_factory.hpp:77] Creating layer conv3
I0212 06:38:38.510929  8003 net.cpp:106] Creating Layer conv3
I0212 06:38:38.510934  8003 net.cpp:454] conv3 <- pool2
I0212 06:38:38.510941  8003 net.cpp:411] conv3 -> conv3
I0212 06:38:38.512765  8003 net.cpp:150] Setting up conv3
I0212 06:38:38.512787  8003 net.cpp:157] Top shape: 100 64 8 8 (409600)
I0212 06:38:38.512794  8003 net.cpp:165] Memory required for data: 29902000
I0212 06:38:38.512804  8003 layer_factory.hpp:77] Creating layer relu3
I0212 06:38:38.512815  8003 net.cpp:106] Creating Layer relu3
I0212 06:38:38.512820  8003 net.cpp:454] relu3 <- conv3
I0212 06:38:38.512827  8003 net.cpp:397] relu3 -> conv3 (in-place)
I0212 06:38:38.512836  8003 net.cpp:150] Setting up relu3
I0212 06:38:38.512843  8003 net.cpp:157] Top shape: 100 64 8 8 (409600)
I0212 06:38:38.512847  8003 net.cpp:165] Memory required for data: 31540400
I0212 06:38:38.512851  8003 layer_factory.hpp:77] Creating layer pool3
I0212 06:38:38.512857  8003 net.cpp:106] Creating Layer pool3
I0212 06:38:38.512862  8003 net.cpp:454] pool3 <- conv3
I0212 06:38:38.512867  8003 net.cpp:411] pool3 -> pool3
I0212 06:38:38.512897  8003 net.cpp:150] Setting up pool3
I0212 06:38:38.512905  8003 net.cpp:157] Top shape: 100 64 4 4 (102400)
I0212 06:38:38.512909  8003 net.cpp:165] Memory required for data: 31950000
I0212 06:38:38.512917  8003 layer_factory.hpp:77] Creating layer ip1
I0212 06:38:38.512926  8003 net.cpp:106] Creating Layer ip1
I0212 06:38:38.512931  8003 net.cpp:454] ip1 <- pool3
I0212 06:38:38.512938  8003 net.cpp:411] ip1 -> ip1
I0212 06:38:38.515610  8003 net.cpp:150] Setting up ip1
I0212 06:38:38.515635  8003 net.cpp:157] Top shape: 100 64 (6400)
I0212 06:38:38.515640  8003 net.cpp:165] Memory required for data: 31975600
I0212 06:38:38.515648  8003 layer_factory.hpp:77] Creating layer ip2
I0212 06:38:38.515657  8003 net.cpp:106] Creating Layer ip2
I0212 06:38:38.515662  8003 net.cpp:454] ip2 <- ip1
I0212 06:38:38.515672  8003 net.cpp:411] ip2 -> ip2
I0212 06:38:38.515974  8003 net.cpp:150] Setting up ip2
I0212 06:38:38.515990  8003 net.cpp:157] Top shape: 100 100 (10000)
I0212 06:38:38.515995  8003 net.cpp:165] Memory required for data: 32015600
I0212 06:38:38.516006  8003 layer_factory.hpp:77] Creating layer ip2_ip2_0_split
I0212 06:38:38.516013  8003 net.cpp:106] Creating Layer ip2_ip2_0_split
I0212 06:38:38.516031  8003 net.cpp:454] ip2_ip2_0_split <- ip2
I0212 06:38:38.516042  8003 net.cpp:411] ip2_ip2_0_split -> ip2_ip2_0_split_0
I0212 06:38:38.516052  8003 net.cpp:411] ip2_ip2_0_split -> ip2_ip2_0_split_1
I0212 06:38:38.516093  8003 net.cpp:150] Setting up ip2_ip2_0_split
I0212 06:38:38.516108  8003 net.cpp:157] Top shape: 100 100 (10000)
I0212 06:38:38.516113  8003 net.cpp:157] Top shape: 100 100 (10000)
I0212 06:38:38.516119  8003 net.cpp:165] Memory required for data: 32095600
I0212 06:38:38.516122  8003 layer_factory.hpp:77] Creating layer accuracy
I0212 06:38:38.516137  8003 net.cpp:106] Creating Layer accuracy
I0212 06:38:38.516142  8003 net.cpp:454] accuracy <- ip2_ip2_0_split_0
I0212 06:38:38.516149  8003 net.cpp:454] accuracy <- label_cifar_1_split_0
I0212 06:38:38.516156  8003 net.cpp:411] accuracy -> accuracy
…
