…
I0210 18:55:08.155591  1078 net.cpp:322] The NetState phase (0) differed from the phase (1) specified by a rule in layer cifar
I0210 18:55:08.155638  1078 net.cpp:322] The NetState phase (0) differed from the phase (1) specified by a rule in layer accuracy
I0210 18:55:08.155791  1078 net.cpp:49] Initializing net from parameters: 
name: "CIFAR100_quick"
state {
  phase: TRAIN
}
layer {
  name: "cifar"
  type: "Data"
  top: "data"
  top: "label"
  include {
    phase: TRAIN
  }
  data_param {
    source: "examples/cifar100/cifar100_train_lmdb"
    batch_size: 100
    backend: LMDB
  }
}
layer {
  name: "conv1"
  type: "Convolution"
  bottom: "data"
  top: "conv1"
  param {
    lr_mult: 1
  }
  param {
    lr_mult: 2
  }
  convolution_param {
    num_output: 32
    pad: 2
    kernel_size: 5
    stride: 1
    weight_filler {
      type: "gaussian"
      std: 0.0001
    }
    bias_filler {
      type: "constant"
    }
  }
}
layer {
  name: "pool1"
  type: "Pooling"
  bottom: "conv1"
  top: "pool1"
  pooling_param {
    pool: MAX
    kernel_size: 3
    stride: 2
  }
}
layer {
  name: "relu1"
  type: "ReLU"
  bottom: "pool1"
  top: "pool1"
}
layer {
  name: "conv2"
  type: "Convolution"
  bottom: "pool1"
  top: "conv2"
  param {
    lr_mult: 1
  }
  param {
    lr_mult: 2
  }
  convolution_param {
    num_output: 32
    pad: 2
    kernel_size: 5
    stride: 1
    weight_filler {
      type: "gaussian"
      std: 0.01
    }
    bias_filler {
      type: "constant"
    }
  }
}
layer {
  name: "relu2"
  type: "ReLU"
  bottom: "conv2"
  top: "conv2"
}
layer {
  name: "pool2"
  type: "Pooling"
  bottom: "conv2"
  top: "pool2"
  pooling_param {
    pool: AVE
    kernel_size: 3
    stride: 2
  }
}
layer {
  name: "conv3"
  type: "Convolution"
  bottom: "pool2"
  top: "conv3"
  param {
    lr_mult: 1
  }
  param {
    lr_mult: 2
  }
  convolution_param {
    num_output: 64
    pad: 2
    kernel_size: 5
    stride: 1
    weight_filler {
      type: "gaussian"
      std: 0.01
    }
    bias_filler {
      type: "constant"
    }
  }
}
layer {
  name: "relu3"
  type: "ReLU"
  bottom: "conv3"
  top: "conv3"
}
layer {
  name: "pool3"
  type: "Pooling"
  bottom: "conv3"
  top: "pool3"
  pooling_param {
    pool: AVE
    kernel_size: 3
    stride: 2
  }
}
layer {
  name: "ip1"
  type: "InnerProduct"
  bottom: "pool3"
  top: "ip1"
  param {
    lr_mult: 1
  }
  param {
    lr_mult: 2
  }
  inner_product_param {
    num_output: 64
    weight_filler {
      type: "gaussian"
      std: 0.1
    }
    bias_filler {
      type: "constant"
    }
  }
}
layer {
  name: "ip2"
  type: "InnerProduct"
  bottom: "ip1"
  top: "ip2"
  param {
    lr_mult: 1
  }
  param {
    lr_mult: 2
  }
  inner_product_param {
    num_output: 100
    weight_filler {
      type: "gaussian"
      std: 0.1
    }
    bias_filler {
      type: "constant"
    }
  }
}
layer {
  name: "loss"
  type: "SoftmaxWithLoss"
  bottom: "ip2"
  bottom: "label"
  top: "loss"
}
I0210 18:55:08.155932  1078 layer_factory.hpp:77] Creating layer cifar
I0210 18:55:08.156464  1078 net.cpp:106] Creating Layer cifar
I0210 18:55:08.156522  1078 net.cpp:411] cifar -> data
I0210 18:55:08.156565  1078 net.cpp:411] cifar -> label
I0210 18:55:08.157153  1082 db_lmdb.cpp:38] Opened lmdb examples/cifar100/cifar100_train_lmdb
I0210 18:55:08.204052  1078 data_layer.cpp:41] output data size: 100,3,32,32
I0210 18:55:08.213769  1078 net.cpp:150] Setting up cifar
I0210 18:55:08.213807  1078 net.cpp:157] Top shape: 100 3 32 32 (307200)
I0210 18:55:08.213847  1078 net.cpp:157] Top shape: 100 (100)
I0210 18:55:08.213856  1078 net.cpp:165] Memory required for data: 1229200
I0210 18:55:08.213876  1078 layer_factory.hpp:77] Creating layer conv1
I0210 18:55:08.213922  1078 net.cpp:106] Creating Layer conv1
I0210 18:55:08.213940  1078 net.cpp:454] conv1 <- data
I0210 18:55:08.213956  1078 net.cpp:411] conv1 -> conv1
I0210 18:55:08.215308  1078 net.cpp:150] Setting up conv1
I0210 18:55:08.215329  1078 net.cpp:157] Top shape: 100 32 32 32 (3276800)
I0210 18:55:08.215334  1078 net.cpp:165] Memory required for data: 14336400
I0210 18:55:08.215355  1078 layer_factory.hpp:77] Creating layer pool1
I0210 18:55:08.215376  1078 net.cpp:106] Creating Layer pool1
I0210 18:55:08.215391  1078 net.cpp:454] pool1 <- conv1
I0210 18:55:08.215405  1078 net.cpp:411] pool1 -> pool1
I0210 18:55:08.215478  1078 net.cpp:150] Setting up pool1
I0210 18:55:08.215502  1078 net.cpp:157] Top shape: 100 32 16 16 (819200)
I0210 18:55:08.215512  1078 net.cpp:165] Memory required for data: 17613200
I0210 18:55:08.215520  1078 layer_factory.hpp:77] Creating layer relu1
I0210 18:55:08.215543  1078 net.cpp:106] Creating Layer relu1
I0210 18:55:08.215558  1078 net.cpp:454] relu1 <- pool1
I0210 18:55:08.215571  1078 net.cpp:397] relu1 -> pool1 (in-place)
I0210 18:55:08.215592  1078 net.cpp:150] Setting up relu1
I0210 18:55:08.215607  1078 net.cpp:157] Top shape: 100 32 16 16 (819200)
I0210 18:55:08.215616  1078 net.cpp:165] Memory required for data: 20890000
I0210 18:55:08.215636  1078 layer_factory.hpp:77] Creating layer conv2
I0210 18:55:08.215656  1078 net.cpp:106] Creating Layer conv2
I0210 18:55:08.215668  1078 net.cpp:454] conv2 <- pool1
I0210 18:55:08.215679  1078 net.cpp:411] conv2 -> conv2
I0210 18:55:08.217234  1078 net.cpp:150] Setting up conv2
I0210 18:55:08.217254  1078 net.cpp:157] Top shape: 100 32 16 16 (819200)
I0210 18:55:08.217260  1078 net.cpp:165] Memory required for data: 24166800
I0210 18:55:08.217272  1078 layer_factory.hpp:77] Creating layer relu2
I0210 18:55:08.217278  1078 net.cpp:106] Creating Layer relu2
I0210 18:55:08.217283  1078 net.cpp:454] relu2 <- conv2
I0210 18:55:08.217289  1078 net.cpp:397] relu2 -> conv2 (in-place)
I0210 18:55:08.217313  1078 net.cpp:150] Setting up relu2
I0210 18:55:08.217325  1078 net.cpp:157] Top shape: 100 32 16 16 (819200)
I0210 18:55:08.217334  1078 net.cpp:165] Memory required for data: 27443600
I0210 18:55:08.217342  1078 layer_factory.hpp:77] Creating layer pool2
I0210 18:55:08.217365  1078 net.cpp:106] Creating Layer pool2
I0210 18:55:08.217373  1078 net.cpp:454] pool2 <- conv2
I0210 18:55:08.217381  1078 net.cpp:411] pool2 -> pool2
I0210 18:55:08.217406  1078 net.cpp:150] Setting up pool2
I0210 18:55:08.217417  1078 net.cpp:157] Top shape: 100 32 8 8 (204800)
I0210 18:55:08.217420  1078 net.cpp:165] Memory required for data: 28262800
I0210 18:55:08.217425  1078 layer_factory.hpp:77] Creating layer conv3
I0210 18:55:08.217435  1078 net.cpp:106] Creating Layer conv3
I0210 18:55:08.217439  1078 net.cpp:454] conv3 <- pool2
I0210 18:55:08.217449  1078 net.cpp:411] conv3 -> conv3
I0210 18:55:08.219348  1078 net.cpp:150] Setting up conv3
I0210 18:55:08.219372  1078 net.cpp:157] Top shape: 100 64 8 8 (409600)
I0210 18:55:08.219380  1078 net.cpp:165] Memory required for data: 29901200
I0210 18:55:08.219400  1078 layer_factory.hpp:77] Creating layer relu3
I0210 18:55:08.219421  1078 net.cpp:106] Creating Layer relu3
I0210 18:55:08.219434  1078 net.cpp:454] relu3 <- conv3
I0210 18:55:08.219445  1078 net.cpp:397] relu3 -> conv3 (in-place)
I0210 18:55:08.219462  1078 net.cpp:150] Setting up relu3
I0210 18:55:08.219475  1078 net.cpp:157] Top shape: 100 64 8 8 (409600)
I0210 18:55:08.219485  1078 net.cpp:165] Memory required for data: 31539600
I0210 18:55:08.219494  1078 layer_factory.hpp:77] Creating layer pool3
I0210 18:55:08.219512  1078 net.cpp:106] Creating Layer pool3
I0210 18:55:08.219530  1078 net.cpp:454] pool3 <- conv3
I0210 18:55:08.219545  1078 net.cpp:411] pool3 -> pool3
I0210 18:55:08.219589  1078 net.cpp:150] Setting up pool3
I0210 18:55:08.219622  1078 net.cpp:157] Top shape: 100 64 4 4 (102400)
I0210 18:55:08.219630  1078 net.cpp:165] Memory required for data: 31949200
I0210 18:55:08.219640  1078 layer_factory.hpp:77] Creating layer ip1
I0210 18:55:08.219666  1078 net.cpp:106] Creating Layer ip1
I0210 18:55:08.219682  1078 net.cpp:454] ip1 <- pool3
I0210 18:55:08.219697  1078 net.cpp:411] ip1 -> ip1
I0210 18:55:08.221915  1078 net.cpp:150] Setting up ip1
I0210 18:55:08.221938  1078 net.cpp:157] Top shape: 100 64 (6400)
I0210 18:55:08.221947  1078 net.cpp:165] Memory required for data: 31974800
I0210 18:55:08.221963  1078 layer_factory.hpp:77] Creating layer ip2
I0210 18:55:08.221992  1078 net.cpp:106] Creating Layer ip2
I0210 18:55:08.221998  1078 net.cpp:454] ip2 <- ip1
I0210 18:55:08.222007  1078 net.cpp:411] ip2 -> ip2
I0210 18:55:08.222827  1078 net.cpp:150] Setting up ip2
I0210 18:55:08.222846  1078 net.cpp:157] Top shape: 100 100 (10000)
I0210 18:55:08.222851  1078 net.cpp:165] Memory required for data: 32014800
I0210 18:55:08.222864  1078 layer_factory.hpp:77] Creating layer loss
I0210 18:55:08.222875  1078 net.cpp:106] Creating Layer loss
I0210 18:55:08.222880  1078 net.cpp:454] loss <- ip2
I0210 18:55:08.222887  1078 net.cpp:454] loss <- label
I0210 18:55:08.222894  1078 net.cpp:411] loss -> loss
I0210 18:55:08.222911  1078 layer_factory.hpp:77] Creating layer loss
…
I0210 18:55:08.223600  1078 solver.cpp:181] Creating test net (#0) specified by net file: examples/cifar100/cifar100_quick_train_test.prototxt
I0210 18:55:08.223665  1078 net.cpp:322] The NetState phase (1) differed from the phase (0) specified by a rule in layer cifar
I0210 18:55:08.223836  1078 net.cpp:49] Initializing net from parameters: 
name: "CIFAR100_quick"
state {
  phase: TEST
}
layer {
  name: "cifar"
  type: "Data"
  top: "data"
  top: "label"
  include {
    phase: TEST
  }
  data_param {
    source: "examples/cifar100/cifar100_test_lmdb"
    batch_size: 100
    backend: LMDB
  }
}
layer {
  name: "conv1"
  type: "Convolution"
  bottom: "data"
  top: "conv1"
  param {
    lr_mult: 1
  }
  param {
    lr_mult: 2
  }
  convolution_param {
    num_output: 32
    pad: 2
    kernel_size: 5
    stride: 1
    weight_filler {
      type: "gaussian"
      std: 0.0001
    }
    bias_filler {
      type: "constant"
    }
  }
}
layer {
  name: "pool1"
  type: "Pooling"
  bottom: "conv1"
  top: "pool1"
  pooling_param {
    pool: MAX
    kernel_size: 3
    stride: 2
  }
}
layer {
  name: "relu1"
  type: "ReLU"
  bottom: "pool1"
  top: "pool1"
}
layer {
  name: "conv2"
  type: "Convolution"
  bottom: "pool1"
  top: "conv2"
  param {
    lr_mult: 1
  }
  param {
    lr_mult: 2
  }
  convolution_param {
    num_output: 32
    pad: 2
    kernel_size: 5
    stride: 1
    weight_filler {
      type: "gaussian"
      std: 0.01
    }
    bias_filler {
      type: "constant"
    }
  }
}
layer {
  name: "relu2"
  type: "ReLU"
  bottom: "conv2"
  top: "conv2"
}
layer {
  name: "pool2"
  type: "Pooling"
  bottom: "conv2"
  top: "pool2"
  pooling_param {
    pool: AVE
    kernel_size: 3
    stride: 2
  }
}
layer {
  name: "conv3"
  type: "Convolution"
  bottom: "pool2"
  top: "conv3"
  param {
    lr_mult: 1
  }
  param {
    lr_mult: 2
  }
  convolution_param {
    num_output: 64
    pad: 2
    kernel_size: 5
    stride: 1
    weight_filler {
      type: "gaussian"
      std: 0.01
    }
    bias_filler {
      type: "constant"
    }
  }
}
layer {
  name: "relu3"
  type: "ReLU"
  bottom: "conv3"
  top: "conv3"
}
layer {
  name: "pool3"
  type: "Pooling"
  bottom: "conv3"
  top: "pool3"
  pooling_param {
    pool: AVE
    kernel_size: 3
    stride: 2
  }
}
layer {
  name: "ip1"
  type: "InnerProduct"
  bottom: "pool3"
  top: "ip1"
  param {
    lr_mult: 1
  }
  param {
    lr_mult: 2
  }
  inner_product_param {
    num_output: 64
    weight_filler {
      type: "gaussian"
      std: 0.1
    }
    bias_filler {
      type: "constant"
    }
  }
}
layer {
  name: "ip2"
  type: "InnerProduct"
  bottom: "ip1"
  top: "ip2"
  param {
    lr_mult: 1
  }
  param {
    lr_mult: 2
  }
  inner_product_param {
    num_output: 100
    weight_filler {
      type: "gaussian"
      std: 0.1
    }
    bias_filler {
      type: "constant"
    }
  }
}
layer {
  name: "accuracy"
  type: "Accuracy"
  bottom: "ip2"
  bottom: "label"
  top: "accuracy"
  include {
    phase: TEST
  }
}
layer {
  name: "loss"
  type: "SoftmaxWithLoss"
  bottom: "ip2"
  bottom: "label"
  top: "loss"
}
I0210 18:55:08.223955  1078 layer_factory.hpp:77] Creating layer cifar
I0210 18:55:08.224074  1078 net.cpp:106] Creating Layer cifar
I0210 18:55:08.224084  1078 net.cpp:411] cifar -> data
I0210 18:55:08.224095  1078 net.cpp:411] cifar -> label
I0210 18:55:08.225157  1085 db_lmdb.cpp:38] Opened lmdb examples/cifar100/cifar100_test_lmdb
I0210 18:55:08.225298  1078 data_layer.cpp:41] output data size: 100,3,32,32
I0210 18:55:08.233115  1078 net.cpp:150] Setting up cifar
I0210 18:55:08.233139  1078 net.cpp:157] Top shape: 100 3 32 32 (307200)
I0210 18:55:08.233144  1078 net.cpp:157] Top shape: 100 (100)
I0210 18:55:08.233150  1078 net.cpp:165] Memory required for data: 1229200
I0210 18:55:08.233155  1078 layer_factory.hpp:77] Creating layer label_cifar_1_split
I0210 18:55:08.233180  1078 net.cpp:106] Creating Layer label_cifar_1_split
I0210 18:55:08.233191  1078 net.cpp:454] label_cifar_1_split <- label
I0210 18:55:08.233203  1078 net.cpp:411] label_cifar_1_split -> label_cifar_1_split_0
I0210 18:55:08.233232  1078 net.cpp:411] label_cifar_1_split -> label_cifar_1_split_1
I0210 18:55:08.233284  1078 net.cpp:150] Setting up label_cifar_1_split
I0210 18:55:08.233300  1078 net.cpp:157] Top shape: 100 (100)
I0210 18:55:08.233306  1078 net.cpp:157] Top shape: 100 (100)
I0210 18:55:08.233310  1078 net.cpp:165] Memory required for data: 1230000
I0210 18:55:08.233314  1078 layer_factory.hpp:77] Creating layer conv1
I0210 18:55:08.233331  1078 net.cpp:106] Creating Layer conv1
I0210 18:55:08.233338  1078 net.cpp:454] conv1 <- data
I0210 18:55:08.233348  1078 net.cpp:411] conv1 -> conv1
I0210 18:55:08.233642  1078 net.cpp:150] Setting up conv1
I0210 18:55:08.233660  1078 net.cpp:157] Top shape: 100 32 32 32 (3276800)
I0210 18:55:08.233665  1078 net.cpp:165] Memory required for data: 14337200
I0210 18:55:08.233677  1078 layer_factory.hpp:77] Creating layer pool1
I0210 18:55:08.233691  1078 net.cpp:106] Creating Layer pool1
I0210 18:55:08.233696  1078 net.cpp:454] pool1 <- conv1
I0210 18:55:08.233705  1078 net.cpp:411] pool1 -> pool1
I0210 18:55:08.233744  1078 net.cpp:150] Setting up pool1
I0210 18:55:08.233759  1078 net.cpp:157] Top shape: 100 32 16 16 (819200)
I0210 18:55:08.233763  1078 net.cpp:165] Memory required for data: 17614000
I0210 18:55:08.233768  1078 layer_factory.hpp:77] Creating layer relu1
I0210 18:55:08.233778  1078 net.cpp:106] Creating Layer relu1
I0210 18:55:08.233798  1078 net.cpp:454] relu1 <- pool1
I0210 18:55:08.233805  1078 net.cpp:397] relu1 -> pool1 (in-place)
I0210 18:55:08.233814  1078 net.cpp:150] Setting up relu1
I0210 18:55:08.233819  1078 net.cpp:157] Top shape: 100 32 16 16 (819200)
I0210 18:55:08.233824  1078 net.cpp:165] Memory required for data: 20890800
I0210 18:55:08.233827  1078 layer_factory.hpp:77] Creating layer conv2
I0210 18:55:08.233839  1078 net.cpp:106] Creating Layer conv2
I0210 18:55:08.233846  1078 net.cpp:454] conv2 <- pool1
I0210 18:55:08.233855  1078 net.cpp:411] conv2 -> conv2
I0210 18:55:08.235517  1078 net.cpp:150] Setting up conv2
I0210 18:55:08.235546  1078 net.cpp:157] Top shape: 100 32 16 16 (819200)
I0210 18:55:08.235555  1078 net.cpp:165] Memory required for data: 24167600
I0210 18:55:08.235580  1078 layer_factory.hpp:77] Creating layer relu2
I0210 18:55:08.235602  1078 net.cpp:106] Creating Layer relu2
I0210 18:55:08.235611  1078 net.cpp:454] relu2 <- conv2
I0210 18:55:08.235620  1078 net.cpp:397] relu2 -> conv2 (in-place)
I0210 18:55:08.235627  1078 net.cpp:150] Setting up relu2
I0210 18:55:08.235633  1078 net.cpp:157] Top shape: 100 32 16 16 (819200)
I0210 18:55:08.235638  1078 net.cpp:165] Memory required for data: 27444400
I0210 18:55:08.235642  1078 layer_factory.hpp:77] Creating layer pool2
I0210 18:55:08.235651  1078 net.cpp:106] Creating Layer pool2
I0210 18:55:08.235656  1078 net.cpp:454] pool2 <- conv2
I0210 18:55:08.235662  1078 net.cpp:411] pool2 -> pool2
I0210 18:55:08.235685  1078 net.cpp:150] Setting up pool2
I0210 18:55:08.235693  1078 net.cpp:157] Top shape: 100 32 8 8 (204800)
I0210 18:55:08.235697  1078 net.cpp:165] Memory required for data: 28263600
I0210 18:55:08.235702  1078 layer_factory.hpp:77] Creating layer conv3
I0210 18:55:08.235721  1078 net.cpp:106] Creating Layer conv3
I0210 18:55:08.235728  1078 net.cpp:454] conv3 <- pool2
I0210 18:55:08.235734  1078 net.cpp:411] conv3 -> conv3
I0210 18:55:08.237607  1078 net.cpp:150] Setting up conv3
I0210 18:55:08.237619  1078 net.cpp:157] Top shape: 100 64 8 8 (409600)
I0210 18:55:08.237624  1078 net.cpp:165] Memory required for data: 29902000
I0210 18:55:08.237635  1078 layer_factory.hpp:77] Creating layer relu3
I0210 18:55:08.237645  1078 net.cpp:106] Creating Layer relu3
I0210 18:55:08.237650  1078 net.cpp:454] relu3 <- conv3
I0210 18:55:08.237656  1078 net.cpp:397] relu3 -> conv3 (in-place)
I0210 18:55:08.237663  1078 net.cpp:150] Setting up relu3
I0210 18:55:08.237669  1078 net.cpp:157] Top shape: 100 64 8 8 (409600)
I0210 18:55:08.237673  1078 net.cpp:165] Memory required for data: 31540400
I0210 18:55:08.237679  1078 layer_factory.hpp:77] Creating layer pool3
I0210 18:55:08.237687  1078 net.cpp:106] Creating Layer pool3
I0210 18:55:08.237692  1078 net.cpp:454] pool3 <- conv3
I0210 18:55:08.237699  1078 net.cpp:411] pool3 -> pool3
I0210 18:55:08.237725  1078 net.cpp:150] Setting up pool3
I0210 18:55:08.237733  1078 net.cpp:157] Top shape: 100 64 4 4 (102400)
I0210 18:55:08.237737  1078 net.cpp:165] Memory required for data: 31950000
I0210 18:55:08.237742  1078 layer_factory.hpp:77] Creating layer ip1
I0210 18:55:08.237752  1078 net.cpp:106] Creating Layer ip1
I0210 18:55:08.237757  1078 net.cpp:454] ip1 <- pool3
I0210 18:55:08.237764  1078 net.cpp:411] ip1 -> ip1
I0210 18:55:08.240490  1078 net.cpp:150] Setting up ip1
I0210 18:55:08.240515  1078 net.cpp:157] Top shape: 100 64 (6400)
I0210 18:55:08.240525  1078 net.cpp:165] Memory required for data: 31975600
I0210 18:55:08.240541  1078 layer_factory.hpp:77] Creating layer ip2
I0210 18:55:08.240566  1078 net.cpp:106] Creating Layer ip2
I0210 18:55:08.240576  1078 net.cpp:454] ip2 <- ip1
I0210 18:55:08.240587  1078 net.cpp:411] ip2 -> ip2
I0210 18:55:08.240928  1078 net.cpp:150] Setting up ip2
I0210 18:55:08.240949  1078 net.cpp:157] Top shape: 100 100 (10000)
I0210 18:55:08.240954  1078 net.cpp:165] Memory required for data: 32015600
I0210 18:55:08.240969  1078 layer_factory.hpp:77] Creating layer ip2_ip2_0_split
I0210 18:55:08.240978  1078 net.cpp:106] Creating Layer ip2_ip2_0_split
I0210 18:55:08.240996  1078 net.cpp:454] ip2_ip2_0_split <- ip2
I0210 18:55:08.241008  1078 net.cpp:411] ip2_ip2_0_split -> ip2_ip2_0_split_0
I0210 18:55:08.241019  1078 net.cpp:411] ip2_ip2_0_split -> ip2_ip2_0_split_1
I0210 18:55:08.241060  1078 net.cpp:150] Setting up ip2_ip2_0_split
I0210 18:55:08.241075  1078 net.cpp:157] Top shape: 100 100 (10000)
I0210 18:55:08.241081  1078 net.cpp:157] Top shape: 100 100 (10000)
I0210 18:55:08.241086  1078 net.cpp:165] Memory required for data: 32095600
I0210 18:55:08.241091  1078 layer_factory.hpp:77] Creating layer accuracy
I0210 18:55:08.241106  1078 net.cpp:106] Creating Layer accuracy
I0210 18:55:08.241111  1078 net.cpp:454] accuracy <- ip2_ip2_0_split_0
I0210 18:55:08.241117  1078 net.cpp:454] accuracy <- label_cifar_1_split_0
I0210 18:55:08.241127  1078 net.cpp:411] accuracy -> accuracy
…
